Cannot find config for target=llvm -keys=cpu -mcpu=cascadelake, workload=('conv2d_NCHWc_int8.x86', ('TENSOR', (1, 1024, 16, 16), 'uint8'), ('TENSOR', (2048, 1024, 1, 1), 'int8'), (1, 1), (0, 0, 0, 0), (1, 1), 'NCHW', 'NCHW', 'int32'). A fallback configuration is used, which may bring great performance regression.
[00:51:48] /home/ubuntu/tvm/src/relay/backend/build_module.cc:326: v0.0.4
def @main(%x: Tensor[(1, 1024, 16, 16), int8], %w: Tensor[(2048, 1024, 1, 1), int8], %b: Tensor[(1, 2048, 1, 1), int32]) -> Tensor[(1, 2048, 16, 16), int32] {
  %0 = cast(%x, dtype="int32") /* ty=Tensor[(1, 1024, 16, 16), int32] */;
  %1 = add(%0, 128 /* ty=int32 */) /* ty=Tensor[(1, 1024, 16, 16), int32] */;
  %2 = cast(%1, dtype="uint8") /* ty=Tensor[(1, 1024, 16, 16), uint8] */;
  %3 = layout_transform(%2, src_layout="NCHW", dst_layout="NCHW16c") /* ty=Tensor[(1, 64, 16, 16, 16), uint8] */;
  %4 = transpose(%w, axes=[1, 2, 3, 0]) /* ty=Tensor[(1024, 1, 1, 2048), int8] */;
  %5 = reshape(%4, newshape=[1024, 1, 1, 128, 16]) /* ty=Tensor[(1024, 1, 1, 128, 16), int8] */;
  %6 = transpose(%5, axes=[3, 1, 2, 4, 0]) /* ty=Tensor[(128, 1, 1, 16, 1024), int8] */;
  %7 = reshape(%6, newshape=[128, 1, 1, 16, 64, 16]) /* ty=Tensor[(128, 1, 1, 16, 64, 16), int8] */;
  %8 = reshape(%7, newshape=[128, 1, 1, 16, 64, 4, 4]) /* ty=Tensor[(128, 1, 1, 16, 64, 4, 4), int8] */;
  %9 = transpose(%8, axes=[0, 4, 1, 2, 5, 3, 6]) /* ty=Tensor[(128, 64, 1, 1, 4, 16, 4), int8] */;
  %10 = nn.contrib_conv2d_NCHWc(%3, %9, padding=[0, 0, 0, 0], channels=2048, kernel_size=[1, 1], data_layout="NCHW16c", out_layout="NCHW16c", out_dtype="int32") /* ty=Tensor[(1, 128, 16, 16, 16), int32] */;
  %11 = cast(%w, dtype="int32") /* ty=Tensor[(2048, 1024, 1, 1), int32] */;
  %12 = sum(%11, axis=[1, 2, 3]) /* ty=Tensor[(2048), int32] */;
  %13 = expand_dims(%12, axis=1, num_newaxis=2) /* ty=Tensor[(2048, 1, 1), int32] */;
  %14 = multiply(%13, 128 /* ty=int32 */) /* ty=Tensor[(2048, 1, 1), int32] */;
  %15 = expand_dims(%14, axis=0) /* ty=Tensor[(1, 2048, 1, 1), int32] */;
  %16 = layout_transform(%15, src_layout="NCHW", dst_layout="NCHW16c") /* ty=Tensor[(1, 128, 1, 1, 16), int32] */;
  %17 = subtract(%10, %16) /* ty=Tensor[(1, 128, 16, 16, 16), int32] */;
  %18 = layout_transform(%b, src_layout="NCHW", dst_layout="NCHW16c") /* ty=Tensor[(1, 128, 1, 1, 16), int32] */;
  %19 = add(%17, %18) /* ty=Tensor[(1, 128, 16, 16, 16), int32] */;
  %20 = multiply(%19, 11 /* ty=int32 */) /* ty=Tensor[(1, 128, 16, 16, 16), int32] */;
  layout_transform(%20, src_layout="NCHW16c", dst_layout="NCHW") /* ty=Tensor[(1, 2048, 16, 16), int32] */
}

Cannot find config for target=llvm -keys=cpu -mcpu=cascadelake, workload=('conv2d_NCHWc_int8.x86', ('TENSOR', (1, 64, 16, 16, 16), 'uint8'), ('TENSOR', (128, 64, 1, 1, 4, 16, 4), 'int8'), (1, 1), (0, 0, 0, 0), (1, 1), 'NCHW16c', 'NCHW16c', 'int32'). A fallback configuration is used, which may bring great performance regression.
[00:51:49] /home/ubuntu/tvm/src/runtime/graph/debug/graph_runtime_debug.cc:95: Iteration: 0
[00:51:49] /home/ubuntu/tvm/src/runtime/graph/debug/graph_runtime_debug.cc:100: Op #0 fused_cast_add_cast_layout_transform: 10.9852 us/iter
[00:51:49] /home/ubuntu/tvm/src/runtime/graph/debug/graph_runtime_debug.cc:100: Op #1 fused_transpose_reshape_transpose_reshape_reshape_transpose: 17.4799 us/iter
[00:51:49] /home/ubuntu/tvm/src/runtime/graph/debug/graph_runtime_debug.cc:100: Op #2 fused_cast_sum: 6.8547 us/iter
[00:51:49] /home/ubuntu/tvm/src/runtime/graph/debug/graph_runtime_debug.cc:100: Op #3 fused_expand_dims_multiply_expand_dims_layout_transform: 2.2923 us/iter
[00:51:49] /home/ubuntu/tvm/src/runtime/graph/debug/graph_runtime_debug.cc:100: Op #4 fused_layout_transform_1: 2.1312 us/iter
[00:51:49] /home/ubuntu/tvm/src/runtime/graph/debug/graph_runtime_debug.cc:100: Op #5 fused_nn_contrib_conv2d_NCHWc_subtract_add_multiply: 179.058 us/iter
[00:51:49] /home/ubuntu/tvm/src/runtime/graph/debug/graph_runtime_debug.cc:100: Op #6 fused_layout_transform: 15.9479 us/iter
[00:51:49] /home/ubuntu/tvm/src/runtime/graph/debug/graph_runtime_debug.cc:95: Iteration: 0
[00:51:49] /home/ubuntu/tvm/src/runtime/graph/debug/graph_runtime_debug.cc:100: Op #0 fused_cast_add_cast_layout_transform: 11.3509 us/iter
[00:51:49] /home/ubuntu/tvm/src/runtime/graph/debug/graph_runtime_debug.cc:100: Op #1 fused_transpose_reshape_transpose_reshape_reshape_transpose: 17.6343 us/iter
[00:51:49] /home/ubuntu/tvm/src/runtime/graph/debug/graph_runtime_debug.cc:100: Op #2 fused_cast_sum: 6.7294 us/iter
[00:51:49] /home/ubuntu/tvm/src/runtime/graph/debug/graph_runtime_debug.cc:100: Op #3 fused_expand_dims_multiply_expand_dims_layout_transform: 2.3682 us/iter
[00:51:49] /home/ubuntu/tvm/src/runtime/graph/debug/graph_runtime_debug.cc:100: Op #4 fused_layout_transform_1: 2.16 us/iter
[00:51:49] /home/ubuntu/tvm/src/runtime/graph/debug/graph_runtime_debug.cc:100: Op #5 fused_nn_contrib_conv2d_NCHWc_subtract_add_multiply: 184.692 us/iter
[00:51:49] /home/ubuntu/tvm/src/runtime/graph/debug/graph_runtime_debug.cc:100: Op #6 fused_layout_transform: 16.1283 us/iter
[00:51:49] /home/ubuntu/tvm/src/runtime/graph/debug/graph_runtime_debug.cc:95: Iteration: 0
[00:51:49] /home/ubuntu/tvm/src/runtime/graph/debug/graph_runtime_debug.cc:100: Op #0 fused_cast_add_cast_layout_transform: 11.0993 us/iter
[00:51:49] /home/ubuntu/tvm/src/runtime/graph/debug/graph_runtime_debug.cc:100: Op #1 fused_transpose_reshape_transpose_reshape_reshape_transpose: 18.8086 us/iter
[00:51:49] /home/ubuntu/tvm/src/runtime/graph/debug/graph_runtime_debug.cc:100: Op #2 fused_cast_sum: 7.271 us/iter
[00:51:49] /home/ubuntu/tvm/src/runtime/graph/debug/graph_runtime_debug.cc:100: Op #3 fused_expand_dims_multiply_expand_dims_layout_transform: 2.373 us/iter
[00:51:49] /home/ubuntu/tvm/src/runtime/graph/debug/graph_runtime_debug.cc:100: Op #4 fused_layout_transform_1: 2.1443 us/iter
[00:51:49] /home/ubuntu/tvm/src/runtime/graph/debug/graph_runtime_debug.cc:100: Op #5 fused_nn_contrib_conv2d_NCHWc_subtract_add_multiply: 195.07 us/iter
[00:51:49] /home/ubuntu/tvm/src/runtime/graph/debug/graph_runtime_debug.cc:100: Op #6 fused_layout_transform: 16.7525 us/iter
[00:51:49] /home/ubuntu/tvm/src/runtime/graph/debug/graph_runtime_debug.cc:95: Iteration: 0
[00:51:49] /home/ubuntu/tvm/src/runtime/graph/debug/graph_runtime_debug.cc:100: Op #0 fused_cast_add_cast_layout_transform: 10.8681 us/iter
[00:51:49] /home/ubuntu/tvm/src/runtime/graph/debug/graph_runtime_debug.cc:100: Op #1 fused_transpose_reshape_transpose_reshape_reshape_transpose: 18.3083 us/iter
[00:51:49] /home/ubuntu/tvm/src/runtime/graph/debug/graph_runtime_debug.cc:100: Op #2 fused_cast_sum: 7.032 us/iter
[00:51:49] /home/ubuntu/tvm/src/runtime/graph/debug/graph_runtime_debug.cc:100: Op #3 fused_expand_dims_multiply_expand_dims_layout_transform: 2.283 us/iter
[00:51:49] /home/ubuntu/tvm/src/runtime/graph/debug/graph_runtime_debug.cc:100: Op #4 fused_layout_transform_1: 2.1392 us/iter
[00:51:49] /home/ubuntu/tvm/src/runtime/graph/debug/graph_runtime_debug.cc:100: Op #5 fused_nn_contrib_conv2d_NCHWc_subtract_add_multiply: 191.784 us/iter
[00:51:49] /home/ubuntu/tvm/src/runtime/graph/debug/graph_runtime_debug.cc:100: Op #6 fused_layout_transform: 16.0218 us/iter
[00:51:49] /home/ubuntu/tvm/src/runtime/graph/debug/graph_runtime_debug.cc:95: Iteration: 0
[00:51:49] /home/ubuntu/tvm/src/runtime/graph/debug/graph_runtime_debug.cc:100: Op #0 fused_cast_add_cast_layout_transform: 11.0996 us/iter
[00:51:49] /home/ubuntu/tvm/src/runtime/graph/debug/graph_runtime_debug.cc:100: Op #1 fused_transpose_reshape_transpose_reshape_reshape_transpose: 18.4618 us/iter
[00:51:49] /home/ubuntu/tvm/src/runtime/graph/debug/graph_runtime_debug.cc:100: Op #2 fused_cast_sum: 7.023 us/iter
[00:51:49] /home/ubuntu/tvm/src/runtime/graph/debug/graph_runtime_debug.cc:100: Op #3 fused_expand_dims_multiply_expand_dims_layout_transform: 2.3785 us/iter
[00:51:49] /home/ubuntu/tvm/src/runtime/graph/debug/graph_runtime_debug.cc:100: Op #4 fused_layout_transform_1: 2.1794 us/iter
[00:51:49] /home/ubuntu/tvm/src/runtime/graph/debug/graph_runtime_debug.cc:100: Op #5 fused_nn_contrib_conv2d_NCHWc_subtract_add_multiply: 187.669 us/iter
[00:51:49] /home/ubuntu/tvm/src/runtime/graph/debug/graph_runtime_debug.cc:100: Op #6 fused_layout_transform: 17.2061 us/iter
Cannot find config for target=llvm -keys=cpu -mcpu=cascadelake, workload=('conv2d_NCHWc_int8.x86', ('TENSOR', (1, 1024, 16, 16), 'uint8'), ('TENSOR', (2048, 1024, 1, 1), 'int8'), (1, 1), (0, 0, 0, 0), (1, 1), 'NCHW', 'NCHW', 'int32'). A fallback configuration is used, which may bring great performance regression.
[00:51:49] /home/ubuntu/tvm/src/relay/backend/build_module.cc:326: v0.0.4
def @main(%x: Tensor[(1, 1024, 16, 16), int8], %w: Tensor[(2048, 1024, 1, 1), int8], %b: Tensor[(1, 2048, 1, 1), int32]) -> Tensor[(1, 2048, 16, 16), int32] {
  %0 = cast(%x, dtype="int32") /* ty=Tensor[(1, 1024, 16, 16), int32] */;
  %1 = add(%0, 128 /* ty=int32 */) /* ty=Tensor[(1, 1024, 16, 16), int32] */;
  %2 = cast(%1, dtype="uint8") /* ty=Tensor[(1, 1024, 16, 16), uint8] */;
  %3 = layout_transform(%2, src_layout="NCHW", dst_layout="NCHW16c") /* ty=Tensor[(1, 64, 16, 16, 16), uint8] */;
  %4 = transpose(%w, axes=[1, 2, 3, 0]) /* ty=Tensor[(1024, 1, 1, 2048), int8] */;
  %5 = reshape(%4, newshape=[1024, 1, 1, 128, 16]) /* ty=Tensor[(1024, 1, 1, 128, 16), int8] */;
  %6 = transpose(%5, axes=[3, 1, 2, 4, 0]) /* ty=Tensor[(128, 1, 1, 16, 1024), int8] */;
  %7 = reshape(%6, newshape=[128, 1, 1, 16, 64, 16]) /* ty=Tensor[(128, 1, 1, 16, 64, 16), int8] */;
  %8 = reshape(%7, newshape=[128, 1, 1, 16, 64, 4, 4]) /* ty=Tensor[(128, 1, 1, 16, 64, 4, 4), int8] */;
  %9 = transpose(%8, axes=[0, 4, 1, 2, 5, 3, 6]) /* ty=Tensor[(128, 64, 1, 1, 4, 16, 4), int8] */;
  %10 = nn.contrib_conv2d_NCHWc(%3, %9, padding=[0, 0, 0, 0], channels=2048, kernel_size=[1, 1], data_layout="NCHW16c", out_layout="NCHW16c", out_dtype="int32") /* ty=Tensor[(1, 128, 16, 16, 16), int32] */;
  %11 = cast(%w, dtype="int32") /* ty=Tensor[(2048, 1024, 1, 1), int32] */;
  %12 = sum(%11, axis=[1, 2, 3]) /* ty=Tensor[(2048), int32] */;
  %13 = expand_dims(%12, axis=1, num_newaxis=2) /* ty=Tensor[(2048, 1, 1), int32] */;
  %14 = multiply(%13, 128 /* ty=int32 */) /* ty=Tensor[(2048, 1, 1), int32] */;
  %15 = expand_dims(%14, axis=0) /* ty=Tensor[(1, 2048, 1, 1), int32] */;
  %16 = layout_transform(%15, src_layout="NCHW", dst_layout="NCHW16c") /* ty=Tensor[(1, 128, 1, 1, 16), int32] */;
  %17 = subtract(%10, %16) /* ty=Tensor[(1, 128, 16, 16, 16), int32] */;
  %18 = layout_transform(%b, src_layout="NCHW", dst_layout="NCHW16c") /* ty=Tensor[(1, 128, 1, 1, 16), int32] */;
  %19 = add(%17, %18) /* ty=Tensor[(1, 128, 16, 16, 16), int32] */;
  %20 = multiply(%19, 11 /* ty=int32 */) /* ty=Tensor[(1, 128, 16, 16, 16), int32] */;
  layout_transform(%20, src_layout="NCHW16c", dst_layout="NCHW") /* ty=Tensor[(1, 2048, 16, 16), int32] */
}

Cannot find config for target=llvm -keys=cpu -mcpu=cascadelake, workload=('conv2d_NCHWc_int8.x86', ('TENSOR', (1, 64, 16, 16, 16), 'uint8'), ('TENSOR', (128, 64, 1, 1, 4, 16, 4), 'int8'), (1, 1), (0, 0, 0, 0), (1, 1), 'NCHW16c', 'NCHW16c', 'int32'). A fallback configuration is used, which may bring great performance regression.
[00:51:50] /home/ubuntu/tvm/src/runtime/graph/debug/graph_runtime_debug.cc:95: Iteration: 0
[00:51:50] /home/ubuntu/tvm/src/runtime/graph/debug/graph_runtime_debug.cc:100: Op #0 fused_cast_add_cast_layout_transform: 11.03 us/iter
[00:51:50] /home/ubuntu/tvm/src/runtime/graph/debug/graph_runtime_debug.cc:100: Op #1 fused_transpose_reshape_transpose_reshape_reshape_transpose: 18.573 us/iter
[00:51:50] /home/ubuntu/tvm/src/runtime/graph/debug/graph_runtime_debug.cc:100: Op #2 fused_cast_sum: 6.8032 us/iter
[00:51:50] /home/ubuntu/tvm/src/runtime/graph/debug/graph_runtime_debug.cc:100: Op #3 fused_expand_dims_multiply_expand_dims_layout_transform: 2.3659 us/iter
[00:51:50] /home/ubuntu/tvm/src/runtime/graph/debug/graph_runtime_debug.cc:100: Op #4 fused_layout_transform_1: 2.1891 us/iter
[00:51:50] /home/ubuntu/tvm/src/runtime/graph/debug/graph_runtime_debug.cc:100: Op #5 fused_nn_contrib_conv2d_NCHWc_subtract_add_multiply: 182.256 us/iter
[00:51:50] /home/ubuntu/tvm/src/runtime/graph/debug/graph_runtime_debug.cc:100: Op #6 fused_layout_transform: 16.0918 us/iter
[00:51:50] /home/ubuntu/tvm/src/runtime/graph/debug/graph_runtime_debug.cc:95: Iteration: 0
[00:51:50] /home/ubuntu/tvm/src/runtime/graph/debug/graph_runtime_debug.cc:100: Op #0 fused_cast_add_cast_layout_transform: 11.021 us/iter
[00:51:50] /home/ubuntu/tvm/src/runtime/graph/debug/graph_runtime_debug.cc:100: Op #1 fused_transpose_reshape_transpose_reshape_reshape_transpose: 18.4082 us/iter
[00:51:50] /home/ubuntu/tvm/src/runtime/graph/debug/graph_runtime_debug.cc:100: Op #2 fused_cast_sum: 6.8857 us/iter
[00:51:50] /home/ubuntu/tvm/src/runtime/graph/debug/graph_runtime_debug.cc:100: Op #3 fused_expand_dims_multiply_expand_dims_layout_transform: 2.3327 us/iter
[00:51:50] /home/ubuntu/tvm/src/runtime/graph/debug/graph_runtime_debug.cc:100: Op #4 fused_layout_transform_1: 2.113 us/iter
[00:51:50] /home/ubuntu/tvm/src/runtime/graph/debug/graph_runtime_debug.cc:100: Op #5 fused_nn_contrib_conv2d_NCHWc_subtract_add_multiply: 178.087 us/iter
[00:51:50] /home/ubuntu/tvm/src/runtime/graph/debug/graph_runtime_debug.cc:100: Op #6 fused_layout_transform: 15.8505 us/iter
[00:51:50] /home/ubuntu/tvm/src/runtime/graph/debug/graph_runtime_debug.cc:95: Iteration: 0
[00:51:50] /home/ubuntu/tvm/src/runtime/graph/debug/graph_runtime_debug.cc:100: Op #0 fused_cast_add_cast_layout_transform: 11.1518 us/iter
[00:51:50] /home/ubuntu/tvm/src/runtime/graph/debug/graph_runtime_debug.cc:100: Op #1 fused_transpose_reshape_transpose_reshape_reshape_transpose: 18.7991 us/iter
[00:51:50] /home/ubuntu/tvm/src/runtime/graph/debug/graph_runtime_debug.cc:100: Op #2 fused_cast_sum: 6.8691 us/iter
[00:51:50] /home/ubuntu/tvm/src/runtime/graph/debug/graph_runtime_debug.cc:100: Op #3 fused_expand_dims_multiply_expand_dims_layout_transform: 2.3858 us/iter
[00:51:50] /home/ubuntu/tvm/src/runtime/graph/debug/graph_runtime_debug.cc:100: Op #4 fused_layout_transform_1: 2.1283 us/iter
[00:51:50] /home/ubuntu/tvm/src/runtime/graph/debug/graph_runtime_debug.cc:100: Op #5 fused_nn_contrib_conv2d_NCHWc_subtract_add_multiply: 180.107 us/iter
[00:51:50] /home/ubuntu/tvm/src/runtime/graph/debug/graph_runtime_debug.cc:100: Op #6 fused_layout_transform: 15.9136 us/iter
[00:51:50] /home/ubuntu/tvm/src/runtime/graph/debug/graph_runtime_debug.cc:95: Iteration: 0
[00:51:50] /home/ubuntu/tvm/src/runtime/graph/debug/graph_runtime_debug.cc:100: Op #0 fused_cast_add_cast_layout_transform: 11.0735 us/iter
[00:51:50] /home/ubuntu/tvm/src/runtime/graph/debug/graph_runtime_debug.cc:100: Op #1 fused_transpose_reshape_transpose_reshape_reshape_transpose: 19.9086 us/iter
[00:51:50] /home/ubuntu/tvm/src/runtime/graph/debug/graph_runtime_debug.cc:100: Op #2 fused_cast_sum: 7.1586 us/iter
[00:51:50] /home/ubuntu/tvm/src/runtime/graph/debug/graph_runtime_debug.cc:100: Op #3 fused_expand_dims_multiply_expand_dims_layout_transform: 2.4312 us/iter
[00:51:50] /home/ubuntu/tvm/src/runtime/graph/debug/graph_runtime_debug.cc:100: Op #4 fused_layout_transform_1: 2.224 us/iter
[00:51:50] /home/ubuntu/tvm/src/runtime/graph/debug/graph_runtime_debug.cc:100: Op #5 fused_nn_contrib_conv2d_NCHWc_subtract_add_multiply: 180.75 us/iter
[00:51:50] /home/ubuntu/tvm/src/runtime/graph/debug/graph_runtime_debug.cc:100: Op #6 fused_layout_transform: 16.0228 us/iter
[00:51:50] /home/ubuntu/tvm/src/runtime/graph/debug/graph_runtime_debug.cc:95: Iteration: 0
[00:51:50] /home/ubuntu/tvm/src/runtime/graph/debug/graph_runtime_debug.cc:100: Op #0 fused_cast_add_cast_layout_transform: 10.9938 us/iter
[00:51:50] /home/ubuntu/tvm/src/runtime/graph/debug/graph_runtime_debug.cc:100: Op #1 fused_transpose_reshape_transpose_reshape_reshape_transpose: 18.5927 us/iter
[00:51:50] /home/ubuntu/tvm/src/runtime/graph/debug/graph_runtime_debug.cc:100: Op #2 fused_cast_sum: 6.8377 us/iter
[00:51:50] /home/ubuntu/tvm/src/runtime/graph/debug/graph_runtime_debug.cc:100: Op #3 fused_expand_dims_multiply_expand_dims_layout_transform: 5.5633 us/iter
[00:51:50] /home/ubuntu/tvm/src/runtime/graph/debug/graph_runtime_debug.cc:100: Op #4 fused_layout_transform_1: 2.3063 us/iter
[00:51:50] /home/ubuntu/tvm/src/runtime/graph/debug/graph_runtime_debug.cc:100: Op #5 fused_nn_contrib_conv2d_NCHWc_subtract_add_multiply: 179.793 us/iter
[00:51:50] /home/ubuntu/tvm/src/runtime/graph/debug/graph_runtime_debug.cc:100: Op #6 fused_layout_transform: 16.0184 us/iter
Cannot find config for target=llvm -keys=cpu -mcpu=cascadelake, workload=('conv2d_NCHWc_int8.x86', ('TENSOR', (1, 1024, 16, 16), 'uint8'), ('TENSOR', (2048, 1024, 1, 1), 'int8'), (1, 1), (0, 0, 0, 0), (1, 1), 'NCHW', 'NCHW', 'int32'). A fallback configuration is used, which may bring great performance regression.
[00:51:50] /home/ubuntu/tvm/src/relay/backend/build_module.cc:326: v0.0.4
def @main(%x: Tensor[(1, 1024, 16, 16), int8], %w: Tensor[(2048, 1024, 1, 1), int8], %b: Tensor[(1, 2048, 1, 1), int32]) -> Tensor[(1, 2048, 16, 16), int32] {
  %0 = cast(%x, dtype="int32") /* ty=Tensor[(1, 1024, 16, 16), int32] */;
  %1 = add(%0, 128 /* ty=int32 */) /* ty=Tensor[(1, 1024, 16, 16), int32] */;
  %2 = cast(%1, dtype="uint8") /* ty=Tensor[(1, 1024, 16, 16), uint8] */;
  %3 = layout_transform(%2, src_layout="NCHW", dst_layout="NCHW16c") /* ty=Tensor[(1, 64, 16, 16, 16), uint8] */;
  %4 = transpose(%w, axes=[1, 2, 3, 0]) /* ty=Tensor[(1024, 1, 1, 2048), int8] */;
  %5 = reshape(%4, newshape=[1024, 1, 1, 128, 16]) /* ty=Tensor[(1024, 1, 1, 128, 16), int8] */;
  %6 = transpose(%5, axes=[3, 1, 2, 4, 0]) /* ty=Tensor[(128, 1, 1, 16, 1024), int8] */;
  %7 = reshape(%6, newshape=[128, 1, 1, 16, 64, 16]) /* ty=Tensor[(128, 1, 1, 16, 64, 16), int8] */;
  %8 = reshape(%7, newshape=[128, 1, 1, 16, 64, 4, 4]) /* ty=Tensor[(128, 1, 1, 16, 64, 4, 4), int8] */;
  %9 = transpose(%8, axes=[0, 4, 1, 2, 5, 3, 6]) /* ty=Tensor[(128, 64, 1, 1, 4, 16, 4), int8] */;
  %10 = nn.contrib_conv2d_NCHWc(%3, %9, padding=[0, 0, 0, 0], channels=2048, kernel_size=[1, 1], data_layout="NCHW16c", out_layout="NCHW16c", out_dtype="int32") /* ty=Tensor[(1, 128, 16, 16, 16), int32] */;
  %11 = cast(%w, dtype="int32") /* ty=Tensor[(2048, 1024, 1, 1), int32] */;
  %12 = sum(%11, axis=[1, 2, 3]) /* ty=Tensor[(2048), int32] */;
  %13 = expand_dims(%12, axis=1, num_newaxis=2) /* ty=Tensor[(2048, 1, 1), int32] */;
  %14 = multiply(%13, 128 /* ty=int32 */) /* ty=Tensor[(2048, 1, 1), int32] */;
  %15 = expand_dims(%14, axis=0) /* ty=Tensor[(1, 2048, 1, 1), int32] */;
  %16 = layout_transform(%15, src_layout="NCHW", dst_layout="NCHW16c") /* ty=Tensor[(1, 128, 1, 1, 16), int32] */;
  %17 = subtract(%10, %16) /* ty=Tensor[(1, 128, 16, 16, 16), int32] */;
  %18 = layout_transform(%b, src_layout="NCHW", dst_layout="NCHW16c") /* ty=Tensor[(1, 128, 1, 1, 16), int32] */;
  %19 = add(%17, %18) /* ty=Tensor[(1, 128, 16, 16, 16), int32] */;
  %20 = multiply(%19, 11 /* ty=int32 */) /* ty=Tensor[(1, 128, 16, 16, 16), int32] */;
  layout_transform(%20, src_layout="NCHW16c", dst_layout="NCHW") /* ty=Tensor[(1, 2048, 16, 16), int32] */
}

Cannot find config for target=llvm -keys=cpu -mcpu=cascadelake, workload=('conv2d_NCHWc_int8.x86', ('TENSOR', (1, 64, 16, 16, 16), 'uint8'), ('TENSOR', (128, 64, 1, 1, 4, 16, 4), 'int8'), (1, 1), (0, 0, 0, 0), (1, 1), 'NCHW16c', 'NCHW16c', 'int32'). A fallback configuration is used, which may bring great performance regression.
[00:51:51] /home/ubuntu/tvm/src/runtime/graph/debug/graph_runtime_debug.cc:95: Iteration: 0
[00:51:51] /home/ubuntu/tvm/src/runtime/graph/debug/graph_runtime_debug.cc:100: Op #0 fused_cast_add_cast_layout_transform: 10.9419 us/iter
[00:51:51] /home/ubuntu/tvm/src/runtime/graph/debug/graph_runtime_debug.cc:100: Op #1 fused_transpose_reshape_transpose_reshape_reshape_transpose: 18.4476 us/iter
[00:51:51] /home/ubuntu/tvm/src/runtime/graph/debug/graph_runtime_debug.cc:100: Op #2 fused_cast_sum: 6.8792 us/iter
[00:51:51] /home/ubuntu/tvm/src/runtime/graph/debug/graph_runtime_debug.cc:100: Op #3 fused_expand_dims_multiply_expand_dims_layout_transform: 4.9292 us/iter
[00:51:51] /home/ubuntu/tvm/src/runtime/graph/debug/graph_runtime_debug.cc:100: Op #4 fused_layout_transform_1: 2.2867 us/iter
[00:51:51] /home/ubuntu/tvm/src/runtime/graph/debug/graph_runtime_debug.cc:100: Op #5 fused_nn_contrib_conv2d_NCHWc_subtract_add_multiply: 179.527 us/iter
[00:51:51] /home/ubuntu/tvm/src/runtime/graph/debug/graph_runtime_debug.cc:100: Op #6 fused_layout_transform: 15.944 us/iter
[00:51:51] /home/ubuntu/tvm/src/runtime/graph/debug/graph_runtime_debug.cc:95: Iteration: 0
[00:51:51] /home/ubuntu/tvm/src/runtime/graph/debug/graph_runtime_debug.cc:100: Op #0 fused_cast_add_cast_layout_transform: 11.2325 us/iter
[00:51:51] /home/ubuntu/tvm/src/runtime/graph/debug/graph_runtime_debug.cc:100: Op #1 fused_transpose_reshape_transpose_reshape_reshape_transpose: 18.3616 us/iter
[00:51:51] /home/ubuntu/tvm/src/runtime/graph/debug/graph_runtime_debug.cc:100: Op #2 fused_cast_sum: 6.8916 us/iter
[00:51:51] /home/ubuntu/tvm/src/runtime/graph/debug/graph_runtime_debug.cc:100: Op #3 fused_expand_dims_multiply_expand_dims_layout_transform: 2.2811 us/iter
[00:51:51] /home/ubuntu/tvm/src/runtime/graph/debug/graph_runtime_debug.cc:100: Op #4 fused_layout_transform_1: 2.1118 us/iter
[00:51:51] /home/ubuntu/tvm/src/runtime/graph/debug/graph_runtime_debug.cc:100: Op #5 fused_nn_contrib_conv2d_NCHWc_subtract_add_multiply: 178.632 us/iter
[00:51:51] /home/ubuntu/tvm/src/runtime/graph/debug/graph_runtime_debug.cc:100: Op #6 fused_layout_transform: 15.7787 us/iter
[00:51:51] /home/ubuntu/tvm/src/runtime/graph/debug/graph_runtime_debug.cc:95: Iteration: 0
[00:51:51] /home/ubuntu/tvm/src/runtime/graph/debug/graph_runtime_debug.cc:100: Op #0 fused_cast_add_cast_layout_transform: 11.1438 us/iter
[00:51:51] /home/ubuntu/tvm/src/runtime/graph/debug/graph_runtime_debug.cc:100: Op #1 fused_transpose_reshape_transpose_reshape_reshape_transpose: 19.6377 us/iter
[00:51:51] /home/ubuntu/tvm/src/runtime/graph/debug/graph_runtime_debug.cc:100: Op #2 fused_cast_sum: 7.1684 us/iter
[00:51:51] /home/ubuntu/tvm/src/runtime/graph/debug/graph_runtime_debug.cc:100: Op #3 fused_expand_dims_multiply_expand_dims_layout_transform: 2.2843 us/iter
[00:51:51] /home/ubuntu/tvm/src/runtime/graph/debug/graph_runtime_debug.cc:100: Op #4 fused_layout_transform_1: 2.211 us/iter
[00:51:51] /home/ubuntu/tvm/src/runtime/graph/debug/graph_runtime_debug.cc:100: Op #5 fused_nn_contrib_conv2d_NCHWc_subtract_add_multiply: 199.275 us/iter
[00:51:51] /home/ubuntu/tvm/src/runtime/graph/debug/graph_runtime_debug.cc:100: Op #6 fused_layout_transform: 17.3639 us/iter
[00:51:51] /home/ubuntu/tvm/src/runtime/graph/debug/graph_runtime_debug.cc:95: Iteration: 0
[00:51:51] /home/ubuntu/tvm/src/runtime/graph/debug/graph_runtime_debug.cc:100: Op #0 fused_cast_add_cast_layout_transform: 10.9922 us/iter
[00:51:51] /home/ubuntu/tvm/src/runtime/graph/debug/graph_runtime_debug.cc:100: Op #1 fused_transpose_reshape_transpose_reshape_reshape_transpose: 19.5303 us/iter
[00:51:51] /home/ubuntu/tvm/src/runtime/graph/debug/graph_runtime_debug.cc:100: Op #2 fused_cast_sum: 7.0071 us/iter
[00:51:51] /home/ubuntu/tvm/src/runtime/graph/debug/graph_runtime_debug.cc:100: Op #3 fused_expand_dims_multiply_expand_dims_layout_transform: 2.195 us/iter
[00:51:51] /home/ubuntu/tvm/src/runtime/graph/debug/graph_runtime_debug.cc:100: Op #4 fused_layout_transform_1: 2.0578 us/iter
[00:51:51] /home/ubuntu/tvm/src/runtime/graph/debug/graph_runtime_debug.cc:100: Op #5 fused_nn_contrib_conv2d_NCHWc_subtract_add_multiply: 192.356 us/iter
[00:51:51] /home/ubuntu/tvm/src/runtime/graph/debug/graph_runtime_debug.cc:100: Op #6 fused_layout_transform: 16.4328 us/iter
[00:51:51] /home/ubuntu/tvm/src/runtime/graph/debug/graph_runtime_debug.cc:95: Iteration: 0
[00:51:51] /home/ubuntu/tvm/src/runtime/graph/debug/graph_runtime_debug.cc:100: Op #0 fused_cast_add_cast_layout_transform: 11.0553 us/iter
[00:51:51] /home/ubuntu/tvm/src/runtime/graph/debug/graph_runtime_debug.cc:100: Op #1 fused_transpose_reshape_transpose_reshape_reshape_transpose: 19.4267 us/iter
[00:51:51] /home/ubuntu/tvm/src/runtime/graph/debug/graph_runtime_debug.cc:100: Op #2 fused_cast_sum: 7.1545 us/iter
[00:51:51] /home/ubuntu/tvm/src/runtime/graph/debug/graph_runtime_debug.cc:100: Op #3 fused_expand_dims_multiply_expand_dims_layout_transform: 2.295 us/iter
[00:51:51] /home/ubuntu/tvm/src/runtime/graph/debug/graph_runtime_debug.cc:100: Op #4 fused_layout_transform_1: 2.1283 us/iter
[00:51:51] /home/ubuntu/tvm/src/runtime/graph/debug/graph_runtime_debug.cc:100: Op #5 fused_nn_contrib_conv2d_NCHWc_subtract_add_multiply: 202.046 us/iter
[00:51:51] /home/ubuntu/tvm/src/runtime/graph/debug/graph_runtime_debug.cc:100: Op #6 fused_layout_transform: 17.2482 us/iter
Cannot find config for target=llvm -keys=cpu -mcpu=cascadelake, workload=('conv2d_NCHWc_int8.x86', ('TENSOR', (1, 1024, 16, 16), 'uint8'), ('TENSOR', (2048, 1024, 1, 1), 'int8'), (1, 1), (0, 0, 0, 0), (1, 1), 'NCHW', 'NCHW', 'int32'). A fallback configuration is used, which may bring great performance regression.
[00:51:52] /home/ubuntu/tvm/src/relay/backend/build_module.cc:326: v0.0.4
def @main(%x: Tensor[(1, 1024, 16, 16), int8], %w: Tensor[(2048, 1024, 1, 1), int8], %b: Tensor[(1, 2048, 1, 1), int32]) -> Tensor[(1, 2048, 16, 16), int32] {
  %0 = cast(%x, dtype="int32") /* ty=Tensor[(1, 1024, 16, 16), int32] */;
  %1 = add(%0, 128 /* ty=int32 */) /* ty=Tensor[(1, 1024, 16, 16), int32] */;
  %2 = cast(%1, dtype="uint8") /* ty=Tensor[(1, 1024, 16, 16), uint8] */;
  %3 = layout_transform(%2, src_layout="NCHW", dst_layout="NCHW16c") /* ty=Tensor[(1, 64, 16, 16, 16), uint8] */;
  %4 = transpose(%w, axes=[1, 2, 3, 0]) /* ty=Tensor[(1024, 1, 1, 2048), int8] */;
  %5 = reshape(%4, newshape=[1024, 1, 1, 128, 16]) /* ty=Tensor[(1024, 1, 1, 128, 16), int8] */;
  %6 = transpose(%5, axes=[3, 1, 2, 4, 0]) /* ty=Tensor[(128, 1, 1, 16, 1024), int8] */;
  %7 = reshape(%6, newshape=[128, 1, 1, 16, 64, 16]) /* ty=Tensor[(128, 1, 1, 16, 64, 16), int8] */;
  %8 = reshape(%7, newshape=[128, 1, 1, 16, 64, 4, 4]) /* ty=Tensor[(128, 1, 1, 16, 64, 4, 4), int8] */;
  %9 = transpose(%8, axes=[0, 4, 1, 2, 5, 3, 6]) /* ty=Tensor[(128, 64, 1, 1, 4, 16, 4), int8] */;
  %10 = nn.contrib_conv2d_NCHWc(%3, %9, padding=[0, 0, 0, 0], channels=2048, kernel_size=[1, 1], data_layout="NCHW16c", out_layout="NCHW16c", out_dtype="int32") /* ty=Tensor[(1, 128, 16, 16, 16), int32] */;
  %11 = cast(%w, dtype="int32") /* ty=Tensor[(2048, 1024, 1, 1), int32] */;
  %12 = sum(%11, axis=[1, 2, 3]) /* ty=Tensor[(2048), int32] */;
  %13 = expand_dims(%12, axis=1, num_newaxis=2) /* ty=Tensor[(2048, 1, 1), int32] */;
  %14 = multiply(%13, 128 /* ty=int32 */) /* ty=Tensor[(2048, 1, 1), int32] */;
  %15 = expand_dims(%14, axis=0) /* ty=Tensor[(1, 2048, 1, 1), int32] */;
  %16 = layout_transform(%15, src_layout="NCHW", dst_layout="NCHW16c") /* ty=Tensor[(1, 128, 1, 1, 16), int32] */;
  %17 = subtract(%10, %16) /* ty=Tensor[(1, 128, 16, 16, 16), int32] */;
  %18 = layout_transform(%b, src_layout="NCHW", dst_layout="NCHW16c") /* ty=Tensor[(1, 128, 1, 1, 16), int32] */;
  %19 = add(%17, %18) /* ty=Tensor[(1, 128, 16, 16, 16), int32] */;
  %20 = multiply(%19, 11 /* ty=int32 */) /* ty=Tensor[(1, 128, 16, 16, 16), int32] */;
  layout_transform(%20, src_layout="NCHW16c", dst_layout="NCHW") /* ty=Tensor[(1, 2048, 16, 16), int32] */
}

Cannot find config for target=llvm -keys=cpu -mcpu=cascadelake, workload=('conv2d_NCHWc_int8.x86', ('TENSOR', (1, 64, 16, 16, 16), 'uint8'), ('TENSOR', (128, 64, 1, 1, 4, 16, 4), 'int8'), (1, 1), (0, 0, 0, 0), (1, 1), 'NCHW16c', 'NCHW16c', 'int32'). A fallback configuration is used, which may bring great performance regression.
[00:51:52] /home/ubuntu/tvm/src/runtime/graph/debug/graph_runtime_debug.cc:95: Iteration: 0
[00:51:52] /home/ubuntu/tvm/src/runtime/graph/debug/graph_runtime_debug.cc:100: Op #0 fused_cast_add_cast_layout_transform: 10.8583 us/iter
[00:51:52] /home/ubuntu/tvm/src/runtime/graph/debug/graph_runtime_debug.cc:100: Op #1 fused_transpose_reshape_transpose_reshape_reshape_transpose: 18.4984 us/iter
[00:51:52] /home/ubuntu/tvm/src/runtime/graph/debug/graph_runtime_debug.cc:100: Op #2 fused_cast_sum: 6.8018 us/iter
[00:51:52] /home/ubuntu/tvm/src/runtime/graph/debug/graph_runtime_debug.cc:100: Op #3 fused_expand_dims_multiply_expand_dims_layout_transform: 2.3305 us/iter
[00:51:52] /home/ubuntu/tvm/src/runtime/graph/debug/graph_runtime_debug.cc:100: Op #4 fused_layout_transform_1: 2.2647 us/iter
[00:51:52] /home/ubuntu/tvm/src/runtime/graph/debug/graph_runtime_debug.cc:100: Op #5 fused_nn_contrib_conv2d_NCHWc_subtract_add_multiply: 184.066 us/iter
[00:51:52] /home/ubuntu/tvm/src/runtime/graph/debug/graph_runtime_debug.cc:100: Op #6 fused_layout_transform: 16.2299 us/iter
[00:51:52] /home/ubuntu/tvm/src/runtime/graph/debug/graph_runtime_debug.cc:95: Iteration: 0
[00:51:52] /home/ubuntu/tvm/src/runtime/graph/debug/graph_runtime_debug.cc:100: Op #0 fused_cast_add_cast_layout_transform: 11.1245 us/iter
[00:51:52] /home/ubuntu/tvm/src/runtime/graph/debug/graph_runtime_debug.cc:100: Op #1 fused_transpose_reshape_transpose_reshape_reshape_transpose: 19.4716 us/iter
[00:51:52] /home/ubuntu/tvm/src/runtime/graph/debug/graph_runtime_debug.cc:100: Op #2 fused_cast_sum: 6.9227 us/iter
[00:51:52] /home/ubuntu/tvm/src/runtime/graph/debug/graph_runtime_debug.cc:100: Op #3 fused_expand_dims_multiply_expand_dims_layout_transform: 2.383 us/iter
[00:51:52] /home/ubuntu/tvm/src/runtime/graph/debug/graph_runtime_debug.cc:100: Op #4 fused_layout_transform_1: 2.2087 us/iter
[00:51:52] /home/ubuntu/tvm/src/runtime/graph/debug/graph_runtime_debug.cc:100: Op #5 fused_nn_contrib_conv2d_NCHWc_subtract_add_multiply: 179.744 us/iter
[00:51:52] /home/ubuntu/tvm/src/runtime/graph/debug/graph_runtime_debug.cc:100: Op #6 fused_layout_transform: 15.912 us/iter
[00:51:52] /home/ubuntu/tvm/src/runtime/graph/debug/graph_runtime_debug.cc:95: Iteration: 0
[00:51:52] /home/ubuntu/tvm/src/runtime/graph/debug/graph_runtime_debug.cc:100: Op #0 fused_cast_add_cast_layout_transform: 11.1801 us/iter
[00:51:52] /home/ubuntu/tvm/src/runtime/graph/debug/graph_runtime_debug.cc:100: Op #1 fused_transpose_reshape_transpose_reshape_reshape_transpose: 18.9387 us/iter
[00:51:52] /home/ubuntu/tvm/src/runtime/graph/debug/graph_runtime_debug.cc:100: Op #2 fused_cast_sum: 7.0216 us/iter
[00:51:52] /home/ubuntu/tvm/src/runtime/graph/debug/graph_runtime_debug.cc:100: Op #3 fused_expand_dims_multiply_expand_dims_layout_transform: 2.4062 us/iter
[00:51:52] /home/ubuntu/tvm/src/runtime/graph/debug/graph_runtime_debug.cc:100: Op #4 fused_layout_transform_1: 2.2515 us/iter
[00:51:52] /home/ubuntu/tvm/src/runtime/graph/debug/graph_runtime_debug.cc:100: Op #5 fused_nn_contrib_conv2d_NCHWc_subtract_add_multiply: 207.463 us/iter
[00:51:52] /home/ubuntu/tvm/src/runtime/graph/debug/graph_runtime_debug.cc:100: Op #6 fused_layout_transform: 16.9978 us/iter
[00:51:52] /home/ubuntu/tvm/src/runtime/graph/debug/graph_runtime_debug.cc:95: Iteration: 0
[00:51:52] /home/ubuntu/tvm/src/runtime/graph/debug/graph_runtime_debug.cc:100: Op #0 fused_cast_add_cast_layout_transform: 11.2155 us/iter
[00:51:52] /home/ubuntu/tvm/src/runtime/graph/debug/graph_runtime_debug.cc:100: Op #1 fused_transpose_reshape_transpose_reshape_reshape_transpose: 19.9039 us/iter
[00:51:52] /home/ubuntu/tvm/src/runtime/graph/debug/graph_runtime_debug.cc:100: Op #2 fused_cast_sum: 7.5318 us/iter
[00:51:52] /home/ubuntu/tvm/src/runtime/graph/debug/graph_runtime_debug.cc:100: Op #3 fused_expand_dims_multiply_expand_dims_layout_transform: 2.4072 us/iter
[00:51:52] /home/ubuntu/tvm/src/runtime/graph/debug/graph_runtime_debug.cc:100: Op #4 fused_layout_transform_1: 2.2686 us/iter
[00:51:52] /home/ubuntu/tvm/src/runtime/graph/debug/graph_runtime_debug.cc:100: Op #5 fused_nn_contrib_conv2d_NCHWc_subtract_add_multiply: 204.09 us/iter
[00:51:52] /home/ubuntu/tvm/src/runtime/graph/debug/graph_runtime_debug.cc:100: Op #6 fused_layout_transform: 17.9898 us/iter
[00:51:52] /home/ubuntu/tvm/src/runtime/graph/debug/graph_runtime_debug.cc:95: Iteration: 0
[00:51:52] /home/ubuntu/tvm/src/runtime/graph/debug/graph_runtime_debug.cc:100: Op #0 fused_cast_add_cast_layout_transform: 10.8251 us/iter
[00:51:52] /home/ubuntu/tvm/src/runtime/graph/debug/graph_runtime_debug.cc:100: Op #1 fused_transpose_reshape_transpose_reshape_reshape_transpose: 18.6232 us/iter
[00:51:52] /home/ubuntu/tvm/src/runtime/graph/debug/graph_runtime_debug.cc:100: Op #2 fused_cast_sum: 6.9263 us/iter
[00:51:52] /home/ubuntu/tvm/src/runtime/graph/debug/graph_runtime_debug.cc:100: Op #3 fused_expand_dims_multiply_expand_dims_layout_transform: 2.3995 us/iter
[00:51:52] /home/ubuntu/tvm/src/runtime/graph/debug/graph_runtime_debug.cc:100: Op #4 fused_layout_transform_1: 2.2404 us/iter
[00:51:52] /home/ubuntu/tvm/src/runtime/graph/debug/graph_runtime_debug.cc:100: Op #5 fused_nn_contrib_conv2d_NCHWc_subtract_add_multiply: 184.194 us/iter
[00:51:52] /home/ubuntu/tvm/src/runtime/graph/debug/graph_runtime_debug.cc:100: Op #6 fused_layout_transform: 16.2625 us/iter
Cannot find config for target=llvm -keys=cpu -mcpu=cascadelake, workload=('conv2d_NCHWc_int8.x86', ('TENSOR', (1, 1024, 16, 16), 'uint8'), ('TENSOR', (2048, 1024, 1, 1), 'int8'), (1, 1), (0, 0, 0, 0), (1, 1), 'NCHW', 'NCHW', 'int32'). A fallback configuration is used, which may bring great performance regression.
[00:51:53] /home/ubuntu/tvm/src/relay/backend/build_module.cc:326: v0.0.4
def @main(%x: Tensor[(1, 1024, 16, 16), int8], %w: Tensor[(2048, 1024, 1, 1), int8], %b: Tensor[(1, 2048, 1, 1), int32]) -> Tensor[(1, 2048, 16, 16), int32] {
  %0 = cast(%x, dtype="int32") /* ty=Tensor[(1, 1024, 16, 16), int32] */;
  %1 = add(%0, 128 /* ty=int32 */) /* ty=Tensor[(1, 1024, 16, 16), int32] */;
  %2 = cast(%1, dtype="uint8") /* ty=Tensor[(1, 1024, 16, 16), uint8] */;
  %3 = layout_transform(%2, src_layout="NCHW", dst_layout="NCHW16c") /* ty=Tensor[(1, 64, 16, 16, 16), uint8] */;
  %4 = transpose(%w, axes=[1, 2, 3, 0]) /* ty=Tensor[(1024, 1, 1, 2048), int8] */;
  %5 = reshape(%4, newshape=[1024, 1, 1, 128, 16]) /* ty=Tensor[(1024, 1, 1, 128, 16), int8] */;
  %6 = transpose(%5, axes=[3, 1, 2, 4, 0]) /* ty=Tensor[(128, 1, 1, 16, 1024), int8] */;
  %7 = reshape(%6, newshape=[128, 1, 1, 16, 64, 16]) /* ty=Tensor[(128, 1, 1, 16, 64, 16), int8] */;
  %8 = reshape(%7, newshape=[128, 1, 1, 16, 64, 4, 4]) /* ty=Tensor[(128, 1, 1, 16, 64, 4, 4), int8] */;
  %9 = transpose(%8, axes=[0, 4, 1, 2, 5, 3, 6]) /* ty=Tensor[(128, 64, 1, 1, 4, 16, 4), int8] */;
  %10 = nn.contrib_conv2d_NCHWc(%3, %9, padding=[0, 0, 0, 0], channels=2048, kernel_size=[1, 1], data_layout="NCHW16c", out_layout="NCHW16c", out_dtype="int32") /* ty=Tensor[(1, 128, 16, 16, 16), int32] */;
  %11 = cast(%w, dtype="int32") /* ty=Tensor[(2048, 1024, 1, 1), int32] */;
  %12 = sum(%11, axis=[1, 2, 3]) /* ty=Tensor[(2048), int32] */;
  %13 = expand_dims(%12, axis=1, num_newaxis=2) /* ty=Tensor[(2048, 1, 1), int32] */;
  %14 = multiply(%13, 128 /* ty=int32 */) /* ty=Tensor[(2048, 1, 1), int32] */;
  %15 = expand_dims(%14, axis=0) /* ty=Tensor[(1, 2048, 1, 1), int32] */;
  %16 = layout_transform(%15, src_layout="NCHW", dst_layout="NCHW16c") /* ty=Tensor[(1, 128, 1, 1, 16), int32] */;
  %17 = subtract(%10, %16) /* ty=Tensor[(1, 128, 16, 16, 16), int32] */;
  %18 = layout_transform(%b, src_layout="NCHW", dst_layout="NCHW16c") /* ty=Tensor[(1, 128, 1, 1, 16), int32] */;
  %19 = add(%17, %18) /* ty=Tensor[(1, 128, 16, 16, 16), int32] */;
  %20 = multiply(%19, 11 /* ty=int32 */) /* ty=Tensor[(1, 128, 16, 16, 16), int32] */;
  layout_transform(%20, src_layout="NCHW16c", dst_layout="NCHW") /* ty=Tensor[(1, 2048, 16, 16), int32] */
}

Cannot find config for target=llvm -keys=cpu -mcpu=cascadelake, workload=('conv2d_NCHWc_int8.x86', ('TENSOR', (1, 64, 16, 16, 16), 'uint8'), ('TENSOR', (128, 64, 1, 1, 4, 16, 4), 'int8'), (1, 1), (0, 0, 0, 0), (1, 1), 'NCHW16c', 'NCHW16c', 'int32'). A fallback configuration is used, which may bring great performance regression.
[00:51:53] /home/ubuntu/tvm/src/runtime/graph/debug/graph_runtime_debug.cc:95: Iteration: 0
[00:51:53] /home/ubuntu/tvm/src/runtime/graph/debug/graph_runtime_debug.cc:100: Op #0 fused_cast_add_cast_layout_transform: 11.0071 us/iter
[00:51:53] /home/ubuntu/tvm/src/runtime/graph/debug/graph_runtime_debug.cc:100: Op #1 fused_transpose_reshape_transpose_reshape_reshape_transpose: 19.957 us/iter
[00:51:53] /home/ubuntu/tvm/src/runtime/graph/debug/graph_runtime_debug.cc:100: Op #2 fused_cast_sum: 6.9733 us/iter
[00:51:53] /home/ubuntu/tvm/src/runtime/graph/debug/graph_runtime_debug.cc:100: Op #3 fused_expand_dims_multiply_expand_dims_layout_transform: 2.4407 us/iter
[00:51:53] /home/ubuntu/tvm/src/runtime/graph/debug/graph_runtime_debug.cc:100: Op #4 fused_layout_transform_1: 2.3191 us/iter
[00:51:53] /home/ubuntu/tvm/src/runtime/graph/debug/graph_runtime_debug.cc:100: Op #5 fused_nn_contrib_conv2d_NCHWc_subtract_add_multiply: 177.596 us/iter
[00:51:53] /home/ubuntu/tvm/src/runtime/graph/debug/graph_runtime_debug.cc:100: Op #6 fused_layout_transform: 16.0083 us/iter
[00:51:53] /home/ubuntu/tvm/src/runtime/graph/debug/graph_runtime_debug.cc:95: Iteration: 0
[00:51:53] /home/ubuntu/tvm/src/runtime/graph/debug/graph_runtime_debug.cc:100: Op #0 fused_cast_add_cast_layout_transform: 11.262 us/iter
[00:51:53] /home/ubuntu/tvm/src/runtime/graph/debug/graph_runtime_debug.cc:100: Op #1 fused_transpose_reshape_transpose_reshape_reshape_transpose: 18.5232 us/iter
[00:51:53] /home/ubuntu/tvm/src/runtime/graph/debug/graph_runtime_debug.cc:100: Op #2 fused_cast_sum: 6.8514 us/iter
[00:51:53] /home/ubuntu/tvm/src/runtime/graph/debug/graph_runtime_debug.cc:100: Op #3 fused_expand_dims_multiply_expand_dims_layout_transform: 2.4458 us/iter
[00:51:53] /home/ubuntu/tvm/src/runtime/graph/debug/graph_runtime_debug.cc:100: Op #4 fused_layout_transform_1: 2.3098 us/iter
[00:51:53] /home/ubuntu/tvm/src/runtime/graph/debug/graph_runtime_debug.cc:100: Op #5 fused_nn_contrib_conv2d_NCHWc_subtract_add_multiply: 180.767 us/iter
[00:51:53] /home/ubuntu/tvm/src/runtime/graph/debug/graph_runtime_debug.cc:100: Op #6 fused_layout_transform: 16.0064 us/iter
[00:51:53] /home/ubuntu/tvm/src/runtime/graph/debug/graph_runtime_debug.cc:95: Iteration: 0
[00:51:53] /home/ubuntu/tvm/src/runtime/graph/debug/graph_runtime_debug.cc:100: Op #0 fused_cast_add_cast_layout_transform: 11.1718 us/iter
[00:51:53] /home/ubuntu/tvm/src/runtime/graph/debug/graph_runtime_debug.cc:100: Op #1 fused_transpose_reshape_transpose_reshape_reshape_transpose: 19.8649 us/iter
[00:51:53] /home/ubuntu/tvm/src/runtime/graph/debug/graph_runtime_debug.cc:100: Op #2 fused_cast_sum: 7.2288 us/iter
[00:51:53] /home/ubuntu/tvm/src/runtime/graph/debug/graph_runtime_debug.cc:100: Op #3 fused_expand_dims_multiply_expand_dims_layout_transform: 2.5171 us/iter
[00:51:53] /home/ubuntu/tvm/src/runtime/graph/debug/graph_runtime_debug.cc:100: Op #4 fused_layout_transform_1: 2.2354 us/iter
[00:51:53] /home/ubuntu/tvm/src/runtime/graph/debug/graph_runtime_debug.cc:100: Op #5 fused_nn_contrib_conv2d_NCHWc_subtract_add_multiply: 198.652 us/iter
[00:51:53] /home/ubuntu/tvm/src/runtime/graph/debug/graph_runtime_debug.cc:100: Op #6 fused_layout_transform: 18.1481 us/iter
[00:51:53] /home/ubuntu/tvm/src/runtime/graph/debug/graph_runtime_debug.cc:95: Iteration: 0
[00:51:53] /home/ubuntu/tvm/src/runtime/graph/debug/graph_runtime_debug.cc:100: Op #0 fused_cast_add_cast_layout_transform: 11.2869 us/iter
[00:51:53] /home/ubuntu/tvm/src/runtime/graph/debug/graph_runtime_debug.cc:100: Op #1 fused_transpose_reshape_transpose_reshape_reshape_transpose: 18.9605 us/iter
[00:51:53] /home/ubuntu/tvm/src/runtime/graph/debug/graph_runtime_debug.cc:100: Op #2 fused_cast_sum: 7.0082 us/iter
[00:51:53] /home/ubuntu/tvm/src/runtime/graph/debug/graph_runtime_debug.cc:100: Op #3 fused_expand_dims_multiply_expand_dims_layout_transform: 2.4303 us/iter
[00:51:53] /home/ubuntu/tvm/src/runtime/graph/debug/graph_runtime_debug.cc:100: Op #4 fused_layout_transform_1: 2.2532 us/iter
[00:51:53] /home/ubuntu/tvm/src/runtime/graph/debug/graph_runtime_debug.cc:100: Op #5 fused_nn_contrib_conv2d_NCHWc_subtract_add_multiply: 193.627 us/iter
[00:51:53] /home/ubuntu/tvm/src/runtime/graph/debug/graph_runtime_debug.cc:100: Op #6 fused_layout_transform: 16.2385 us/iter
[00:51:53] /home/ubuntu/tvm/src/runtime/graph/debug/graph_runtime_debug.cc:95: Iteration: 0
[00:51:53] /home/ubuntu/tvm/src/runtime/graph/debug/graph_runtime_debug.cc:100: Op #0 fused_cast_add_cast_layout_transform: 10.895 us/iter
[00:51:53] /home/ubuntu/tvm/src/runtime/graph/debug/graph_runtime_debug.cc:100: Op #1 fused_transpose_reshape_transpose_reshape_reshape_transpose: 19.5894 us/iter
[00:51:53] /home/ubuntu/tvm/src/runtime/graph/debug/graph_runtime_debug.cc:100: Op #2 fused_cast_sum: 7.1846 us/iter
[00:51:53] /home/ubuntu/tvm/src/runtime/graph/debug/graph_runtime_debug.cc:100: Op #3 fused_expand_dims_multiply_expand_dims_layout_transform: 2.4257 us/iter
[00:51:53] /home/ubuntu/tvm/src/runtime/graph/debug/graph_runtime_debug.cc:100: Op #4 fused_layout_transform_1: 2.3201 us/iter
[00:51:53] /home/ubuntu/tvm/src/runtime/graph/debug/graph_runtime_debug.cc:100: Op #5 fused_nn_contrib_conv2d_NCHWc_subtract_add_multiply: 200.339 us/iter
[00:51:53] /home/ubuntu/tvm/src/runtime/graph/debug/graph_runtime_debug.cc:100: Op #6 fused_layout_transform: 18.1572 us/iter
Cannot find config for target=llvm -keys=cpu -mcpu=cascadelake, workload=('conv2d_NCHWc_int8.x86', ('TENSOR', (1, 1024, 16, 16), 'uint8'), ('TENSOR', (2048, 1024, 1, 1), 'int8'), (1, 1), (0, 0, 0, 0), (1, 1), 'NCHW', 'NCHW', 'int32'). A fallback configuration is used, which may bring great performance regression.
[00:51:54] /home/ubuntu/tvm/src/relay/backend/build_module.cc:326: v0.0.4
def @main(%x: Tensor[(1, 1024, 16, 16), int8], %w: Tensor[(2048, 1024, 1, 1), int8], %b: Tensor[(1, 2048, 1, 1), int32]) -> Tensor[(1, 2048, 16, 16), int32] {
  %0 = cast(%x, dtype="int32") /* ty=Tensor[(1, 1024, 16, 16), int32] */;
  %1 = add(%0, 128 /* ty=int32 */) /* ty=Tensor[(1, 1024, 16, 16), int32] */;
  %2 = cast(%1, dtype="uint8") /* ty=Tensor[(1, 1024, 16, 16), uint8] */;
  %3 = layout_transform(%2, src_layout="NCHW", dst_layout="NCHW16c") /* ty=Tensor[(1, 64, 16, 16, 16), uint8] */;
  %4 = transpose(%w, axes=[1, 2, 3, 0]) /* ty=Tensor[(1024, 1, 1, 2048), int8] */;
  %5 = reshape(%4, newshape=[1024, 1, 1, 128, 16]) /* ty=Tensor[(1024, 1, 1, 128, 16), int8] */;
  %6 = transpose(%5, axes=[3, 1, 2, 4, 0]) /* ty=Tensor[(128, 1, 1, 16, 1024), int8] */;
  %7 = reshape(%6, newshape=[128, 1, 1, 16, 64, 16]) /* ty=Tensor[(128, 1, 1, 16, 64, 16), int8] */;
  %8 = reshape(%7, newshape=[128, 1, 1, 16, 64, 4, 4]) /* ty=Tensor[(128, 1, 1, 16, 64, 4, 4), int8] */;
  %9 = transpose(%8, axes=[0, 4, 1, 2, 5, 3, 6]) /* ty=Tensor[(128, 64, 1, 1, 4, 16, 4), int8] */;
  %10 = nn.contrib_conv2d_NCHWc(%3, %9, padding=[0, 0, 0, 0], channels=2048, kernel_size=[1, 1], data_layout="NCHW16c", out_layout="NCHW16c", out_dtype="int32") /* ty=Tensor[(1, 128, 16, 16, 16), int32] */;
  %11 = cast(%w, dtype="int32") /* ty=Tensor[(2048, 1024, 1, 1), int32] */;
  %12 = sum(%11, axis=[1, 2, 3]) /* ty=Tensor[(2048), int32] */;
  %13 = expand_dims(%12, axis=1, num_newaxis=2) /* ty=Tensor[(2048, 1, 1), int32] */;
  %14 = multiply(%13, 128 /* ty=int32 */) /* ty=Tensor[(2048, 1, 1), int32] */;
  %15 = expand_dims(%14, axis=0) /* ty=Tensor[(1, 2048, 1, 1), int32] */;
  %16 = layout_transform(%15, src_layout="NCHW", dst_layout="NCHW16c") /* ty=Tensor[(1, 128, 1, 1, 16), int32] */;
  %17 = subtract(%10, %16) /* ty=Tensor[(1, 128, 16, 16, 16), int32] */;
  %18 = layout_transform(%b, src_layout="NCHW", dst_layout="NCHW16c") /* ty=Tensor[(1, 128, 1, 1, 16), int32] */;
  %19 = add(%17, %18) /* ty=Tensor[(1, 128, 16, 16, 16), int32] */;
  %20 = multiply(%19, 11 /* ty=int32 */) /* ty=Tensor[(1, 128, 16, 16, 16), int32] */;
  layout_transform(%20, src_layout="NCHW16c", dst_layout="NCHW") /* ty=Tensor[(1, 2048, 16, 16), int32] */
}

Cannot find config for target=llvm -keys=cpu -mcpu=cascadelake, workload=('conv2d_NCHWc_int8.x86', ('TENSOR', (1, 64, 16, 16, 16), 'uint8'), ('TENSOR', (128, 64, 1, 1, 4, 16, 4), 'int8'), (1, 1), (0, 0, 0, 0), (1, 1), 'NCHW16c', 'NCHW16c', 'int32'). A fallback configuration is used, which may bring great performance regression.
[00:51:54] /home/ubuntu/tvm/src/runtime/graph/debug/graph_runtime_debug.cc:95: Iteration: 0
[00:51:54] /home/ubuntu/tvm/src/runtime/graph/debug/graph_runtime_debug.cc:100: Op #0 fused_cast_add_cast_layout_transform: 11.1201 us/iter
[00:51:54] /home/ubuntu/tvm/src/runtime/graph/debug/graph_runtime_debug.cc:100: Op #1 fused_transpose_reshape_transpose_reshape_reshape_transpose: 17.6232 us/iter
[00:51:54] /home/ubuntu/tvm/src/runtime/graph/debug/graph_runtime_debug.cc:100: Op #2 fused_cast_sum: 6.8984 us/iter
[00:51:54] /home/ubuntu/tvm/src/runtime/graph/debug/graph_runtime_debug.cc:100: Op #3 fused_expand_dims_multiply_expand_dims_layout_transform: 2.4456 us/iter
[00:51:54] /home/ubuntu/tvm/src/runtime/graph/debug/graph_runtime_debug.cc:100: Op #4 fused_layout_transform_1: 2.2112 us/iter
[00:51:54] /home/ubuntu/tvm/src/runtime/graph/debug/graph_runtime_debug.cc:100: Op #5 fused_nn_contrib_conv2d_NCHWc_subtract_add_multiply: 187.071 us/iter
[00:51:54] /home/ubuntu/tvm/src/runtime/graph/debug/graph_runtime_debug.cc:100: Op #6 fused_layout_transform: 16.1708 us/iter
[00:51:54] /home/ubuntu/tvm/src/runtime/graph/debug/graph_runtime_debug.cc:95: Iteration: 0
[00:51:54] /home/ubuntu/tvm/src/runtime/graph/debug/graph_runtime_debug.cc:100: Op #0 fused_cast_add_cast_layout_transform: 11.2929 us/iter
[00:51:54] /home/ubuntu/tvm/src/runtime/graph/debug/graph_runtime_debug.cc:100: Op #1 fused_transpose_reshape_transpose_reshape_reshape_transpose: 17.7603 us/iter
[00:51:54] /home/ubuntu/tvm/src/runtime/graph/debug/graph_runtime_debug.cc:100: Op #2 fused_cast_sum: 6.887 us/iter
[00:51:54] /home/ubuntu/tvm/src/runtime/graph/debug/graph_runtime_debug.cc:100: Op #3 fused_expand_dims_multiply_expand_dims_layout_transform: 2.4329 us/iter
[00:51:54] /home/ubuntu/tvm/src/runtime/graph/debug/graph_runtime_debug.cc:100: Op #4 fused_layout_transform_1: 3.9306 us/iter
[00:51:54] /home/ubuntu/tvm/src/runtime/graph/debug/graph_runtime_debug.cc:100: Op #5 fused_nn_contrib_conv2d_NCHWc_subtract_add_multiply: 180.043 us/iter
[00:51:54] /home/ubuntu/tvm/src/runtime/graph/debug/graph_runtime_debug.cc:100: Op #6 fused_layout_transform: 16.0847 us/iter
[00:51:54] /home/ubuntu/tvm/src/runtime/graph/debug/graph_runtime_debug.cc:95: Iteration: 0
[00:51:54] /home/ubuntu/tvm/src/runtime/graph/debug/graph_runtime_debug.cc:100: Op #0 fused_cast_add_cast_layout_transform: 11.3631 us/iter
[00:51:54] /home/ubuntu/tvm/src/runtime/graph/debug/graph_runtime_debug.cc:100: Op #1 fused_transpose_reshape_transpose_reshape_reshape_transpose: 18.2667 us/iter
[00:51:54] /home/ubuntu/tvm/src/runtime/graph/debug/graph_runtime_debug.cc:100: Op #2 fused_cast_sum: 7.1441 us/iter
[00:51:54] /home/ubuntu/tvm/src/runtime/graph/debug/graph_runtime_debug.cc:100: Op #3 fused_expand_dims_multiply_expand_dims_layout_transform: 2.4547 us/iter
[00:51:54] /home/ubuntu/tvm/src/runtime/graph/debug/graph_runtime_debug.cc:100: Op #4 fused_layout_transform_1: 2.2282 us/iter
[00:51:54] /home/ubuntu/tvm/src/runtime/graph/debug/graph_runtime_debug.cc:100: Op #5 fused_nn_contrib_conv2d_NCHWc_subtract_add_multiply: 205.337 us/iter
[00:51:54] /home/ubuntu/tvm/src/runtime/graph/debug/graph_runtime_debug.cc:100: Op #6 fused_layout_transform: 16.785 us/iter
[00:51:54] /home/ubuntu/tvm/src/runtime/graph/debug/graph_runtime_debug.cc:95: Iteration: 0
[00:51:54] /home/ubuntu/tvm/src/runtime/graph/debug/graph_runtime_debug.cc:100: Op #0 fused_cast_add_cast_layout_transform: 11.0037 us/iter
[00:51:54] /home/ubuntu/tvm/src/runtime/graph/debug/graph_runtime_debug.cc:100: Op #1 fused_transpose_reshape_transpose_reshape_reshape_transpose: 17.7521 us/iter
[00:51:54] /home/ubuntu/tvm/src/runtime/graph/debug/graph_runtime_debug.cc:100: Op #2 fused_cast_sum: 6.8516 us/iter
[00:51:54] /home/ubuntu/tvm/src/runtime/graph/debug/graph_runtime_debug.cc:100: Op #3 fused_expand_dims_multiply_expand_dims_layout_transform: 2.4255 us/iter
[00:51:54] /home/ubuntu/tvm/src/runtime/graph/debug/graph_runtime_debug.cc:100: Op #4 fused_layout_transform_1: 2.2791 us/iter
[00:51:54] /home/ubuntu/tvm/src/runtime/graph/debug/graph_runtime_debug.cc:100: Op #5 fused_nn_contrib_conv2d_NCHWc_subtract_add_multiply: 184.594 us/iter
[00:51:54] /home/ubuntu/tvm/src/runtime/graph/debug/graph_runtime_debug.cc:100: Op #6 fused_layout_transform: 16.3281 us/iter
[00:51:54] /home/ubuntu/tvm/src/runtime/graph/debug/graph_runtime_debug.cc:95: Iteration: 0
[00:51:54] /home/ubuntu/tvm/src/runtime/graph/debug/graph_runtime_debug.cc:100: Op #0 fused_cast_add_cast_layout_transform: 11.2209 us/iter
[00:51:54] /home/ubuntu/tvm/src/runtime/graph/debug/graph_runtime_debug.cc:100: Op #1 fused_transpose_reshape_transpose_reshape_reshape_transpose: 17.8158 us/iter
[00:51:54] /home/ubuntu/tvm/src/runtime/graph/debug/graph_runtime_debug.cc:100: Op #2 fused_cast_sum: 6.8453 us/iter
[00:51:54] /home/ubuntu/tvm/src/runtime/graph/debug/graph_runtime_debug.cc:100: Op #3 fused_expand_dims_multiply_expand_dims_layout_transform: 2.4007 us/iter
[00:51:54] /home/ubuntu/tvm/src/runtime/graph/debug/graph_runtime_debug.cc:100: Op #4 fused_layout_transform_1: 2.2092 us/iter
[00:51:54] /home/ubuntu/tvm/src/runtime/graph/debug/graph_runtime_debug.cc:100: Op #5 fused_nn_contrib_conv2d_NCHWc_subtract_add_multiply: 182.254 us/iter
[00:51:54] /home/ubuntu/tvm/src/runtime/graph/debug/graph_runtime_debug.cc:100: Op #6 fused_layout_transform: 16.1368 us/iter
Cannot find config for target=llvm -keys=cpu -mcpu=cascadelake, workload=('conv2d_NCHWc_int8.x86', ('TENSOR', (1, 1024, 16, 16), 'uint8'), ('TENSOR', (2048, 1024, 1, 1), 'int8'), (1, 1), (0, 0, 0, 0), (1, 1), 'NCHW', 'NCHW', 'int32'). A fallback configuration is used, which may bring great performance regression.
[00:51:55] /home/ubuntu/tvm/src/relay/backend/build_module.cc:326: v0.0.4
def @main(%x: Tensor[(1, 1024, 16, 16), int8], %w: Tensor[(2048, 1024, 1, 1), int8], %b: Tensor[(1, 2048, 1, 1), int32]) -> Tensor[(1, 2048, 16, 16), int32] {
  %0 = cast(%x, dtype="int32") /* ty=Tensor[(1, 1024, 16, 16), int32] */;
  %1 = add(%0, 128 /* ty=int32 */) /* ty=Tensor[(1, 1024, 16, 16), int32] */;
  %2 = cast(%1, dtype="uint8") /* ty=Tensor[(1, 1024, 16, 16), uint8] */;
  %3 = layout_transform(%2, src_layout="NCHW", dst_layout="NCHW16c") /* ty=Tensor[(1, 64, 16, 16, 16), uint8] */;
  %4 = transpose(%w, axes=[1, 2, 3, 0]) /* ty=Tensor[(1024, 1, 1, 2048), int8] */;
  %5 = reshape(%4, newshape=[1024, 1, 1, 128, 16]) /* ty=Tensor[(1024, 1, 1, 128, 16), int8] */;
  %6 = transpose(%5, axes=[3, 1, 2, 4, 0]) /* ty=Tensor[(128, 1, 1, 16, 1024), int8] */;
  %7 = reshape(%6, newshape=[128, 1, 1, 16, 64, 16]) /* ty=Tensor[(128, 1, 1, 16, 64, 16), int8] */;
  %8 = reshape(%7, newshape=[128, 1, 1, 16, 64, 4, 4]) /* ty=Tensor[(128, 1, 1, 16, 64, 4, 4), int8] */;
  %9 = transpose(%8, axes=[0, 4, 1, 2, 5, 3, 6]) /* ty=Tensor[(128, 64, 1, 1, 4, 16, 4), int8] */;
  %10 = nn.contrib_conv2d_NCHWc(%3, %9, padding=[0, 0, 0, 0], channels=2048, kernel_size=[1, 1], data_layout="NCHW16c", out_layout="NCHW16c", out_dtype="int32") /* ty=Tensor[(1, 128, 16, 16, 16), int32] */;
  %11 = cast(%w, dtype="int32") /* ty=Tensor[(2048, 1024, 1, 1), int32] */;
  %12 = sum(%11, axis=[1, 2, 3]) /* ty=Tensor[(2048), int32] */;
  %13 = expand_dims(%12, axis=1, num_newaxis=2) /* ty=Tensor[(2048, 1, 1), int32] */;
  %14 = multiply(%13, 128 /* ty=int32 */) /* ty=Tensor[(2048, 1, 1), int32] */;
  %15 = expand_dims(%14, axis=0) /* ty=Tensor[(1, 2048, 1, 1), int32] */;
  %16 = layout_transform(%15, src_layout="NCHW", dst_layout="NCHW16c") /* ty=Tensor[(1, 128, 1, 1, 16), int32] */;
  %17 = subtract(%10, %16) /* ty=Tensor[(1, 128, 16, 16, 16), int32] */;
  %18 = layout_transform(%b, src_layout="NCHW", dst_layout="NCHW16c") /* ty=Tensor[(1, 128, 1, 1, 16), int32] */;
  %19 = add(%17, %18) /* ty=Tensor[(1, 128, 16, 16, 16), int32] */;
  %20 = multiply(%19, 11 /* ty=int32 */) /* ty=Tensor[(1, 128, 16, 16, 16), int32] */;
  layout_transform(%20, src_layout="NCHW16c", dst_layout="NCHW") /* ty=Tensor[(1, 2048, 16, 16), int32] */
}

Cannot find config for target=llvm -keys=cpu -mcpu=cascadelake, workload=('conv2d_NCHWc_int8.x86', ('TENSOR', (1, 64, 16, 16, 16), 'uint8'), ('TENSOR', (128, 64, 1, 1, 4, 16, 4), 'int8'), (1, 1), (0, 0, 0, 0), (1, 1), 'NCHW16c', 'NCHW16c', 'int32'). A fallback configuration is used, which may bring great performance regression.
[00:51:55] /home/ubuntu/tvm/src/runtime/graph/debug/graph_runtime_debug.cc:95: Iteration: 0
[00:51:55] /home/ubuntu/tvm/src/runtime/graph/debug/graph_runtime_debug.cc:100: Op #0 fused_cast_add_cast_layout_transform: 10.9804 us/iter
[00:51:55] /home/ubuntu/tvm/src/runtime/graph/debug/graph_runtime_debug.cc:100: Op #1 fused_transpose_reshape_transpose_reshape_reshape_transpose: 17.37 us/iter
[00:51:55] /home/ubuntu/tvm/src/runtime/graph/debug/graph_runtime_debug.cc:100: Op #2 fused_cast_sum: 6.7863 us/iter
[00:51:55] /home/ubuntu/tvm/src/runtime/graph/debug/graph_runtime_debug.cc:100: Op #3 fused_expand_dims_multiply_expand_dims_layout_transform: 2.2536 us/iter
[00:51:55] /home/ubuntu/tvm/src/runtime/graph/debug/graph_runtime_debug.cc:100: Op #4 fused_layout_transform_1: 2.1474 us/iter
[00:51:55] /home/ubuntu/tvm/src/runtime/graph/debug/graph_runtime_debug.cc:100: Op #5 fused_nn_contrib_conv2d_NCHWc_subtract_add_multiply: 185.362 us/iter
[00:51:55] /home/ubuntu/tvm/src/runtime/graph/debug/graph_runtime_debug.cc:100: Op #6 fused_layout_transform: 16.0365 us/iter
[00:51:55] /home/ubuntu/tvm/src/runtime/graph/debug/graph_runtime_debug.cc:95: Iteration: 0
[00:51:55] /home/ubuntu/tvm/src/runtime/graph/debug/graph_runtime_debug.cc:100: Op #0 fused_cast_add_cast_layout_transform: 10.9101 us/iter
[00:51:55] /home/ubuntu/tvm/src/runtime/graph/debug/graph_runtime_debug.cc:100: Op #1 fused_transpose_reshape_transpose_reshape_reshape_transpose: 17.3561 us/iter
[00:51:55] /home/ubuntu/tvm/src/runtime/graph/debug/graph_runtime_debug.cc:100: Op #2 fused_cast_sum: 6.8006 us/iter
[00:51:55] /home/ubuntu/tvm/src/runtime/graph/debug/graph_runtime_debug.cc:100: Op #3 fused_expand_dims_multiply_expand_dims_layout_transform: 2.206 us/iter
[00:51:55] /home/ubuntu/tvm/src/runtime/graph/debug/graph_runtime_debug.cc:100: Op #4 fused_layout_transform_1: 2.107 us/iter
[00:51:55] /home/ubuntu/tvm/src/runtime/graph/debug/graph_runtime_debug.cc:100: Op #5 fused_nn_contrib_conv2d_NCHWc_subtract_add_multiply: 178.86 us/iter
[00:51:55] /home/ubuntu/tvm/src/runtime/graph/debug/graph_runtime_debug.cc:100: Op #6 fused_layout_transform: 15.9673 us/iter
[00:51:55] /home/ubuntu/tvm/src/runtime/graph/debug/graph_runtime_debug.cc:95: Iteration: 0
[00:51:55] /home/ubuntu/tvm/src/runtime/graph/debug/graph_runtime_debug.cc:100: Op #0 fused_cast_add_cast_layout_transform: 11.4859 us/iter
[00:51:55] /home/ubuntu/tvm/src/runtime/graph/debug/graph_runtime_debug.cc:100: Op #1 fused_transpose_reshape_transpose_reshape_reshape_transpose: 21.4394 us/iter
[00:51:55] /home/ubuntu/tvm/src/runtime/graph/debug/graph_runtime_debug.cc:100: Op #2 fused_cast_sum: 7.0026 us/iter
[00:51:55] /home/ubuntu/tvm/src/runtime/graph/debug/graph_runtime_debug.cc:100: Op #3 fused_expand_dims_multiply_expand_dims_layout_transform: 2.2822 us/iter
[00:51:55] /home/ubuntu/tvm/src/runtime/graph/debug/graph_runtime_debug.cc:100: Op #4 fused_layout_transform_1: 2.1102 us/iter
[00:51:55] /home/ubuntu/tvm/src/runtime/graph/debug/graph_runtime_debug.cc:100: Op #5 fused_nn_contrib_conv2d_NCHWc_subtract_add_multiply: 203.017 us/iter
[00:51:55] /home/ubuntu/tvm/src/runtime/graph/debug/graph_runtime_debug.cc:100: Op #6 fused_layout_transform: 16.6062 us/iter
[00:51:55] /home/ubuntu/tvm/src/runtime/graph/debug/graph_runtime_debug.cc:95: Iteration: 0
[00:51:55] /home/ubuntu/tvm/src/runtime/graph/debug/graph_runtime_debug.cc:100: Op #0 fused_cast_add_cast_layout_transform: 10.8241 us/iter
[00:51:55] /home/ubuntu/tvm/src/runtime/graph/debug/graph_runtime_debug.cc:100: Op #1 fused_transpose_reshape_transpose_reshape_reshape_transpose: 18.6563 us/iter
[00:51:55] /home/ubuntu/tvm/src/runtime/graph/debug/graph_runtime_debug.cc:100: Op #2 fused_cast_sum: 7.4222 us/iter
[00:51:55] /home/ubuntu/tvm/src/runtime/graph/debug/graph_runtime_debug.cc:100: Op #3 fused_expand_dims_multiply_expand_dims_layout_transform: 2.2744 us/iter
[00:51:55] /home/ubuntu/tvm/src/runtime/graph/debug/graph_runtime_debug.cc:100: Op #4 fused_layout_transform_1: 2.1119 us/iter
[00:51:55] /home/ubuntu/tvm/src/runtime/graph/debug/graph_runtime_debug.cc:100: Op #5 fused_nn_contrib_conv2d_NCHWc_subtract_add_multiply: 195.893 us/iter
[00:51:55] /home/ubuntu/tvm/src/runtime/graph/debug/graph_runtime_debug.cc:100: Op #6 fused_layout_transform: 16.5506 us/iter
[00:51:55] /home/ubuntu/tvm/src/runtime/graph/debug/graph_runtime_debug.cc:95: Iteration: 0
[00:51:55] /home/ubuntu/tvm/src/runtime/graph/debug/graph_runtime_debug.cc:100: Op #0 fused_cast_add_cast_layout_transform: 12.0089 us/iter
[00:51:55] /home/ubuntu/tvm/src/runtime/graph/debug/graph_runtime_debug.cc:100: Op #1 fused_transpose_reshape_transpose_reshape_reshape_transpose: 18.2139 us/iter
[00:51:55] /home/ubuntu/tvm/src/runtime/graph/debug/graph_runtime_debug.cc:100: Op #2 fused_cast_sum: 6.9939 us/iter
[00:51:55] /home/ubuntu/tvm/src/runtime/graph/debug/graph_runtime_debug.cc:100: Op #3 fused_expand_dims_multiply_expand_dims_layout_transform: 2.253 us/iter
[00:51:55] /home/ubuntu/tvm/src/runtime/graph/debug/graph_runtime_debug.cc:100: Op #4 fused_layout_transform_1: 2.1081 us/iter
[00:51:55] /home/ubuntu/tvm/src/runtime/graph/debug/graph_runtime_debug.cc:100: Op #5 fused_nn_contrib_conv2d_NCHWc_subtract_add_multiply: 183.171 us/iter
[00:51:55] /home/ubuntu/tvm/src/runtime/graph/debug/graph_runtime_debug.cc:100: Op #6 fused_layout_transform: 15.8635 us/iter
Cannot find config for target=llvm -keys=cpu -mcpu=cascadelake, workload=('conv2d_NCHWc_int8.x86', ('TENSOR', (1, 1024, 16, 16), 'uint8'), ('TENSOR', (2048, 1024, 1, 1), 'int8'), (1, 1), (0, 0, 0, 0), (1, 1), 'NCHW', 'NCHW', 'int32'). A fallback configuration is used, which may bring great performance regression.
[00:51:56] /home/ubuntu/tvm/src/relay/backend/build_module.cc:326: v0.0.4
def @main(%x: Tensor[(1, 1024, 16, 16), int8], %w: Tensor[(2048, 1024, 1, 1), int8], %b: Tensor[(1, 2048, 1, 1), int32]) -> Tensor[(1, 2048, 16, 16), int32] {
  %0 = cast(%x, dtype="int32") /* ty=Tensor[(1, 1024, 16, 16), int32] */;
  %1 = add(%0, 128 /* ty=int32 */) /* ty=Tensor[(1, 1024, 16, 16), int32] */;
  %2 = cast(%1, dtype="uint8") /* ty=Tensor[(1, 1024, 16, 16), uint8] */;
  %3 = layout_transform(%2, src_layout="NCHW", dst_layout="NCHW16c") /* ty=Tensor[(1, 64, 16, 16, 16), uint8] */;
  %4 = transpose(%w, axes=[1, 2, 3, 0]) /* ty=Tensor[(1024, 1, 1, 2048), int8] */;
  %5 = reshape(%4, newshape=[1024, 1, 1, 128, 16]) /* ty=Tensor[(1024, 1, 1, 128, 16), int8] */;
  %6 = transpose(%5, axes=[3, 1, 2, 4, 0]) /* ty=Tensor[(128, 1, 1, 16, 1024), int8] */;
  %7 = reshape(%6, newshape=[128, 1, 1, 16, 64, 16]) /* ty=Tensor[(128, 1, 1, 16, 64, 16), int8] */;
  %8 = reshape(%7, newshape=[128, 1, 1, 16, 64, 4, 4]) /* ty=Tensor[(128, 1, 1, 16, 64, 4, 4), int8] */;
  %9 = transpose(%8, axes=[0, 4, 1, 2, 5, 3, 6]) /* ty=Tensor[(128, 64, 1, 1, 4, 16, 4), int8] */;
  %10 = nn.contrib_conv2d_NCHWc(%3, %9, padding=[0, 0, 0, 0], channels=2048, kernel_size=[1, 1], data_layout="NCHW16c", out_layout="NCHW16c", out_dtype="int32") /* ty=Tensor[(1, 128, 16, 16, 16), int32] */;
  %11 = cast(%w, dtype="int32") /* ty=Tensor[(2048, 1024, 1, 1), int32] */;
  %12 = sum(%11, axis=[1, 2, 3]) /* ty=Tensor[(2048), int32] */;
  %13 = expand_dims(%12, axis=1, num_newaxis=2) /* ty=Tensor[(2048, 1, 1), int32] */;
  %14 = multiply(%13, 128 /* ty=int32 */) /* ty=Tensor[(2048, 1, 1), int32] */;
  %15 = expand_dims(%14, axis=0) /* ty=Tensor[(1, 2048, 1, 1), int32] */;
  %16 = layout_transform(%15, src_layout="NCHW", dst_layout="NCHW16c") /* ty=Tensor[(1, 128, 1, 1, 16), int32] */;
  %17 = subtract(%10, %16) /* ty=Tensor[(1, 128, 16, 16, 16), int32] */;
  %18 = layout_transform(%b, src_layout="NCHW", dst_layout="NCHW16c") /* ty=Tensor[(1, 128, 1, 1, 16), int32] */;
  %19 = add(%17, %18) /* ty=Tensor[(1, 128, 16, 16, 16), int32] */;
  %20 = multiply(%19, 11 /* ty=int32 */) /* ty=Tensor[(1, 128, 16, 16, 16), int32] */;
  layout_transform(%20, src_layout="NCHW16c", dst_layout="NCHW") /* ty=Tensor[(1, 2048, 16, 16), int32] */
}

Cannot find config for target=llvm -keys=cpu -mcpu=cascadelake, workload=('conv2d_NCHWc_int8.x86', ('TENSOR', (1, 64, 16, 16, 16), 'uint8'), ('TENSOR', (128, 64, 1, 1, 4, 16, 4), 'int8'), (1, 1), (0, 0, 0, 0), (1, 1), 'NCHW16c', 'NCHW16c', 'int32'). A fallback configuration is used, which may bring great performance regression.
[00:51:56] /home/ubuntu/tvm/src/runtime/graph/debug/graph_runtime_debug.cc:95: Iteration: 0
[00:51:56] /home/ubuntu/tvm/src/runtime/graph/debug/graph_runtime_debug.cc:100: Op #0 fused_cast_add_cast_layout_transform: 11.2465 us/iter
[00:51:56] /home/ubuntu/tvm/src/runtime/graph/debug/graph_runtime_debug.cc:100: Op #1 fused_transpose_reshape_transpose_reshape_reshape_transpose: 20.9219 us/iter
[00:51:56] /home/ubuntu/tvm/src/runtime/graph/debug/graph_runtime_debug.cc:100: Op #2 fused_cast_sum: 7.2756 us/iter
[00:51:56] /home/ubuntu/tvm/src/runtime/graph/debug/graph_runtime_debug.cc:100: Op #3 fused_expand_dims_multiply_expand_dims_layout_transform: 2.4154 us/iter
[00:51:56] /home/ubuntu/tvm/src/runtime/graph/debug/graph_runtime_debug.cc:100: Op #4 fused_layout_transform_1: 2.1716 us/iter
[00:51:56] /home/ubuntu/tvm/src/runtime/graph/debug/graph_runtime_debug.cc:100: Op #5 fused_nn_contrib_conv2d_NCHWc_subtract_add_multiply: 178.561 us/iter
[00:51:56] /home/ubuntu/tvm/src/runtime/graph/debug/graph_runtime_debug.cc:100: Op #6 fused_layout_transform: 15.8421 us/iter
[00:51:56] /home/ubuntu/tvm/src/runtime/graph/debug/graph_runtime_debug.cc:95: Iteration: 0
[00:51:56] /home/ubuntu/tvm/src/runtime/graph/debug/graph_runtime_debug.cc:100: Op #0 fused_cast_add_cast_layout_transform: 11.237 us/iter
[00:51:56] /home/ubuntu/tvm/src/runtime/graph/debug/graph_runtime_debug.cc:100: Op #1 fused_transpose_reshape_transpose_reshape_reshape_transpose: 18.4905 us/iter
[00:51:56] /home/ubuntu/tvm/src/runtime/graph/debug/graph_runtime_debug.cc:100: Op #2 fused_cast_sum: 6.8364 us/iter
[00:51:56] /home/ubuntu/tvm/src/runtime/graph/debug/graph_runtime_debug.cc:100: Op #3 fused_expand_dims_multiply_expand_dims_layout_transform: 2.2709 us/iter
[00:51:56] /home/ubuntu/tvm/src/runtime/graph/debug/graph_runtime_debug.cc:100: Op #4 fused_layout_transform_1: 2.1828 us/iter
[00:51:56] /home/ubuntu/tvm/src/runtime/graph/debug/graph_runtime_debug.cc:100: Op #5 fused_nn_contrib_conv2d_NCHWc_subtract_add_multiply: 184.541 us/iter
[00:51:56] /home/ubuntu/tvm/src/runtime/graph/debug/graph_runtime_debug.cc:100: Op #6 fused_layout_transform: 16.0121 us/iter
[00:51:56] /home/ubuntu/tvm/src/runtime/graph/debug/graph_runtime_debug.cc:95: Iteration: 0
[00:51:56] /home/ubuntu/tvm/src/runtime/graph/debug/graph_runtime_debug.cc:100: Op #0 fused_cast_add_cast_layout_transform: 11.2199 us/iter
[00:51:56] /home/ubuntu/tvm/src/runtime/graph/debug/graph_runtime_debug.cc:100: Op #1 fused_transpose_reshape_transpose_reshape_reshape_transpose: 18.9701 us/iter
[00:51:56] /home/ubuntu/tvm/src/runtime/graph/debug/graph_runtime_debug.cc:100: Op #2 fused_cast_sum: 7.2777 us/iter
[00:51:56] /home/ubuntu/tvm/src/runtime/graph/debug/graph_runtime_debug.cc:100: Op #3 fused_expand_dims_multiply_expand_dims_layout_transform: 2.3002 us/iter
[00:51:56] /home/ubuntu/tvm/src/runtime/graph/debug/graph_runtime_debug.cc:100: Op #4 fused_layout_transform_1: 2.1663 us/iter
[00:51:56] /home/ubuntu/tvm/src/runtime/graph/debug/graph_runtime_debug.cc:100: Op #5 fused_nn_contrib_conv2d_NCHWc_subtract_add_multiply: 205.909 us/iter
[00:51:56] /home/ubuntu/tvm/src/runtime/graph/debug/graph_runtime_debug.cc:100: Op #6 fused_layout_transform: 17.1769 us/iter
[00:51:56] /home/ubuntu/tvm/src/runtime/graph/debug/graph_runtime_debug.cc:95: Iteration: 0
[00:51:56] /home/ubuntu/tvm/src/runtime/graph/debug/graph_runtime_debug.cc:100: Op #0 fused_cast_add_cast_layout_transform: 11.3117 us/iter
[00:51:56] /home/ubuntu/tvm/src/runtime/graph/debug/graph_runtime_debug.cc:100: Op #1 fused_transpose_reshape_transpose_reshape_reshape_transpose: 19.108 us/iter
[00:51:56] /home/ubuntu/tvm/src/runtime/graph/debug/graph_runtime_debug.cc:100: Op #2 fused_cast_sum: 7.1439 us/iter
[00:51:56] /home/ubuntu/tvm/src/runtime/graph/debug/graph_runtime_debug.cc:100: Op #3 fused_expand_dims_multiply_expand_dims_layout_transform: 2.2974 us/iter
[00:51:56] /home/ubuntu/tvm/src/runtime/graph/debug/graph_runtime_debug.cc:100: Op #4 fused_layout_transform_1: 2.1714 us/iter
[00:51:56] /home/ubuntu/tvm/src/runtime/graph/debug/graph_runtime_debug.cc:100: Op #5 fused_nn_contrib_conv2d_NCHWc_subtract_add_multiply: 203.315 us/iter
[00:51:56] /home/ubuntu/tvm/src/runtime/graph/debug/graph_runtime_debug.cc:100: Op #6 fused_layout_transform: 16.8578 us/iter
[00:51:56] /home/ubuntu/tvm/src/runtime/graph/debug/graph_runtime_debug.cc:95: Iteration: 0
[00:51:56] /home/ubuntu/tvm/src/runtime/graph/debug/graph_runtime_debug.cc:100: Op #0 fused_cast_add_cast_layout_transform: 10.994 us/iter
[00:51:56] /home/ubuntu/tvm/src/runtime/graph/debug/graph_runtime_debug.cc:100: Op #1 fused_transpose_reshape_transpose_reshape_reshape_transpose: 19.8743 us/iter
[00:51:56] /home/ubuntu/tvm/src/runtime/graph/debug/graph_runtime_debug.cc:100: Op #2 fused_cast_sum: 7.5989 us/iter
[00:51:56] /home/ubuntu/tvm/src/runtime/graph/debug/graph_runtime_debug.cc:100: Op #3 fused_expand_dims_multiply_expand_dims_layout_transform: 2.3274 us/iter
[00:51:56] /home/ubuntu/tvm/src/runtime/graph/debug/graph_runtime_debug.cc:100: Op #4 fused_layout_transform_1: 2.1315 us/iter
[00:51:56] /home/ubuntu/tvm/src/runtime/graph/debug/graph_runtime_debug.cc:100: Op #5 fused_nn_contrib_conv2d_NCHWc_subtract_add_multiply: 200.135 us/iter
[00:51:56] /home/ubuntu/tvm/src/runtime/graph/debug/graph_runtime_debug.cc:100: Op #6 fused_layout_transform: 17.5557 us/iter
Cannot find config for target=llvm -keys=cpu -mcpu=cascadelake, workload=('conv2d_NCHWc_int8.x86', ('TENSOR', (1, 1024, 16, 16), 'uint8'), ('TENSOR', (2048, 1024, 1, 1), 'int8'), (1, 1), (0, 0, 0, 0), (1, 1), 'NCHW', 'NCHW', 'int32'). A fallback configuration is used, which may bring great performance regression.
[00:51:57] /home/ubuntu/tvm/src/relay/backend/build_module.cc:326: v0.0.4
def @main(%x: Tensor[(1, 1024, 16, 16), int8], %w: Tensor[(2048, 1024, 1, 1), int8], %b: Tensor[(1, 2048, 1, 1), int32]) -> Tensor[(1, 2048, 16, 16), int32] {
  %0 = cast(%x, dtype="int32") /* ty=Tensor[(1, 1024, 16, 16), int32] */;
  %1 = add(%0, 128 /* ty=int32 */) /* ty=Tensor[(1, 1024, 16, 16), int32] */;
  %2 = cast(%1, dtype="uint8") /* ty=Tensor[(1, 1024, 16, 16), uint8] */;
  %3 = layout_transform(%2, src_layout="NCHW", dst_layout="NCHW16c") /* ty=Tensor[(1, 64, 16, 16, 16), uint8] */;
  %4 = transpose(%w, axes=[1, 2, 3, 0]) /* ty=Tensor[(1024, 1, 1, 2048), int8] */;
  %5 = reshape(%4, newshape=[1024, 1, 1, 128, 16]) /* ty=Tensor[(1024, 1, 1, 128, 16), int8] */;
  %6 = transpose(%5, axes=[3, 1, 2, 4, 0]) /* ty=Tensor[(128, 1, 1, 16, 1024), int8] */;
  %7 = reshape(%6, newshape=[128, 1, 1, 16, 64, 16]) /* ty=Tensor[(128, 1, 1, 16, 64, 16), int8] */;
  %8 = reshape(%7, newshape=[128, 1, 1, 16, 64, 4, 4]) /* ty=Tensor[(128, 1, 1, 16, 64, 4, 4), int8] */;
  %9 = transpose(%8, axes=[0, 4, 1, 2, 5, 3, 6]) /* ty=Tensor[(128, 64, 1, 1, 4, 16, 4), int8] */;
  %10 = nn.contrib_conv2d_NCHWc(%3, %9, padding=[0, 0, 0, 0], channels=2048, kernel_size=[1, 1], data_layout="NCHW16c", out_layout="NCHW16c", out_dtype="int32") /* ty=Tensor[(1, 128, 16, 16, 16), int32] */;
  %11 = cast(%w, dtype="int32") /* ty=Tensor[(2048, 1024, 1, 1), int32] */;
  %12 = sum(%11, axis=[1, 2, 3]) /* ty=Tensor[(2048), int32] */;
  %13 = expand_dims(%12, axis=1, num_newaxis=2) /* ty=Tensor[(2048, 1, 1), int32] */;
  %14 = multiply(%13, 128 /* ty=int32 */) /* ty=Tensor[(2048, 1, 1), int32] */;
  %15 = expand_dims(%14, axis=0) /* ty=Tensor[(1, 2048, 1, 1), int32] */;
  %16 = layout_transform(%15, src_layout="NCHW", dst_layout="NCHW16c") /* ty=Tensor[(1, 128, 1, 1, 16), int32] */;
  %17 = subtract(%10, %16) /* ty=Tensor[(1, 128, 16, 16, 16), int32] */;
  %18 = layout_transform(%b, src_layout="NCHW", dst_layout="NCHW16c") /* ty=Tensor[(1, 128, 1, 1, 16), int32] */;
  %19 = add(%17, %18) /* ty=Tensor[(1, 128, 16, 16, 16), int32] */;
  %20 = multiply(%19, 11 /* ty=int32 */) /* ty=Tensor[(1, 128, 16, 16, 16), int32] */;
  layout_transform(%20, src_layout="NCHW16c", dst_layout="NCHW") /* ty=Tensor[(1, 2048, 16, 16), int32] */
}

Cannot find config for target=llvm -keys=cpu -mcpu=cascadelake, workload=('conv2d_NCHWc_int8.x86', ('TENSOR', (1, 64, 16, 16, 16), 'uint8'), ('TENSOR', (128, 64, 1, 1, 4, 16, 4), 'int8'), (1, 1), (0, 0, 0, 0), (1, 1), 'NCHW16c', 'NCHW16c', 'int32'). A fallback configuration is used, which may bring great performance regression.
[00:51:57] /home/ubuntu/tvm/src/runtime/graph/debug/graph_runtime_debug.cc:95: Iteration: 0
[00:51:57] /home/ubuntu/tvm/src/runtime/graph/debug/graph_runtime_debug.cc:100: Op #0 fused_cast_add_cast_layout_transform: 11.2614 us/iter
[00:51:57] /home/ubuntu/tvm/src/runtime/graph/debug/graph_runtime_debug.cc:100: Op #1 fused_transpose_reshape_transpose_reshape_reshape_transpose: 17.6744 us/iter
[00:51:57] /home/ubuntu/tvm/src/runtime/graph/debug/graph_runtime_debug.cc:100: Op #2 fused_cast_sum: 6.7643 us/iter
[00:51:57] /home/ubuntu/tvm/src/runtime/graph/debug/graph_runtime_debug.cc:100: Op #3 fused_expand_dims_multiply_expand_dims_layout_transform: 2.3086 us/iter
[00:51:57] /home/ubuntu/tvm/src/runtime/graph/debug/graph_runtime_debug.cc:100: Op #4 fused_layout_transform_1: 2.1508 us/iter
[00:51:57] /home/ubuntu/tvm/src/runtime/graph/debug/graph_runtime_debug.cc:100: Op #5 fused_nn_contrib_conv2d_NCHWc_subtract_add_multiply: 177.446 us/iter
[00:51:57] /home/ubuntu/tvm/src/runtime/graph/debug/graph_runtime_debug.cc:100: Op #6 fused_layout_transform: 15.8799 us/iter
[00:51:57] /home/ubuntu/tvm/src/runtime/graph/debug/graph_runtime_debug.cc:95: Iteration: 0
[00:51:57] /home/ubuntu/tvm/src/runtime/graph/debug/graph_runtime_debug.cc:100: Op #0 fused_cast_add_cast_layout_transform: 11.7039 us/iter
[00:51:57] /home/ubuntu/tvm/src/runtime/graph/debug/graph_runtime_debug.cc:100: Op #1 fused_transpose_reshape_transpose_reshape_reshape_transpose: 17.6625 us/iter
[00:51:57] /home/ubuntu/tvm/src/runtime/graph/debug/graph_runtime_debug.cc:100: Op #2 fused_cast_sum: 6.8773 us/iter
[00:51:57] /home/ubuntu/tvm/src/runtime/graph/debug/graph_runtime_debug.cc:100: Op #3 fused_expand_dims_multiply_expand_dims_layout_transform: 2.2445 us/iter
[00:51:57] /home/ubuntu/tvm/src/runtime/graph/debug/graph_runtime_debug.cc:100: Op #4 fused_layout_transform_1: 2.1324 us/iter
[00:51:57] /home/ubuntu/tvm/src/runtime/graph/debug/graph_runtime_debug.cc:100: Op #5 fused_nn_contrib_conv2d_NCHWc_subtract_add_multiply: 178.064 us/iter
[00:51:57] /home/ubuntu/tvm/src/runtime/graph/debug/graph_runtime_debug.cc:100: Op #6 fused_layout_transform: 15.8644 us/iter
[00:51:57] /home/ubuntu/tvm/src/runtime/graph/debug/graph_runtime_debug.cc:95: Iteration: 0
[00:51:57] /home/ubuntu/tvm/src/runtime/graph/debug/graph_runtime_debug.cc:100: Op #0 fused_cast_add_cast_layout_transform: 11.2954 us/iter
[00:51:57] /home/ubuntu/tvm/src/runtime/graph/debug/graph_runtime_debug.cc:100: Op #1 fused_transpose_reshape_transpose_reshape_reshape_transpose: 18.4915 us/iter
[00:51:57] /home/ubuntu/tvm/src/runtime/graph/debug/graph_runtime_debug.cc:100: Op #2 fused_cast_sum: 6.9915 us/iter
[00:51:57] /home/ubuntu/tvm/src/runtime/graph/debug/graph_runtime_debug.cc:100: Op #3 fused_expand_dims_multiply_expand_dims_layout_transform: 2.2606 us/iter
[00:51:57] /home/ubuntu/tvm/src/runtime/graph/debug/graph_runtime_debug.cc:100: Op #4 fused_layout_transform_1: 2.1928 us/iter
[00:51:57] /home/ubuntu/tvm/src/runtime/graph/debug/graph_runtime_debug.cc:100: Op #5 fused_nn_contrib_conv2d_NCHWc_subtract_add_multiply: 179.937 us/iter
[00:51:57] /home/ubuntu/tvm/src/runtime/graph/debug/graph_runtime_debug.cc:100: Op #6 fused_layout_transform: 15.8601 us/iter
[00:51:57] /home/ubuntu/tvm/src/runtime/graph/debug/graph_runtime_debug.cc:95: Iteration: 0
[00:51:57] /home/ubuntu/tvm/src/runtime/graph/debug/graph_runtime_debug.cc:100: Op #0 fused_cast_add_cast_layout_transform: 11.4663 us/iter
[00:51:57] /home/ubuntu/tvm/src/runtime/graph/debug/graph_runtime_debug.cc:100: Op #1 fused_transpose_reshape_transpose_reshape_reshape_transpose: 18.7884 us/iter
[00:51:57] /home/ubuntu/tvm/src/runtime/graph/debug/graph_runtime_debug.cc:100: Op #2 fused_cast_sum: 7.2013 us/iter
[00:51:57] /home/ubuntu/tvm/src/runtime/graph/debug/graph_runtime_debug.cc:100: Op #3 fused_expand_dims_multiply_expand_dims_layout_transform: 2.3258 us/iter
[00:51:57] /home/ubuntu/tvm/src/runtime/graph/debug/graph_runtime_debug.cc:100: Op #4 fused_layout_transform_1: 2.1819 us/iter
[00:51:57] /home/ubuntu/tvm/src/runtime/graph/debug/graph_runtime_debug.cc:100: Op #5 fused_nn_contrib_conv2d_NCHWc_subtract_add_multiply: 200.805 us/iter
[00:51:57] /home/ubuntu/tvm/src/runtime/graph/debug/graph_runtime_debug.cc:100: Op #6 fused_layout_transform: 17.2139 us/iter
[00:51:57] /home/ubuntu/tvm/src/runtime/graph/debug/graph_runtime_debug.cc:95: Iteration: 0
[00:51:57] /home/ubuntu/tvm/src/runtime/graph/debug/graph_runtime_debug.cc:100: Op #0 fused_cast_add_cast_layout_transform: 13.1937 us/iter
[00:51:57] /home/ubuntu/tvm/src/runtime/graph/debug/graph_runtime_debug.cc:100: Op #1 fused_transpose_reshape_transpose_reshape_reshape_transpose: 18.5811 us/iter
[00:51:57] /home/ubuntu/tvm/src/runtime/graph/debug/graph_runtime_debug.cc:100: Op #2 fused_cast_sum: 7.0915 us/iter
[00:51:57] /home/ubuntu/tvm/src/runtime/graph/debug/graph_runtime_debug.cc:100: Op #3 fused_expand_dims_multiply_expand_dims_layout_transform: 2.3588 us/iter
[00:51:57] /home/ubuntu/tvm/src/runtime/graph/debug/graph_runtime_debug.cc:100: Op #4 fused_layout_transform_1: 2.1761 us/iter
[00:51:57] /home/ubuntu/tvm/src/runtime/graph/debug/graph_runtime_debug.cc:100: Op #5 fused_nn_contrib_conv2d_NCHWc_subtract_add_multiply: 185.583 us/iter
[00:51:57] /home/ubuntu/tvm/src/runtime/graph/debug/graph_runtime_debug.cc:100: Op #6 fused_layout_transform: 16.2284 us/iter
Cannot find config for target=llvm -keys=cpu -mcpu=cascadelake, workload=('conv2d_NCHWc_int8.x86', ('TENSOR', (1, 1024, 16, 16), 'uint8'), ('TENSOR', (2048, 1024, 1, 1), 'int8'), (1, 1), (0, 0, 0, 0), (1, 1), 'NCHW', 'NCHW', 'int32'). A fallback configuration is used, which may bring great performance regression.
[00:51:58] /home/ubuntu/tvm/src/relay/backend/build_module.cc:326: v0.0.4
def @main(%x: Tensor[(1, 1024, 16, 16), int8], %w: Tensor[(2048, 1024, 1, 1), int8], %b: Tensor[(1, 2048, 1, 1), int32]) -> Tensor[(1, 2048, 16, 16), int32] {
  %0 = cast(%x, dtype="int32") /* ty=Tensor[(1, 1024, 16, 16), int32] */;
  %1 = add(%0, 128 /* ty=int32 */) /* ty=Tensor[(1, 1024, 16, 16), int32] */;
  %2 = cast(%1, dtype="uint8") /* ty=Tensor[(1, 1024, 16, 16), uint8] */;
  %3 = layout_transform(%2, src_layout="NCHW", dst_layout="NCHW16c") /* ty=Tensor[(1, 64, 16, 16, 16), uint8] */;
  %4 = transpose(%w, axes=[1, 2, 3, 0]) /* ty=Tensor[(1024, 1, 1, 2048), int8] */;
  %5 = reshape(%4, newshape=[1024, 1, 1, 128, 16]) /* ty=Tensor[(1024, 1, 1, 128, 16), int8] */;
  %6 = transpose(%5, axes=[3, 1, 2, 4, 0]) /* ty=Tensor[(128, 1, 1, 16, 1024), int8] */;
  %7 = reshape(%6, newshape=[128, 1, 1, 16, 64, 16]) /* ty=Tensor[(128, 1, 1, 16, 64, 16), int8] */;
  %8 = reshape(%7, newshape=[128, 1, 1, 16, 64, 4, 4]) /* ty=Tensor[(128, 1, 1, 16, 64, 4, 4), int8] */;
  %9 = transpose(%8, axes=[0, 4, 1, 2, 5, 3, 6]) /* ty=Tensor[(128, 64, 1, 1, 4, 16, 4), int8] */;
  %10 = nn.contrib_conv2d_NCHWc(%3, %9, padding=[0, 0, 0, 0], channels=2048, kernel_size=[1, 1], data_layout="NCHW16c", out_layout="NCHW16c", out_dtype="int32") /* ty=Tensor[(1, 128, 16, 16, 16), int32] */;
  %11 = cast(%w, dtype="int32") /* ty=Tensor[(2048, 1024, 1, 1), int32] */;
  %12 = sum(%11, axis=[1, 2, 3]) /* ty=Tensor[(2048), int32] */;
  %13 = expand_dims(%12, axis=1, num_newaxis=2) /* ty=Tensor[(2048, 1, 1), int32] */;
  %14 = multiply(%13, 128 /* ty=int32 */) /* ty=Tensor[(2048, 1, 1), int32] */;
  %15 = expand_dims(%14, axis=0) /* ty=Tensor[(1, 2048, 1, 1), int32] */;
  %16 = layout_transform(%15, src_layout="NCHW", dst_layout="NCHW16c") /* ty=Tensor[(1, 128, 1, 1, 16), int32] */;
  %17 = subtract(%10, %16) /* ty=Tensor[(1, 128, 16, 16, 16), int32] */;
  %18 = layout_transform(%b, src_layout="NCHW", dst_layout="NCHW16c") /* ty=Tensor[(1, 128, 1, 1, 16), int32] */;
  %19 = add(%17, %18) /* ty=Tensor[(1, 128, 16, 16, 16), int32] */;
  %20 = multiply(%19, 11 /* ty=int32 */) /* ty=Tensor[(1, 128, 16, 16, 16), int32] */;
  layout_transform(%20, src_layout="NCHW16c", dst_layout="NCHW") /* ty=Tensor[(1, 2048, 16, 16), int32] */
}

Cannot find config for target=llvm -keys=cpu -mcpu=cascadelake, workload=('conv2d_NCHWc_int8.x86', ('TENSOR', (1, 64, 16, 16, 16), 'uint8'), ('TENSOR', (128, 64, 1, 1, 4, 16, 4), 'int8'), (1, 1), (0, 0, 0, 0), (1, 1), 'NCHW16c', 'NCHW16c', 'int32'). A fallback configuration is used, which may bring great performance regression.
[00:51:58] /home/ubuntu/tvm/src/runtime/graph/debug/graph_runtime_debug.cc:95: Iteration: 0
[00:51:58] /home/ubuntu/tvm/src/runtime/graph/debug/graph_runtime_debug.cc:100: Op #0 fused_cast_add_cast_layout_transform: 11.0168 us/iter
[00:51:58] /home/ubuntu/tvm/src/runtime/graph/debug/graph_runtime_debug.cc:100: Op #1 fused_transpose_reshape_transpose_reshape_reshape_transpose: 18.5038 us/iter
[00:51:58] /home/ubuntu/tvm/src/runtime/graph/debug/graph_runtime_debug.cc:100: Op #2 fused_cast_sum: 6.8875 us/iter
[00:51:58] /home/ubuntu/tvm/src/runtime/graph/debug/graph_runtime_debug.cc:100: Op #3 fused_expand_dims_multiply_expand_dims_layout_transform: 2.3612 us/iter
[00:51:58] /home/ubuntu/tvm/src/runtime/graph/debug/graph_runtime_debug.cc:100: Op #4 fused_layout_transform_1: 2.1898 us/iter
[00:51:58] /home/ubuntu/tvm/src/runtime/graph/debug/graph_runtime_debug.cc:100: Op #5 fused_nn_contrib_conv2d_NCHWc_subtract_add_multiply: 184.53 us/iter
[00:51:58] /home/ubuntu/tvm/src/runtime/graph/debug/graph_runtime_debug.cc:100: Op #6 fused_layout_transform: 15.9509 us/iter
[00:51:58] /home/ubuntu/tvm/src/runtime/graph/debug/graph_runtime_debug.cc:95: Iteration: 0
[00:51:58] /home/ubuntu/tvm/src/runtime/graph/debug/graph_runtime_debug.cc:100: Op #0 fused_cast_add_cast_layout_transform: 11.1803 us/iter
[00:51:58] /home/ubuntu/tvm/src/runtime/graph/debug/graph_runtime_debug.cc:100: Op #1 fused_transpose_reshape_transpose_reshape_reshape_transpose: 18.5112 us/iter
[00:51:58] /home/ubuntu/tvm/src/runtime/graph/debug/graph_runtime_debug.cc:100: Op #2 fused_cast_sum: 6.9398 us/iter
[00:51:58] /home/ubuntu/tvm/src/runtime/graph/debug/graph_runtime_debug.cc:100: Op #3 fused_expand_dims_multiply_expand_dims_layout_transform: 2.3124 us/iter
[00:51:58] /home/ubuntu/tvm/src/runtime/graph/debug/graph_runtime_debug.cc:100: Op #4 fused_layout_transform_1: 2.1962 us/iter
[00:51:58] /home/ubuntu/tvm/src/runtime/graph/debug/graph_runtime_debug.cc:100: Op #5 fused_nn_contrib_conv2d_NCHWc_subtract_add_multiply: 177.947 us/iter
[00:51:58] /home/ubuntu/tvm/src/runtime/graph/debug/graph_runtime_debug.cc:100: Op #6 fused_layout_transform: 15.9506 us/iter
[00:51:58] /home/ubuntu/tvm/src/runtime/graph/debug/graph_runtime_debug.cc:95: Iteration: 0
[00:51:58] /home/ubuntu/tvm/src/runtime/graph/debug/graph_runtime_debug.cc:100: Op #0 fused_cast_add_cast_layout_transform: 11.3457 us/iter
[00:51:58] /home/ubuntu/tvm/src/runtime/graph/debug/graph_runtime_debug.cc:100: Op #1 fused_transpose_reshape_transpose_reshape_reshape_transpose: 19.8162 us/iter
[00:51:58] /home/ubuntu/tvm/src/runtime/graph/debug/graph_runtime_debug.cc:100: Op #2 fused_cast_sum: 7.1767 us/iter
[00:51:58] /home/ubuntu/tvm/src/runtime/graph/debug/graph_runtime_debug.cc:100: Op #3 fused_expand_dims_multiply_expand_dims_layout_transform: 2.3094 us/iter
[00:51:58] /home/ubuntu/tvm/src/runtime/graph/debug/graph_runtime_debug.cc:100: Op #4 fused_layout_transform_1: 2.2324 us/iter
[00:51:58] /home/ubuntu/tvm/src/runtime/graph/debug/graph_runtime_debug.cc:100: Op #5 fused_nn_contrib_conv2d_NCHWc_subtract_add_multiply: 202.149 us/iter
[00:51:58] /home/ubuntu/tvm/src/runtime/graph/debug/graph_runtime_debug.cc:100: Op #6 fused_layout_transform: 17.2244 us/iter
[00:51:58] /home/ubuntu/tvm/src/runtime/graph/debug/graph_runtime_debug.cc:95: Iteration: 0
[00:51:58] /home/ubuntu/tvm/src/runtime/graph/debug/graph_runtime_debug.cc:100: Op #0 fused_cast_add_cast_layout_transform: 11.1005 us/iter
[00:51:58] /home/ubuntu/tvm/src/runtime/graph/debug/graph_runtime_debug.cc:100: Op #1 fused_transpose_reshape_transpose_reshape_reshape_transpose: 19.6355 us/iter
[00:51:58] /home/ubuntu/tvm/src/runtime/graph/debug/graph_runtime_debug.cc:100: Op #2 fused_cast_sum: 7.1609 us/iter
[00:51:58] /home/ubuntu/tvm/src/runtime/graph/debug/graph_runtime_debug.cc:100: Op #3 fused_expand_dims_multiply_expand_dims_layout_transform: 2.3377 us/iter
[00:51:58] /home/ubuntu/tvm/src/runtime/graph/debug/graph_runtime_debug.cc:100: Op #4 fused_layout_transform_1: 2.1698 us/iter
[00:51:58] /home/ubuntu/tvm/src/runtime/graph/debug/graph_runtime_debug.cc:100: Op #5 fused_nn_contrib_conv2d_NCHWc_subtract_add_multiply: 200.57 us/iter
[00:51:58] /home/ubuntu/tvm/src/runtime/graph/debug/graph_runtime_debug.cc:100: Op #6 fused_layout_transform: 17.0676 us/iter
[00:51:58] /home/ubuntu/tvm/src/runtime/graph/debug/graph_runtime_debug.cc:95: Iteration: 0
[00:51:58] /home/ubuntu/tvm/src/runtime/graph/debug/graph_runtime_debug.cc:100: Op #0 fused_cast_add_cast_layout_transform: 11.0713 us/iter
[00:51:58] /home/ubuntu/tvm/src/runtime/graph/debug/graph_runtime_debug.cc:100: Op #1 fused_transpose_reshape_transpose_reshape_reshape_transpose: 20.1254 us/iter
[00:51:58] /home/ubuntu/tvm/src/runtime/graph/debug/graph_runtime_debug.cc:100: Op #2 fused_cast_sum: 7.2732 us/iter
[00:51:58] /home/ubuntu/tvm/src/runtime/graph/debug/graph_runtime_debug.cc:100: Op #3 fused_expand_dims_multiply_expand_dims_layout_transform: 2.2839 us/iter
[00:51:58] /home/ubuntu/tvm/src/runtime/graph/debug/graph_runtime_debug.cc:100: Op #4 fused_layout_transform_1: 2.3297 us/iter
[00:51:58] /home/ubuntu/tvm/src/runtime/graph/debug/graph_runtime_debug.cc:100: Op #5 fused_nn_contrib_conv2d_NCHWc_subtract_add_multiply: 197.458 us/iter
[00:51:58] /home/ubuntu/tvm/src/runtime/graph/debug/graph_runtime_debug.cc:100: Op #6 fused_layout_transform: 17.1516 us/iter
Cannot find config for target=llvm -keys=cpu -mcpu=cascadelake, workload=('conv2d_NCHWc_int8.x86', ('TENSOR', (1, 960, 8, 8), 'uint8'), ('TENSOR', (160, 960, 1, 1), 'int8'), (1, 1), (0, 0, 0, 0), (1, 1), 'NCHW', 'NCHW', 'int32'). A fallback configuration is used, which may bring great performance regression.
[00:51:59] /home/ubuntu/tvm/src/relay/backend/build_module.cc:326: v0.0.4
def @main(%x: Tensor[(1, 960, 8, 8), int8], %w: Tensor[(160, 960, 1, 1), int8], %b: Tensor[(1, 160, 1, 1), int32]) -> Tensor[(1, 160, 8, 8), int32] {
  %0 = cast(%x, dtype="int32") /* ty=Tensor[(1, 960, 8, 8), int32] */;
  %1 = add(%0, 128 /* ty=int32 */) /* ty=Tensor[(1, 960, 8, 8), int32] */;
  %2 = cast(%1, dtype="uint8") /* ty=Tensor[(1, 960, 8, 8), uint8] */;
  %3 = layout_transform(%2, src_layout="NCHW", dst_layout="NCHW16c") /* ty=Tensor[(1, 60, 8, 8, 16), uint8] */;
  %4 = transpose(%w, axes=[1, 2, 3, 0]) /* ty=Tensor[(960, 1, 1, 160), int8] */;
  %5 = reshape(%4, newshape=[960, 1, 1, 10, 16]) /* ty=Tensor[(960, 1, 1, 10, 16), int8] */;
  %6 = transpose(%5, axes=[3, 1, 2, 4, 0]) /* ty=Tensor[(10, 1, 1, 16, 960), int8] */;
  %7 = reshape(%6, newshape=[10, 1, 1, 16, 60, 16]) /* ty=Tensor[(10, 1, 1, 16, 60, 16), int8] */;
  %8 = reshape(%7, newshape=[10, 1, 1, 16, 60, 4, 4]) /* ty=Tensor[(10, 1, 1, 16, 60, 4, 4), int8] */;
  %9 = transpose(%8, axes=[0, 4, 1, 2, 5, 3, 6]) /* ty=Tensor[(10, 60, 1, 1, 4, 16, 4), int8] */;
  %10 = nn.contrib_conv2d_NCHWc(%3, %9, padding=[0, 0, 0, 0], channels=160, kernel_size=[1, 1], data_layout="NCHW16c", out_layout="NCHW16c", out_dtype="int32") /* ty=Tensor[(1, 10, 8, 8, 16), int32] */;
  %11 = cast(%w, dtype="int32") /* ty=Tensor[(160, 960, 1, 1), int32] */;
  %12 = sum(%11, axis=[1, 2, 3]) /* ty=Tensor[(160), int32] */;
  %13 = expand_dims(%12, axis=1, num_newaxis=2) /* ty=Tensor[(160, 1, 1), int32] */;
  %14 = multiply(%13, 128 /* ty=int32 */) /* ty=Tensor[(160, 1, 1), int32] */;
  %15 = expand_dims(%14, axis=0) /* ty=Tensor[(1, 160, 1, 1), int32] */;
  %16 = layout_transform(%15, src_layout="NCHW", dst_layout="NCHW16c") /* ty=Tensor[(1, 10, 1, 1, 16), int32] */;
  %17 = subtract(%10, %16) /* ty=Tensor[(1, 10, 8, 8, 16), int32] */;
  %18 = layout_transform(%b, src_layout="NCHW", dst_layout="NCHW16c") /* ty=Tensor[(1, 10, 1, 1, 16), int32] */;
  %19 = add(%17, %18) /* ty=Tensor[(1, 10, 8, 8, 16), int32] */;
  %20 = multiply(%19, 11 /* ty=int32 */) /* ty=Tensor[(1, 10, 8, 8, 16), int32] */;
  layout_transform(%20, src_layout="NCHW16c", dst_layout="NCHW") /* ty=Tensor[(1, 160, 8, 8), int32] */
}

Cannot find config for target=llvm -keys=cpu -mcpu=cascadelake, workload=('conv2d_NCHWc_int8.x86', ('TENSOR', (1, 60, 8, 8, 16), 'uint8'), ('TENSOR', (10, 60, 1, 1, 4, 16, 4), 'int8'), (1, 1), (0, 0, 0, 0), (1, 1), 'NCHW16c', 'NCHW16c', 'int32'). A fallback configuration is used, which may bring great performance regression.
[00:51:59] /home/ubuntu/tvm/src/runtime/graph/debug/graph_runtime_debug.cc:95: Iteration: 0
[00:51:59] /home/ubuntu/tvm/src/runtime/graph/debug/graph_runtime_debug.cc:100: Op #0 fused_cast_add_cast_layout_transform: 3.40902 us/iter
[00:51:59] /home/ubuntu/tvm/src/runtime/graph/debug/graph_runtime_debug.cc:100: Op #1 fused_transpose_reshape_transpose_reshape_reshape_transpose: 3.54552 us/iter
[00:51:59] /home/ubuntu/tvm/src/runtime/graph/debug/graph_runtime_debug.cc:100: Op #2 fused_cast_sum: 2.46826 us/iter
[00:51:59] /home/ubuntu/tvm/src/runtime/graph/debug/graph_runtime_debug.cc:100: Op #3 fused_expand_dims_multiply_expand_dims_layout_transform: 2.03713 us/iter
[00:51:59] /home/ubuntu/tvm/src/runtime/graph/debug/graph_runtime_debug.cc:100: Op #4 fused_layout_transform_1: 2.00398 us/iter
[00:51:59] /home/ubuntu/tvm/src/runtime/graph/debug/graph_runtime_debug.cc:100: Op #5 fused_nn_contrib_conv2d_NCHWc_subtract_add_multiply: 10.332 us/iter
[00:51:59] /home/ubuntu/tvm/src/runtime/graph/debug/graph_runtime_debug.cc:100: Op #6 fused_layout_transform: 8.55948 us/iter
[00:51:59] /home/ubuntu/tvm/src/runtime/graph/debug/graph_runtime_debug.cc:95: Iteration: 0
[00:51:59] /home/ubuntu/tvm/src/runtime/graph/debug/graph_runtime_debug.cc:100: Op #0 fused_cast_add_cast_layout_transform: 3.06256 us/iter
[00:51:59] /home/ubuntu/tvm/src/runtime/graph/debug/graph_runtime_debug.cc:100: Op #1 fused_transpose_reshape_transpose_reshape_reshape_transpose: 3.42537 us/iter
[00:51:59] /home/ubuntu/tvm/src/runtime/graph/debug/graph_runtime_debug.cc:100: Op #2 fused_cast_sum: 2.47972 us/iter
[00:51:59] /home/ubuntu/tvm/src/runtime/graph/debug/graph_runtime_debug.cc:100: Op #3 fused_expand_dims_multiply_expand_dims_layout_transform: 2.04442 us/iter
[00:51:59] /home/ubuntu/tvm/src/runtime/graph/debug/graph_runtime_debug.cc:100: Op #4 fused_layout_transform_1: 2.01023 us/iter
[00:51:59] /home/ubuntu/tvm/src/runtime/graph/debug/graph_runtime_debug.cc:100: Op #5 fused_nn_contrib_conv2d_NCHWc_subtract_add_multiply: 10.968 us/iter
[00:51:59] /home/ubuntu/tvm/src/runtime/graph/debug/graph_runtime_debug.cc:100: Op #6 fused_layout_transform: 8.933 us/iter
[00:51:59] /home/ubuntu/tvm/src/runtime/graph/debug/graph_runtime_debug.cc:95: Iteration: 0
[00:51:59] /home/ubuntu/tvm/src/runtime/graph/debug/graph_runtime_debug.cc:100: Op #0 fused_cast_add_cast_layout_transform: 3.07754 us/iter
[00:51:59] /home/ubuntu/tvm/src/runtime/graph/debug/graph_runtime_debug.cc:100: Op #1 fused_transpose_reshape_transpose_reshape_reshape_transpose: 3.63192 us/iter
[00:51:59] /home/ubuntu/tvm/src/runtime/graph/debug/graph_runtime_debug.cc:100: Op #2 fused_cast_sum: 2.50846 us/iter
[00:51:59] /home/ubuntu/tvm/src/runtime/graph/debug/graph_runtime_debug.cc:100: Op #3 fused_expand_dims_multiply_expand_dims_layout_transform: 2.39262 us/iter
[00:51:59] /home/ubuntu/tvm/src/runtime/graph/debug/graph_runtime_debug.cc:100: Op #4 fused_layout_transform_1: 2.07831 us/iter
[00:51:59] /home/ubuntu/tvm/src/runtime/graph/debug/graph_runtime_debug.cc:100: Op #5 fused_nn_contrib_conv2d_NCHWc_subtract_add_multiply: 10.6888 us/iter
[00:51:59] /home/ubuntu/tvm/src/runtime/graph/debug/graph_runtime_debug.cc:100: Op #6 fused_layout_transform: 8.06708 us/iter
[00:51:59] /home/ubuntu/tvm/src/runtime/graph/debug/graph_runtime_debug.cc:95: Iteration: 0
[00:51:59] /home/ubuntu/tvm/src/runtime/graph/debug/graph_runtime_debug.cc:100: Op #0 fused_cast_add_cast_layout_transform: 3.07396 us/iter
[00:51:59] /home/ubuntu/tvm/src/runtime/graph/debug/graph_runtime_debug.cc:100: Op #1 fused_transpose_reshape_transpose_reshape_reshape_transpose: 3.46367 us/iter
[00:51:59] /home/ubuntu/tvm/src/runtime/graph/debug/graph_runtime_debug.cc:100: Op #2 fused_cast_sum: 2.52516 us/iter
[00:51:59] /home/ubuntu/tvm/src/runtime/graph/debug/graph_runtime_debug.cc:100: Op #3 fused_expand_dims_multiply_expand_dims_layout_transform: 2.0516 us/iter
[00:51:59] /home/ubuntu/tvm/src/runtime/graph/debug/graph_runtime_debug.cc:100: Op #4 fused_layout_transform_1: 2.03922 us/iter
[00:51:59] /home/ubuntu/tvm/src/runtime/graph/debug/graph_runtime_debug.cc:100: Op #5 fused_nn_contrib_conv2d_NCHWc_subtract_add_multiply: 10.5155 us/iter
[00:51:59] /home/ubuntu/tvm/src/runtime/graph/debug/graph_runtime_debug.cc:100: Op #6 fused_layout_transform: 8.31662 us/iter
[00:51:59] /home/ubuntu/tvm/src/runtime/graph/debug/graph_runtime_debug.cc:95: Iteration: 0
[00:51:59] /home/ubuntu/tvm/src/runtime/graph/debug/graph_runtime_debug.cc:100: Op #0 fused_cast_add_cast_layout_transform: 3.08493 us/iter
[00:51:59] /home/ubuntu/tvm/src/runtime/graph/debug/graph_runtime_debug.cc:100: Op #1 fused_transpose_reshape_transpose_reshape_reshape_transpose: 3.81296 us/iter
[00:51:59] /home/ubuntu/tvm/src/runtime/graph/debug/graph_runtime_debug.cc:100: Op #2 fused_cast_sum: 2.7095 us/iter
[00:51:59] /home/ubuntu/tvm/src/runtime/graph/debug/graph_runtime_debug.cc:100: Op #3 fused_expand_dims_multiply_expand_dims_layout_transform: 2.11702 us/iter
[00:51:59] /home/ubuntu/tvm/src/runtime/graph/debug/graph_runtime_debug.cc:100: Op #4 fused_layout_transform_1: 2.07965 us/iter
[00:51:59] /home/ubuntu/tvm/src/runtime/graph/debug/graph_runtime_debug.cc:100: Op #5 fused_nn_contrib_conv2d_NCHWc_subtract_add_multiply: 10.4383 us/iter
[00:51:59] /home/ubuntu/tvm/src/runtime/graph/debug/graph_runtime_debug.cc:100: Op #6 fused_layout_transform: 9.23857 us/iter
Cannot find config for target=llvm -keys=cpu -mcpu=cascadelake, workload=('conv2d_NCHWc_int8.x86', ('TENSOR', (1, 960, 8, 8), 'uint8'), ('TENSOR', (160, 960, 1, 1), 'int8'), (1, 1), (0, 0, 0, 0), (1, 1), 'NCHW', 'NCHW', 'int32'). A fallback configuration is used, which may bring great performance regression.
[00:52:00] /home/ubuntu/tvm/src/relay/backend/build_module.cc:326: v0.0.4
def @main(%x: Tensor[(1, 960, 8, 8), int8], %w: Tensor[(160, 960, 1, 1), int8], %b: Tensor[(1, 160, 1, 1), int32]) -> Tensor[(1, 160, 8, 8), int32] {
  %0 = cast(%x, dtype="int32") /* ty=Tensor[(1, 960, 8, 8), int32] */;
  %1 = add(%0, 128 /* ty=int32 */) /* ty=Tensor[(1, 960, 8, 8), int32] */;
  %2 = cast(%1, dtype="uint8") /* ty=Tensor[(1, 960, 8, 8), uint8] */;
  %3 = layout_transform(%2, src_layout="NCHW", dst_layout="NCHW16c") /* ty=Tensor[(1, 60, 8, 8, 16), uint8] */;
  %4 = transpose(%w, axes=[1, 2, 3, 0]) /* ty=Tensor[(960, 1, 1, 160), int8] */;
  %5 = reshape(%4, newshape=[960, 1, 1, 10, 16]) /* ty=Tensor[(960, 1, 1, 10, 16), int8] */;
  %6 = transpose(%5, axes=[3, 1, 2, 4, 0]) /* ty=Tensor[(10, 1, 1, 16, 960), int8] */;
  %7 = reshape(%6, newshape=[10, 1, 1, 16, 60, 16]) /* ty=Tensor[(10, 1, 1, 16, 60, 16), int8] */;
  %8 = reshape(%7, newshape=[10, 1, 1, 16, 60, 4, 4]) /* ty=Tensor[(10, 1, 1, 16, 60, 4, 4), int8] */;
  %9 = transpose(%8, axes=[0, 4, 1, 2, 5, 3, 6]) /* ty=Tensor[(10, 60, 1, 1, 4, 16, 4), int8] */;
  %10 = nn.contrib_conv2d_NCHWc(%3, %9, padding=[0, 0, 0, 0], channels=160, kernel_size=[1, 1], data_layout="NCHW16c", out_layout="NCHW16c", out_dtype="int32") /* ty=Tensor[(1, 10, 8, 8, 16), int32] */;
  %11 = cast(%w, dtype="int32") /* ty=Tensor[(160, 960, 1, 1), int32] */;
  %12 = sum(%11, axis=[1, 2, 3]) /* ty=Tensor[(160), int32] */;
  %13 = expand_dims(%12, axis=1, num_newaxis=2) /* ty=Tensor[(160, 1, 1), int32] */;
  %14 = multiply(%13, 128 /* ty=int32 */) /* ty=Tensor[(160, 1, 1), int32] */;
  %15 = expand_dims(%14, axis=0) /* ty=Tensor[(1, 160, 1, 1), int32] */;
  %16 = layout_transform(%15, src_layout="NCHW", dst_layout="NCHW16c") /* ty=Tensor[(1, 10, 1, 1, 16), int32] */;
  %17 = subtract(%10, %16) /* ty=Tensor[(1, 10, 8, 8, 16), int32] */;
  %18 = layout_transform(%b, src_layout="NCHW", dst_layout="NCHW16c") /* ty=Tensor[(1, 10, 1, 1, 16), int32] */;
  %19 = add(%17, %18) /* ty=Tensor[(1, 10, 8, 8, 16), int32] */;
  %20 = multiply(%19, 11 /* ty=int32 */) /* ty=Tensor[(1, 10, 8, 8, 16), int32] */;
  layout_transform(%20, src_layout="NCHW16c", dst_layout="NCHW") /* ty=Tensor[(1, 160, 8, 8), int32] */
}

Cannot find config for target=llvm -keys=cpu -mcpu=cascadelake, workload=('conv2d_NCHWc_int8.x86', ('TENSOR', (1, 60, 8, 8, 16), 'uint8'), ('TENSOR', (10, 60, 1, 1, 4, 16, 4), 'int8'), (1, 1), (0, 0, 0, 0), (1, 1), 'NCHW16c', 'NCHW16c', 'int32'). A fallback configuration is used, which may bring great performance regression.
[00:52:00] /home/ubuntu/tvm/src/runtime/graph/debug/graph_runtime_debug.cc:95: Iteration: 0
[00:52:00] /home/ubuntu/tvm/src/runtime/graph/debug/graph_runtime_debug.cc:100: Op #0 fused_cast_add_cast_layout_transform: 3.04304 us/iter
[00:52:00] /home/ubuntu/tvm/src/runtime/graph/debug/graph_runtime_debug.cc:100: Op #1 fused_transpose_reshape_transpose_reshape_reshape_transpose: 3.49559 us/iter
[00:52:00] /home/ubuntu/tvm/src/runtime/graph/debug/graph_runtime_debug.cc:100: Op #2 fused_cast_sum: 2.51291 us/iter
[00:52:00] /home/ubuntu/tvm/src/runtime/graph/debug/graph_runtime_debug.cc:100: Op #3 fused_expand_dims_multiply_expand_dims_layout_transform: 2.039 us/iter
[00:52:00] /home/ubuntu/tvm/src/runtime/graph/debug/graph_runtime_debug.cc:100: Op #4 fused_layout_transform_1: 2.03924 us/iter
[00:52:00] /home/ubuntu/tvm/src/runtime/graph/debug/graph_runtime_debug.cc:100: Op #5 fused_nn_contrib_conv2d_NCHWc_subtract_add_multiply: 10.5581 us/iter
[00:52:00] /home/ubuntu/tvm/src/runtime/graph/debug/graph_runtime_debug.cc:100: Op #6 fused_layout_transform: 9.6618 us/iter
[00:52:00] /home/ubuntu/tvm/src/runtime/graph/debug/graph_runtime_debug.cc:95: Iteration: 0
[00:52:00] /home/ubuntu/tvm/src/runtime/graph/debug/graph_runtime_debug.cc:100: Op #0 fused_cast_add_cast_layout_transform: 3.06964 us/iter
[00:52:00] /home/ubuntu/tvm/src/runtime/graph/debug/graph_runtime_debug.cc:100: Op #1 fused_transpose_reshape_transpose_reshape_reshape_transpose: 3.5064 us/iter
[00:52:00] /home/ubuntu/tvm/src/runtime/graph/debug/graph_runtime_debug.cc:100: Op #2 fused_cast_sum: 2.46942 us/iter
[00:52:00] /home/ubuntu/tvm/src/runtime/graph/debug/graph_runtime_debug.cc:100: Op #3 fused_expand_dims_multiply_expand_dims_layout_transform: 2.0434 us/iter
[00:52:00] /home/ubuntu/tvm/src/runtime/graph/debug/graph_runtime_debug.cc:100: Op #4 fused_layout_transform_1: 2.04278 us/iter
[00:52:00] /home/ubuntu/tvm/src/runtime/graph/debug/graph_runtime_debug.cc:100: Op #5 fused_nn_contrib_conv2d_NCHWc_subtract_add_multiply: 10.911 us/iter
[00:52:00] /home/ubuntu/tvm/src/runtime/graph/debug/graph_runtime_debug.cc:100: Op #6 fused_layout_transform: 9.7316 us/iter
[00:52:00] /home/ubuntu/tvm/src/runtime/graph/debug/graph_runtime_debug.cc:95: Iteration: 0
[00:52:00] /home/ubuntu/tvm/src/runtime/graph/debug/graph_runtime_debug.cc:100: Op #0 fused_cast_add_cast_layout_transform: 3.07049 us/iter
[00:52:00] /home/ubuntu/tvm/src/runtime/graph/debug/graph_runtime_debug.cc:100: Op #1 fused_transpose_reshape_transpose_reshape_reshape_transpose: 3.54187 us/iter
[00:52:00] /home/ubuntu/tvm/src/runtime/graph/debug/graph_runtime_debug.cc:100: Op #2 fused_cast_sum: 2.49082 us/iter
[00:52:00] /home/ubuntu/tvm/src/runtime/graph/debug/graph_runtime_debug.cc:100: Op #3 fused_expand_dims_multiply_expand_dims_layout_transform: 2.04742 us/iter
[00:52:00] /home/ubuntu/tvm/src/runtime/graph/debug/graph_runtime_debug.cc:100: Op #4 fused_layout_transform_1: 2.01962 us/iter
[00:52:00] /home/ubuntu/tvm/src/runtime/graph/debug/graph_runtime_debug.cc:100: Op #5 fused_nn_contrib_conv2d_NCHWc_subtract_add_multiply: 10.7835 us/iter
[00:52:00] /home/ubuntu/tvm/src/runtime/graph/debug/graph_runtime_debug.cc:100: Op #6 fused_layout_transform: 10.4551 us/iter
[00:52:00] /home/ubuntu/tvm/src/runtime/graph/debug/graph_runtime_debug.cc:95: Iteration: 0
[00:52:00] /home/ubuntu/tvm/src/runtime/graph/debug/graph_runtime_debug.cc:100: Op #0 fused_cast_add_cast_layout_transform: 3.02916 us/iter
[00:52:00] /home/ubuntu/tvm/src/runtime/graph/debug/graph_runtime_debug.cc:100: Op #1 fused_transpose_reshape_transpose_reshape_reshape_transpose: 3.43938 us/iter
[00:52:00] /home/ubuntu/tvm/src/runtime/graph/debug/graph_runtime_debug.cc:100: Op #2 fused_cast_sum: 2.46982 us/iter
[00:52:00] /home/ubuntu/tvm/src/runtime/graph/debug/graph_runtime_debug.cc:100: Op #3 fused_expand_dims_multiply_expand_dims_layout_transform: 2.02367 us/iter
[00:52:00] /home/ubuntu/tvm/src/runtime/graph/debug/graph_runtime_debug.cc:100: Op #4 fused_layout_transform_1: 2.04582 us/iter
[00:52:00] /home/ubuntu/tvm/src/runtime/graph/debug/graph_runtime_debug.cc:100: Op #5 fused_nn_contrib_conv2d_NCHWc_subtract_add_multiply: 10.7609 us/iter
[00:52:00] /home/ubuntu/tvm/src/runtime/graph/debug/graph_runtime_debug.cc:100: Op #6 fused_layout_transform: 9.7442 us/iter
[00:52:00] /home/ubuntu/tvm/src/runtime/graph/debug/graph_runtime_debug.cc:95: Iteration: 0
[00:52:00] /home/ubuntu/tvm/src/runtime/graph/debug/graph_runtime_debug.cc:100: Op #0 fused_cast_add_cast_layout_transform: 3.05982 us/iter
[00:52:00] /home/ubuntu/tvm/src/runtime/graph/debug/graph_runtime_debug.cc:100: Op #1 fused_transpose_reshape_transpose_reshape_reshape_transpose: 3.76213 us/iter
[00:52:00] /home/ubuntu/tvm/src/runtime/graph/debug/graph_runtime_debug.cc:100: Op #2 fused_cast_sum: 2.8318 us/iter
[00:52:00] /home/ubuntu/tvm/src/runtime/graph/debug/graph_runtime_debug.cc:100: Op #3 fused_expand_dims_multiply_expand_dims_layout_transform: 2.05109 us/iter
[00:52:00] /home/ubuntu/tvm/src/runtime/graph/debug/graph_runtime_debug.cc:100: Op #4 fused_layout_transform_1: 2.05749 us/iter
[00:52:00] /home/ubuntu/tvm/src/runtime/graph/debug/graph_runtime_debug.cc:100: Op #5 fused_nn_contrib_conv2d_NCHWc_subtract_add_multiply: 10.9331 us/iter
[00:52:00] /home/ubuntu/tvm/src/runtime/graph/debug/graph_runtime_debug.cc:100: Op #6 fused_layout_transform: 9.78116 us/iter
Cannot find config for target=llvm -keys=cpu -mcpu=cascadelake, workload=('conv2d_NCHWc_int8.x86', ('TENSOR', (1, 960, 8, 8), 'uint8'), ('TENSOR', (160, 960, 1, 1), 'int8'), (1, 1), (0, 0, 0, 0), (1, 1), 'NCHW', 'NCHW', 'int32'). A fallback configuration is used, which may bring great performance regression.
[00:52:00] /home/ubuntu/tvm/src/relay/backend/build_module.cc:326: v0.0.4
def @main(%x: Tensor[(1, 960, 8, 8), int8], %w: Tensor[(160, 960, 1, 1), int8], %b: Tensor[(1, 160, 1, 1), int32]) -> Tensor[(1, 160, 8, 8), int32] {
  %0 = cast(%x, dtype="int32") /* ty=Tensor[(1, 960, 8, 8), int32] */;
  %1 = add(%0, 128 /* ty=int32 */) /* ty=Tensor[(1, 960, 8, 8), int32] */;
  %2 = cast(%1, dtype="uint8") /* ty=Tensor[(1, 960, 8, 8), uint8] */;
  %3 = layout_transform(%2, src_layout="NCHW", dst_layout="NCHW16c") /* ty=Tensor[(1, 60, 8, 8, 16), uint8] */;
  %4 = transpose(%w, axes=[1, 2, 3, 0]) /* ty=Tensor[(960, 1, 1, 160), int8] */;
  %5 = reshape(%4, newshape=[960, 1, 1, 10, 16]) /* ty=Tensor[(960, 1, 1, 10, 16), int8] */;
  %6 = transpose(%5, axes=[3, 1, 2, 4, 0]) /* ty=Tensor[(10, 1, 1, 16, 960), int8] */;
  %7 = reshape(%6, newshape=[10, 1, 1, 16, 60, 16]) /* ty=Tensor[(10, 1, 1, 16, 60, 16), int8] */;
  %8 = reshape(%7, newshape=[10, 1, 1, 16, 60, 4, 4]) /* ty=Tensor[(10, 1, 1, 16, 60, 4, 4), int8] */;
  %9 = transpose(%8, axes=[0, 4, 1, 2, 5, 3, 6]) /* ty=Tensor[(10, 60, 1, 1, 4, 16, 4), int8] */;
  %10 = nn.contrib_conv2d_NCHWc(%3, %9, padding=[0, 0, 0, 0], channels=160, kernel_size=[1, 1], data_layout="NCHW16c", out_layout="NCHW16c", out_dtype="int32") /* ty=Tensor[(1, 10, 8, 8, 16), int32] */;
  %11 = cast(%w, dtype="int32") /* ty=Tensor[(160, 960, 1, 1), int32] */;
  %12 = sum(%11, axis=[1, 2, 3]) /* ty=Tensor[(160), int32] */;
  %13 = expand_dims(%12, axis=1, num_newaxis=2) /* ty=Tensor[(160, 1, 1), int32] */;
  %14 = multiply(%13, 128 /* ty=int32 */) /* ty=Tensor[(160, 1, 1), int32] */;
  %15 = expand_dims(%14, axis=0) /* ty=Tensor[(1, 160, 1, 1), int32] */;
  %16 = layout_transform(%15, src_layout="NCHW", dst_layout="NCHW16c") /* ty=Tensor[(1, 10, 1, 1, 16), int32] */;
  %17 = subtract(%10, %16) /* ty=Tensor[(1, 10, 8, 8, 16), int32] */;
  %18 = layout_transform(%b, src_layout="NCHW", dst_layout="NCHW16c") /* ty=Tensor[(1, 10, 1, 1, 16), int32] */;
  %19 = add(%17, %18) /* ty=Tensor[(1, 10, 8, 8, 16), int32] */;
  %20 = multiply(%19, 11 /* ty=int32 */) /* ty=Tensor[(1, 10, 8, 8, 16), int32] */;
  layout_transform(%20, src_layout="NCHW16c", dst_layout="NCHW") /* ty=Tensor[(1, 160, 8, 8), int32] */
}

Cannot find config for target=llvm -keys=cpu -mcpu=cascadelake, workload=('conv2d_NCHWc_int8.x86', ('TENSOR', (1, 60, 8, 8, 16), 'uint8'), ('TENSOR', (10, 60, 1, 1, 4, 16, 4), 'int8'), (1, 1), (0, 0, 0, 0), (1, 1), 'NCHW16c', 'NCHW16c', 'int32'). A fallback configuration is used, which may bring great performance regression.
[00:52:01] /home/ubuntu/tvm/src/runtime/graph/debug/graph_runtime_debug.cc:95: Iteration: 0
[00:52:01] /home/ubuntu/tvm/src/runtime/graph/debug/graph_runtime_debug.cc:100: Op #0 fused_cast_add_cast_layout_transform: 3.21507 us/iter
[00:52:01] /home/ubuntu/tvm/src/runtime/graph/debug/graph_runtime_debug.cc:100: Op #1 fused_transpose_reshape_transpose_reshape_reshape_transpose: 3.39351 us/iter
[00:52:01] /home/ubuntu/tvm/src/runtime/graph/debug/graph_runtime_debug.cc:100: Op #2 fused_cast_sum: 2.7636 us/iter
[00:52:01] /home/ubuntu/tvm/src/runtime/graph/debug/graph_runtime_debug.cc:100: Op #3 fused_expand_dims_multiply_expand_dims_layout_transform: 2.14791 us/iter
[00:52:01] /home/ubuntu/tvm/src/runtime/graph/debug/graph_runtime_debug.cc:100: Op #4 fused_layout_transform_1: 2.06833 us/iter
[00:52:01] /home/ubuntu/tvm/src/runtime/graph/debug/graph_runtime_debug.cc:100: Op #5 fused_nn_contrib_conv2d_NCHWc_subtract_add_multiply: 10.5378 us/iter
[00:52:01] /home/ubuntu/tvm/src/runtime/graph/debug/graph_runtime_debug.cc:100: Op #6 fused_layout_transform: 9.59589 us/iter
[00:52:01] /home/ubuntu/tvm/src/runtime/graph/debug/graph_runtime_debug.cc:95: Iteration: 0
[00:52:01] /home/ubuntu/tvm/src/runtime/graph/debug/graph_runtime_debug.cc:100: Op #0 fused_cast_add_cast_layout_transform: 3.27062 us/iter
[00:52:01] /home/ubuntu/tvm/src/runtime/graph/debug/graph_runtime_debug.cc:100: Op #1 fused_transpose_reshape_transpose_reshape_reshape_transpose: 3.80787 us/iter
[00:52:01] /home/ubuntu/tvm/src/runtime/graph/debug/graph_runtime_debug.cc:100: Op #2 fused_cast_sum: 3.29567 us/iter
[00:52:01] /home/ubuntu/tvm/src/runtime/graph/debug/graph_runtime_debug.cc:100: Op #3 fused_expand_dims_multiply_expand_dims_layout_transform: 2.18696 us/iter
[00:52:01] /home/ubuntu/tvm/src/runtime/graph/debug/graph_runtime_debug.cc:100: Op #4 fused_layout_transform_1: 2.11209 us/iter
[00:52:01] /home/ubuntu/tvm/src/runtime/graph/debug/graph_runtime_debug.cc:100: Op #5 fused_nn_contrib_conv2d_NCHWc_subtract_add_multiply: 10.5466 us/iter
[00:52:01] /home/ubuntu/tvm/src/runtime/graph/debug/graph_runtime_debug.cc:100: Op #6 fused_layout_transform: 10.1632 us/iter
[00:52:01] /home/ubuntu/tvm/src/runtime/graph/debug/graph_runtime_debug.cc:95: Iteration: 0
[00:52:01] /home/ubuntu/tvm/src/runtime/graph/debug/graph_runtime_debug.cc:100: Op #0 fused_cast_add_cast_layout_transform: 3.07916 us/iter
[00:52:01] /home/ubuntu/tvm/src/runtime/graph/debug/graph_runtime_debug.cc:100: Op #1 fused_transpose_reshape_transpose_reshape_reshape_transpose: 3.80819 us/iter
[00:52:01] /home/ubuntu/tvm/src/runtime/graph/debug/graph_runtime_debug.cc:100: Op #2 fused_cast_sum: 2.76347 us/iter
[00:52:01] /home/ubuntu/tvm/src/runtime/graph/debug/graph_runtime_debug.cc:100: Op #3 fused_expand_dims_multiply_expand_dims_layout_transform: 2.12249 us/iter
[00:52:01] /home/ubuntu/tvm/src/runtime/graph/debug/graph_runtime_debug.cc:100: Op #4 fused_layout_transform_1: 2.29009 us/iter
[00:52:01] /home/ubuntu/tvm/src/runtime/graph/debug/graph_runtime_debug.cc:100: Op #5 fused_nn_contrib_conv2d_NCHWc_subtract_add_multiply: 10.6012 us/iter
[00:52:01] /home/ubuntu/tvm/src/runtime/graph/debug/graph_runtime_debug.cc:100: Op #6 fused_layout_transform: 9.55879 us/iter
[00:52:01] /home/ubuntu/tvm/src/runtime/graph/debug/graph_runtime_debug.cc:95: Iteration: 0
[00:52:01] /home/ubuntu/tvm/src/runtime/graph/debug/graph_runtime_debug.cc:100: Op #0 fused_cast_add_cast_layout_transform: 3.08397 us/iter
[00:52:01] /home/ubuntu/tvm/src/runtime/graph/debug/graph_runtime_debug.cc:100: Op #1 fused_transpose_reshape_transpose_reshape_reshape_transpose: 3.44259 us/iter
[00:52:01] /home/ubuntu/tvm/src/runtime/graph/debug/graph_runtime_debug.cc:100: Op #2 fused_cast_sum: 2.84469 us/iter
[00:52:01] /home/ubuntu/tvm/src/runtime/graph/debug/graph_runtime_debug.cc:100: Op #3 fused_expand_dims_multiply_expand_dims_layout_transform: 2.129 us/iter
[00:52:01] /home/ubuntu/tvm/src/runtime/graph/debug/graph_runtime_debug.cc:100: Op #4 fused_layout_transform_1: 2.41566 us/iter
[00:52:01] /home/ubuntu/tvm/src/runtime/graph/debug/graph_runtime_debug.cc:100: Op #5 fused_nn_contrib_conv2d_NCHWc_subtract_add_multiply: 10.7721 us/iter
[00:52:01] /home/ubuntu/tvm/src/runtime/graph/debug/graph_runtime_debug.cc:100: Op #6 fused_layout_transform: 9.57234 us/iter
[00:52:01] /home/ubuntu/tvm/src/runtime/graph/debug/graph_runtime_debug.cc:95: Iteration: 0
[00:52:01] /home/ubuntu/tvm/src/runtime/graph/debug/graph_runtime_debug.cc:100: Op #0 fused_cast_add_cast_layout_transform: 3.20264 us/iter
[00:52:01] /home/ubuntu/tvm/src/runtime/graph/debug/graph_runtime_debug.cc:100: Op #1 fused_transpose_reshape_transpose_reshape_reshape_transpose: 3.51796 us/iter
[00:52:01] /home/ubuntu/tvm/src/runtime/graph/debug/graph_runtime_debug.cc:100: Op #2 fused_cast_sum: 2.8196 us/iter
[00:52:01] /home/ubuntu/tvm/src/runtime/graph/debug/graph_runtime_debug.cc:100: Op #3 fused_expand_dims_multiply_expand_dims_layout_transform: 2.13658 us/iter
[00:52:01] /home/ubuntu/tvm/src/runtime/graph/debug/graph_runtime_debug.cc:100: Op #4 fused_layout_transform_1: 2.11307 us/iter
[00:52:01] /home/ubuntu/tvm/src/runtime/graph/debug/graph_runtime_debug.cc:100: Op #5 fused_nn_contrib_conv2d_NCHWc_subtract_add_multiply: 10.9917 us/iter
[00:52:01] /home/ubuntu/tvm/src/runtime/graph/debug/graph_runtime_debug.cc:100: Op #6 fused_layout_transform: 7.81456 us/iter
Cannot find config for target=llvm -keys=cpu -mcpu=cascadelake, workload=('conv2d_NCHWc_int8.x86', ('TENSOR', (1, 960, 8, 8), 'uint8'), ('TENSOR', (160, 960, 1, 1), 'int8'), (1, 1), (0, 0, 0, 0), (1, 1), 'NCHW', 'NCHW', 'int32'). A fallback configuration is used, which may bring great performance regression.
[00:52:01] /home/ubuntu/tvm/src/relay/backend/build_module.cc:326: v0.0.4
def @main(%x: Tensor[(1, 960, 8, 8), int8], %w: Tensor[(160, 960, 1, 1), int8], %b: Tensor[(1, 160, 1, 1), int32]) -> Tensor[(1, 160, 8, 8), int32] {
  %0 = cast(%x, dtype="int32") /* ty=Tensor[(1, 960, 8, 8), int32] */;
  %1 = add(%0, 128 /* ty=int32 */) /* ty=Tensor[(1, 960, 8, 8), int32] */;
  %2 = cast(%1, dtype="uint8") /* ty=Tensor[(1, 960, 8, 8), uint8] */;
  %3 = layout_transform(%2, src_layout="NCHW", dst_layout="NCHW16c") /* ty=Tensor[(1, 60, 8, 8, 16), uint8] */;
  %4 = transpose(%w, axes=[1, 2, 3, 0]) /* ty=Tensor[(960, 1, 1, 160), int8] */;
  %5 = reshape(%4, newshape=[960, 1, 1, 10, 16]) /* ty=Tensor[(960, 1, 1, 10, 16), int8] */;
  %6 = transpose(%5, axes=[3, 1, 2, 4, 0]) /* ty=Tensor[(10, 1, 1, 16, 960), int8] */;
  %7 = reshape(%6, newshape=[10, 1, 1, 16, 60, 16]) /* ty=Tensor[(10, 1, 1, 16, 60, 16), int8] */;
  %8 = reshape(%7, newshape=[10, 1, 1, 16, 60, 4, 4]) /* ty=Tensor[(10, 1, 1, 16, 60, 4, 4), int8] */;
  %9 = transpose(%8, axes=[0, 4, 1, 2, 5, 3, 6]) /* ty=Tensor[(10, 60, 1, 1, 4, 16, 4), int8] */;
  %10 = nn.contrib_conv2d_NCHWc(%3, %9, padding=[0, 0, 0, 0], channels=160, kernel_size=[1, 1], data_layout="NCHW16c", out_layout="NCHW16c", out_dtype="int32") /* ty=Tensor[(1, 10, 8, 8, 16), int32] */;
  %11 = cast(%w, dtype="int32") /* ty=Tensor[(160, 960, 1, 1), int32] */;
  %12 = sum(%11, axis=[1, 2, 3]) /* ty=Tensor[(160), int32] */;
  %13 = expand_dims(%12, axis=1, num_newaxis=2) /* ty=Tensor[(160, 1, 1), int32] */;
  %14 = multiply(%13, 128 /* ty=int32 */) /* ty=Tensor[(160, 1, 1), int32] */;
  %15 = expand_dims(%14, axis=0) /* ty=Tensor[(1, 160, 1, 1), int32] */;
  %16 = layout_transform(%15, src_layout="NCHW", dst_layout="NCHW16c") /* ty=Tensor[(1, 10, 1, 1, 16), int32] */;
  %17 = subtract(%10, %16) /* ty=Tensor[(1, 10, 8, 8, 16), int32] */;
  %18 = layout_transform(%b, src_layout="NCHW", dst_layout="NCHW16c") /* ty=Tensor[(1, 10, 1, 1, 16), int32] */;
  %19 = add(%17, %18) /* ty=Tensor[(1, 10, 8, 8, 16), int32] */;
  %20 = multiply(%19, 11 /* ty=int32 */) /* ty=Tensor[(1, 10, 8, 8, 16), int32] */;
  layout_transform(%20, src_layout="NCHW16c", dst_layout="NCHW") /* ty=Tensor[(1, 160, 8, 8), int32] */
}

Cannot find config for target=llvm -keys=cpu -mcpu=cascadelake, workload=('conv2d_NCHWc_int8.x86', ('TENSOR', (1, 60, 8, 8, 16), 'uint8'), ('TENSOR', (10, 60, 1, 1, 4, 16, 4), 'int8'), (1, 1), (0, 0, 0, 0), (1, 1), 'NCHW16c', 'NCHW16c', 'int32'). A fallback configuration is used, which may bring great performance regression.
[00:52:02] /home/ubuntu/tvm/src/runtime/graph/debug/graph_runtime_debug.cc:95: Iteration: 0
[00:52:02] /home/ubuntu/tvm/src/runtime/graph/debug/graph_runtime_debug.cc:100: Op #0 fused_cast_add_cast_layout_transform: 3.19642 us/iter
[00:52:02] /home/ubuntu/tvm/src/runtime/graph/debug/graph_runtime_debug.cc:100: Op #1 fused_transpose_reshape_transpose_reshape_reshape_transpose: 3.36409 us/iter
[00:52:02] /home/ubuntu/tvm/src/runtime/graph/debug/graph_runtime_debug.cc:100: Op #2 fused_cast_sum: 2.47916 us/iter
[00:52:02] /home/ubuntu/tvm/src/runtime/graph/debug/graph_runtime_debug.cc:100: Op #3 fused_expand_dims_multiply_expand_dims_layout_transform: 2.03356 us/iter
[00:52:02] /home/ubuntu/tvm/src/runtime/graph/debug/graph_runtime_debug.cc:100: Op #4 fused_layout_transform_1: 1.99247 us/iter
[00:52:02] /home/ubuntu/tvm/src/runtime/graph/debug/graph_runtime_debug.cc:100: Op #5 fused_nn_contrib_conv2d_NCHWc_subtract_add_multiply: 10.2726 us/iter
[00:52:02] /home/ubuntu/tvm/src/runtime/graph/debug/graph_runtime_debug.cc:100: Op #6 fused_layout_transform: 6.06709 us/iter
[00:52:02] /home/ubuntu/tvm/src/runtime/graph/debug/graph_runtime_debug.cc:95: Iteration: 0
[00:52:02] /home/ubuntu/tvm/src/runtime/graph/debug/graph_runtime_debug.cc:100: Op #0 fused_cast_add_cast_layout_transform: 2.9932 us/iter
[00:52:02] /home/ubuntu/tvm/src/runtime/graph/debug/graph_runtime_debug.cc:100: Op #1 fused_transpose_reshape_transpose_reshape_reshape_transpose: 3.66986 us/iter
[00:52:02] /home/ubuntu/tvm/src/runtime/graph/debug/graph_runtime_debug.cc:100: Op #2 fused_cast_sum: 3.12296 us/iter
[00:52:02] /home/ubuntu/tvm/src/runtime/graph/debug/graph_runtime_debug.cc:100: Op #3 fused_expand_dims_multiply_expand_dims_layout_transform: 2.05427 us/iter
[00:52:02] /home/ubuntu/tvm/src/runtime/graph/debug/graph_runtime_debug.cc:100: Op #4 fused_layout_transform_1: 2.01461 us/iter
[00:52:02] /home/ubuntu/tvm/src/runtime/graph/debug/graph_runtime_debug.cc:100: Op #5 fused_nn_contrib_conv2d_NCHWc_subtract_add_multiply: 10.3822 us/iter
[00:52:02] /home/ubuntu/tvm/src/runtime/graph/debug/graph_runtime_debug.cc:100: Op #6 fused_layout_transform: 5.80255 us/iter
[00:52:02] /home/ubuntu/tvm/src/runtime/graph/debug/graph_runtime_debug.cc:95: Iteration: 0
[00:52:02] /home/ubuntu/tvm/src/runtime/graph/debug/graph_runtime_debug.cc:100: Op #0 fused_cast_add_cast_layout_transform: 2.9958 us/iter
[00:52:02] /home/ubuntu/tvm/src/runtime/graph/debug/graph_runtime_debug.cc:100: Op #1 fused_transpose_reshape_transpose_reshape_reshape_transpose: 3.43818 us/iter
[00:52:02] /home/ubuntu/tvm/src/runtime/graph/debug/graph_runtime_debug.cc:100: Op #2 fused_cast_sum: 2.43092 us/iter
[00:52:02] /home/ubuntu/tvm/src/runtime/graph/debug/graph_runtime_debug.cc:100: Op #3 fused_expand_dims_multiply_expand_dims_layout_transform: 2.07502 us/iter
[00:52:02] /home/ubuntu/tvm/src/runtime/graph/debug/graph_runtime_debug.cc:100: Op #4 fused_layout_transform_1: 1.96976 us/iter
[00:52:02] /home/ubuntu/tvm/src/runtime/graph/debug/graph_runtime_debug.cc:100: Op #5 fused_nn_contrib_conv2d_NCHWc_subtract_add_multiply: 10.5131 us/iter
[00:52:02] /home/ubuntu/tvm/src/runtime/graph/debug/graph_runtime_debug.cc:100: Op #6 fused_layout_transform: 6.12775 us/iter
[00:52:02] /home/ubuntu/tvm/src/runtime/graph/debug/graph_runtime_debug.cc:95: Iteration: 0
[00:52:02] /home/ubuntu/tvm/src/runtime/graph/debug/graph_runtime_debug.cc:100: Op #0 fused_cast_add_cast_layout_transform: 3.01784 us/iter
[00:52:02] /home/ubuntu/tvm/src/runtime/graph/debug/graph_runtime_debug.cc:100: Op #1 fused_transpose_reshape_transpose_reshape_reshape_transpose: 3.4871 us/iter
[00:52:02] /home/ubuntu/tvm/src/runtime/graph/debug/graph_runtime_debug.cc:100: Op #2 fused_cast_sum: 2.7079 us/iter
[00:52:02] /home/ubuntu/tvm/src/runtime/graph/debug/graph_runtime_debug.cc:100: Op #3 fused_expand_dims_multiply_expand_dims_layout_transform: 2.35222 us/iter
[00:52:02] /home/ubuntu/tvm/src/runtime/graph/debug/graph_runtime_debug.cc:100: Op #4 fused_layout_transform_1: 2.00304 us/iter
[00:52:02] /home/ubuntu/tvm/src/runtime/graph/debug/graph_runtime_debug.cc:100: Op #5 fused_nn_contrib_conv2d_NCHWc_subtract_add_multiply: 10.675 us/iter
[00:52:02] /home/ubuntu/tvm/src/runtime/graph/debug/graph_runtime_debug.cc:100: Op #6 fused_layout_transform: 6.252 us/iter
[00:52:02] /home/ubuntu/tvm/src/runtime/graph/debug/graph_runtime_debug.cc:95: Iteration: 0
[00:52:02] /home/ubuntu/tvm/src/runtime/graph/debug/graph_runtime_debug.cc:100: Op #0 fused_cast_add_cast_layout_transform: 2.9903 us/iter
[00:52:02] /home/ubuntu/tvm/src/runtime/graph/debug/graph_runtime_debug.cc:100: Op #1 fused_transpose_reshape_transpose_reshape_reshape_transpose: 3.44034 us/iter
[00:52:02] /home/ubuntu/tvm/src/runtime/graph/debug/graph_runtime_debug.cc:100: Op #2 fused_cast_sum: 2.94798 us/iter
[00:52:02] /home/ubuntu/tvm/src/runtime/graph/debug/graph_runtime_debug.cc:100: Op #3 fused_expand_dims_multiply_expand_dims_layout_transform: 2.06544 us/iter
[00:52:02] /home/ubuntu/tvm/src/runtime/graph/debug/graph_runtime_debug.cc:100: Op #4 fused_layout_transform_1: 2.15914 us/iter
[00:52:02] /home/ubuntu/tvm/src/runtime/graph/debug/graph_runtime_debug.cc:100: Op #5 fused_nn_contrib_conv2d_NCHWc_subtract_add_multiply: 10.6993 us/iter
[00:52:02] /home/ubuntu/tvm/src/runtime/graph/debug/graph_runtime_debug.cc:100: Op #6 fused_layout_transform: 6.58068 us/iter
Cannot find config for target=llvm -keys=cpu -mcpu=cascadelake, workload=('conv2d_NCHWc_int8.x86', ('TENSOR', (1, 960, 8, 8), 'uint8'), ('TENSOR', (160, 960, 1, 1), 'int8'), (1, 1), (0, 0, 0, 0), (1, 1), 'NCHW', 'NCHW', 'int32'). A fallback configuration is used, which may bring great performance regression.
[00:52:02] /home/ubuntu/tvm/src/relay/backend/build_module.cc:326: v0.0.4
def @main(%x: Tensor[(1, 960, 8, 8), int8], %w: Tensor[(160, 960, 1, 1), int8], %b: Tensor[(1, 160, 1, 1), int32]) -> Tensor[(1, 160, 8, 8), int32] {
  %0 = cast(%x, dtype="int32") /* ty=Tensor[(1, 960, 8, 8), int32] */;
  %1 = add(%0, 128 /* ty=int32 */) /* ty=Tensor[(1, 960, 8, 8), int32] */;
  %2 = cast(%1, dtype="uint8") /* ty=Tensor[(1, 960, 8, 8), uint8] */;
  %3 = layout_transform(%2, src_layout="NCHW", dst_layout="NCHW16c") /* ty=Tensor[(1, 60, 8, 8, 16), uint8] */;
  %4 = transpose(%w, axes=[1, 2, 3, 0]) /* ty=Tensor[(960, 1, 1, 160), int8] */;
  %5 = reshape(%4, newshape=[960, 1, 1, 10, 16]) /* ty=Tensor[(960, 1, 1, 10, 16), int8] */;
  %6 = transpose(%5, axes=[3, 1, 2, 4, 0]) /* ty=Tensor[(10, 1, 1, 16, 960), int8] */;
  %7 = reshape(%6, newshape=[10, 1, 1, 16, 60, 16]) /* ty=Tensor[(10, 1, 1, 16, 60, 16), int8] */;
  %8 = reshape(%7, newshape=[10, 1, 1, 16, 60, 4, 4]) /* ty=Tensor[(10, 1, 1, 16, 60, 4, 4), int8] */;
  %9 = transpose(%8, axes=[0, 4, 1, 2, 5, 3, 6]) /* ty=Tensor[(10, 60, 1, 1, 4, 16, 4), int8] */;
  %10 = nn.contrib_conv2d_NCHWc(%3, %9, padding=[0, 0, 0, 0], channels=160, kernel_size=[1, 1], data_layout="NCHW16c", out_layout="NCHW16c", out_dtype="int32") /* ty=Tensor[(1, 10, 8, 8, 16), int32] */;
  %11 = cast(%w, dtype="int32") /* ty=Tensor[(160, 960, 1, 1), int32] */;
  %12 = sum(%11, axis=[1, 2, 3]) /* ty=Tensor[(160), int32] */;
  %13 = expand_dims(%12, axis=1, num_newaxis=2) /* ty=Tensor[(160, 1, 1), int32] */;
  %14 = multiply(%13, 128 /* ty=int32 */) /* ty=Tensor[(160, 1, 1), int32] */;
  %15 = expand_dims(%14, axis=0) /* ty=Tensor[(1, 160, 1, 1), int32] */;
  %16 = layout_transform(%15, src_layout="NCHW", dst_layout="NCHW16c") /* ty=Tensor[(1, 10, 1, 1, 16), int32] */;
  %17 = subtract(%10, %16) /* ty=Tensor[(1, 10, 8, 8, 16), int32] */;
  %18 = layout_transform(%b, src_layout="NCHW", dst_layout="NCHW16c") /* ty=Tensor[(1, 10, 1, 1, 16), int32] */;
  %19 = add(%17, %18) /* ty=Tensor[(1, 10, 8, 8, 16), int32] */;
  %20 = multiply(%19, 11 /* ty=int32 */) /* ty=Tensor[(1, 10, 8, 8, 16), int32] */;
  layout_transform(%20, src_layout="NCHW16c", dst_layout="NCHW") /* ty=Tensor[(1, 160, 8, 8), int32] */
}

Cannot find config for target=llvm -keys=cpu -mcpu=cascadelake, workload=('conv2d_NCHWc_int8.x86', ('TENSOR', (1, 60, 8, 8, 16), 'uint8'), ('TENSOR', (10, 60, 1, 1, 4, 16, 4), 'int8'), (1, 1), (0, 0, 0, 0), (1, 1), 'NCHW16c', 'NCHW16c', 'int32'). A fallback configuration is used, which may bring great performance regression.
[00:52:03] /home/ubuntu/tvm/src/runtime/graph/debug/graph_runtime_debug.cc:95: Iteration: 0
[00:52:03] /home/ubuntu/tvm/src/runtime/graph/debug/graph_runtime_debug.cc:100: Op #0 fused_cast_add_cast_layout_transform: 3.01688 us/iter
[00:52:03] /home/ubuntu/tvm/src/runtime/graph/debug/graph_runtime_debug.cc:100: Op #1 fused_transpose_reshape_transpose_reshape_reshape_transpose: 3.31669 us/iter
[00:52:03] /home/ubuntu/tvm/src/runtime/graph/debug/graph_runtime_debug.cc:100: Op #2 fused_cast_sum: 2.47441 us/iter
[00:52:03] /home/ubuntu/tvm/src/runtime/graph/debug/graph_runtime_debug.cc:100: Op #3 fused_expand_dims_multiply_expand_dims_layout_transform: 2.02718 us/iter
[00:52:03] /home/ubuntu/tvm/src/runtime/graph/debug/graph_runtime_debug.cc:100: Op #4 fused_layout_transform_1: 2.01773 us/iter
[00:52:03] /home/ubuntu/tvm/src/runtime/graph/debug/graph_runtime_debug.cc:100: Op #5 fused_nn_contrib_conv2d_NCHWc_subtract_add_multiply: 10.3674 us/iter
[00:52:03] /home/ubuntu/tvm/src/runtime/graph/debug/graph_runtime_debug.cc:100: Op #6 fused_layout_transform: 5.44273 us/iter
[00:52:03] /home/ubuntu/tvm/src/runtime/graph/debug/graph_runtime_debug.cc:95: Iteration: 0
[00:52:03] /home/ubuntu/tvm/src/runtime/graph/debug/graph_runtime_debug.cc:100: Op #0 fused_cast_add_cast_layout_transform: 3.0136 us/iter
[00:52:03] /home/ubuntu/tvm/src/runtime/graph/debug/graph_runtime_debug.cc:100: Op #1 fused_transpose_reshape_transpose_reshape_reshape_transpose: 3.36587 us/iter
[00:52:03] /home/ubuntu/tvm/src/runtime/graph/debug/graph_runtime_debug.cc:100: Op #2 fused_cast_sum: 2.5017 us/iter
[00:52:03] /home/ubuntu/tvm/src/runtime/graph/debug/graph_runtime_debug.cc:100: Op #3 fused_expand_dims_multiply_expand_dims_layout_transform: 2.02243 us/iter
[00:52:03] /home/ubuntu/tvm/src/runtime/graph/debug/graph_runtime_debug.cc:100: Op #4 fused_layout_transform_1: 2.00491 us/iter
[00:52:03] /home/ubuntu/tvm/src/runtime/graph/debug/graph_runtime_debug.cc:100: Op #5 fused_nn_contrib_conv2d_NCHWc_subtract_add_multiply: 10.5024 us/iter
[00:52:03] /home/ubuntu/tvm/src/runtime/graph/debug/graph_runtime_debug.cc:100: Op #6 fused_layout_transform: 5.80838 us/iter
[00:52:03] /home/ubuntu/tvm/src/runtime/graph/debug/graph_runtime_debug.cc:95: Iteration: 0
[00:52:03] /home/ubuntu/tvm/src/runtime/graph/debug/graph_runtime_debug.cc:100: Op #0 fused_cast_add_cast_layout_transform: 3.51228 us/iter
[00:52:03] /home/ubuntu/tvm/src/runtime/graph/debug/graph_runtime_debug.cc:100: Op #1 fused_transpose_reshape_transpose_reshape_reshape_transpose: 3.383 us/iter
[00:52:03] /home/ubuntu/tvm/src/runtime/graph/debug/graph_runtime_debug.cc:100: Op #2 fused_cast_sum: 2.512 us/iter
[00:52:03] /home/ubuntu/tvm/src/runtime/graph/debug/graph_runtime_debug.cc:100: Op #3 fused_expand_dims_multiply_expand_dims_layout_transform: 2.28484 us/iter
[00:52:03] /home/ubuntu/tvm/src/runtime/graph/debug/graph_runtime_debug.cc:100: Op #4 fused_layout_transform_1: 2.03008 us/iter
[00:52:03] /home/ubuntu/tvm/src/runtime/graph/debug/graph_runtime_debug.cc:100: Op #5 fused_nn_contrib_conv2d_NCHWc_subtract_add_multiply: 10.5939 us/iter
[00:52:03] /home/ubuntu/tvm/src/runtime/graph/debug/graph_runtime_debug.cc:100: Op #6 fused_layout_transform: 5.48934 us/iter
[00:52:03] /home/ubuntu/tvm/src/runtime/graph/debug/graph_runtime_debug.cc:95: Iteration: 0
[00:52:03] /home/ubuntu/tvm/src/runtime/graph/debug/graph_runtime_debug.cc:100: Op #0 fused_cast_add_cast_layout_transform: 3.059 us/iter
[00:52:03] /home/ubuntu/tvm/src/runtime/graph/debug/graph_runtime_debug.cc:100: Op #1 fused_transpose_reshape_transpose_reshape_reshape_transpose: 3.38453 us/iter
[00:52:03] /home/ubuntu/tvm/src/runtime/graph/debug/graph_runtime_debug.cc:100: Op #2 fused_cast_sum: 2.5278 us/iter
[00:52:03] /home/ubuntu/tvm/src/runtime/graph/debug/graph_runtime_debug.cc:100: Op #3 fused_expand_dims_multiply_expand_dims_layout_transform: 2.05831 us/iter
[00:52:03] /home/ubuntu/tvm/src/runtime/graph/debug/graph_runtime_debug.cc:100: Op #4 fused_layout_transform_1: 2.0191 us/iter
[00:52:03] /home/ubuntu/tvm/src/runtime/graph/debug/graph_runtime_debug.cc:100: Op #5 fused_nn_contrib_conv2d_NCHWc_subtract_add_multiply: 10.8193 us/iter
[00:52:03] /home/ubuntu/tvm/src/runtime/graph/debug/graph_runtime_debug.cc:100: Op #6 fused_layout_transform: 7.10751 us/iter
[00:52:03] /home/ubuntu/tvm/src/runtime/graph/debug/graph_runtime_debug.cc:95: Iteration: 0
[00:52:03] /home/ubuntu/tvm/src/runtime/graph/debug/graph_runtime_debug.cc:100: Op #0 fused_cast_add_cast_layout_transform: 3.0448 us/iter
[00:52:03] /home/ubuntu/tvm/src/runtime/graph/debug/graph_runtime_debug.cc:100: Op #1 fused_transpose_reshape_transpose_reshape_reshape_transpose: 3.37158 us/iter
[00:52:03] /home/ubuntu/tvm/src/runtime/graph/debug/graph_runtime_debug.cc:100: Op #2 fused_cast_sum: 2.51886 us/iter
[00:52:03] /home/ubuntu/tvm/src/runtime/graph/debug/graph_runtime_debug.cc:100: Op #3 fused_expand_dims_multiply_expand_dims_layout_transform: 2.06146 us/iter
[00:52:03] /home/ubuntu/tvm/src/runtime/graph/debug/graph_runtime_debug.cc:100: Op #4 fused_layout_transform_1: 2.0437 us/iter
[00:52:03] /home/ubuntu/tvm/src/runtime/graph/debug/graph_runtime_debug.cc:100: Op #5 fused_nn_contrib_conv2d_NCHWc_subtract_add_multiply: 10.6386 us/iter
[00:52:03] /home/ubuntu/tvm/src/runtime/graph/debug/graph_runtime_debug.cc:100: Op #6 fused_layout_transform: 5.86336 us/iter
Cannot find config for target=llvm -keys=cpu -mcpu=cascadelake, workload=('conv2d_NCHWc_int8.x86', ('TENSOR', (1, 960, 8, 8), 'uint8'), ('TENSOR', (160, 960, 1, 1), 'int8'), (1, 1), (0, 0, 0, 0), (1, 1), 'NCHW', 'NCHW', 'int32'). A fallback configuration is used, which may bring great performance regression.
[00:52:03] /home/ubuntu/tvm/src/relay/backend/build_module.cc:326: v0.0.4
def @main(%x: Tensor[(1, 960, 8, 8), int8], %w: Tensor[(160, 960, 1, 1), int8], %b: Tensor[(1, 160, 1, 1), int32]) -> Tensor[(1, 160, 8, 8), int32] {
  %0 = cast(%x, dtype="int32") /* ty=Tensor[(1, 960, 8, 8), int32] */;
  %1 = add(%0, 128 /* ty=int32 */) /* ty=Tensor[(1, 960, 8, 8), int32] */;
  %2 = cast(%1, dtype="uint8") /* ty=Tensor[(1, 960, 8, 8), uint8] */;
  %3 = layout_transform(%2, src_layout="NCHW", dst_layout="NCHW16c") /* ty=Tensor[(1, 60, 8, 8, 16), uint8] */;
  %4 = transpose(%w, axes=[1, 2, 3, 0]) /* ty=Tensor[(960, 1, 1, 160), int8] */;
  %5 = reshape(%4, newshape=[960, 1, 1, 10, 16]) /* ty=Tensor[(960, 1, 1, 10, 16), int8] */;
  %6 = transpose(%5, axes=[3, 1, 2, 4, 0]) /* ty=Tensor[(10, 1, 1, 16, 960), int8] */;
  %7 = reshape(%6, newshape=[10, 1, 1, 16, 60, 16]) /* ty=Tensor[(10, 1, 1, 16, 60, 16), int8] */;
  %8 = reshape(%7, newshape=[10, 1, 1, 16, 60, 4, 4]) /* ty=Tensor[(10, 1, 1, 16, 60, 4, 4), int8] */;
  %9 = transpose(%8, axes=[0, 4, 1, 2, 5, 3, 6]) /* ty=Tensor[(10, 60, 1, 1, 4, 16, 4), int8] */;
  %10 = nn.contrib_conv2d_NCHWc(%3, %9, padding=[0, 0, 0, 0], channels=160, kernel_size=[1, 1], data_layout="NCHW16c", out_layout="NCHW16c", out_dtype="int32") /* ty=Tensor[(1, 10, 8, 8, 16), int32] */;
  %11 = cast(%w, dtype="int32") /* ty=Tensor[(160, 960, 1, 1), int32] */;
  %12 = sum(%11, axis=[1, 2, 3]) /* ty=Tensor[(160), int32] */;
  %13 = expand_dims(%12, axis=1, num_newaxis=2) /* ty=Tensor[(160, 1, 1), int32] */;
  %14 = multiply(%13, 128 /* ty=int32 */) /* ty=Tensor[(160, 1, 1), int32] */;
  %15 = expand_dims(%14, axis=0) /* ty=Tensor[(1, 160, 1, 1), int32] */;
  %16 = layout_transform(%15, src_layout="NCHW", dst_layout="NCHW16c") /* ty=Tensor[(1, 10, 1, 1, 16), int32] */;
  %17 = subtract(%10, %16) /* ty=Tensor[(1, 10, 8, 8, 16), int32] */;
  %18 = layout_transform(%b, src_layout="NCHW", dst_layout="NCHW16c") /* ty=Tensor[(1, 10, 1, 1, 16), int32] */;
  %19 = add(%17, %18) /* ty=Tensor[(1, 10, 8, 8, 16), int32] */;
  %20 = multiply(%19, 11 /* ty=int32 */) /* ty=Tensor[(1, 10, 8, 8, 16), int32] */;
  layout_transform(%20, src_layout="NCHW16c", dst_layout="NCHW") /* ty=Tensor[(1, 160, 8, 8), int32] */
}

Cannot find config for target=llvm -keys=cpu -mcpu=cascadelake, workload=('conv2d_NCHWc_int8.x86', ('TENSOR', (1, 60, 8, 8, 16), 'uint8'), ('TENSOR', (10, 60, 1, 1, 4, 16, 4), 'int8'), (1, 1), (0, 0, 0, 0), (1, 1), 'NCHW16c', 'NCHW16c', 'int32'). A fallback configuration is used, which may bring great performance regression.
[00:52:03] /home/ubuntu/tvm/src/runtime/graph/debug/graph_runtime_debug.cc:95: Iteration: 0
[00:52:03] /home/ubuntu/tvm/src/runtime/graph/debug/graph_runtime_debug.cc:100: Op #0 fused_cast_add_cast_layout_transform: 2.9973 us/iter
[00:52:03] /home/ubuntu/tvm/src/runtime/graph/debug/graph_runtime_debug.cc:100: Op #1 fused_transpose_reshape_transpose_reshape_reshape_transpose: 3.83333 us/iter
[00:52:03] /home/ubuntu/tvm/src/runtime/graph/debug/graph_runtime_debug.cc:100: Op #2 fused_cast_sum: 2.47752 us/iter
[00:52:03] /home/ubuntu/tvm/src/runtime/graph/debug/graph_runtime_debug.cc:100: Op #3 fused_expand_dims_multiply_expand_dims_layout_transform: 2.06174 us/iter
[00:52:03] /home/ubuntu/tvm/src/runtime/graph/debug/graph_runtime_debug.cc:100: Op #4 fused_layout_transform_1: 2.05443 us/iter
[00:52:03] /home/ubuntu/tvm/src/runtime/graph/debug/graph_runtime_debug.cc:100: Op #5 fused_nn_contrib_conv2d_NCHWc_subtract_add_multiply: 10.456 us/iter
[00:52:03] /home/ubuntu/tvm/src/runtime/graph/debug/graph_runtime_debug.cc:100: Op #6 fused_layout_transform: 9.10546 us/iter
[00:52:03] /home/ubuntu/tvm/src/runtime/graph/debug/graph_runtime_debug.cc:95: Iteration: 0
[00:52:03] /home/ubuntu/tvm/src/runtime/graph/debug/graph_runtime_debug.cc:100: Op #0 fused_cast_add_cast_layout_transform: 3.03226 us/iter
[00:52:03] /home/ubuntu/tvm/src/runtime/graph/debug/graph_runtime_debug.cc:100: Op #1 fused_transpose_reshape_transpose_reshape_reshape_transpose: 3.49063 us/iter
[00:52:03] /home/ubuntu/tvm/src/runtime/graph/debug/graph_runtime_debug.cc:100: Op #2 fused_cast_sum: 2.46576 us/iter
[00:52:03] /home/ubuntu/tvm/src/runtime/graph/debug/graph_runtime_debug.cc:100: Op #3 fused_expand_dims_multiply_expand_dims_layout_transform: 2.04017 us/iter
[00:52:03] /home/ubuntu/tvm/src/runtime/graph/debug/graph_runtime_debug.cc:100: Op #4 fused_layout_transform_1: 2.01296 us/iter
[00:52:03] /home/ubuntu/tvm/src/runtime/graph/debug/graph_runtime_debug.cc:100: Op #5 fused_nn_contrib_conv2d_NCHWc_subtract_add_multiply: 10.9142 us/iter
[00:52:03] /home/ubuntu/tvm/src/runtime/graph/debug/graph_runtime_debug.cc:100: Op #6 fused_layout_transform: 9.48552 us/iter
[00:52:03] /home/ubuntu/tvm/src/runtime/graph/debug/graph_runtime_debug.cc:95: Iteration: 0
[00:52:03] /home/ubuntu/tvm/src/runtime/graph/debug/graph_runtime_debug.cc:100: Op #0 fused_cast_add_cast_layout_transform: 3.04196 us/iter
[00:52:03] /home/ubuntu/tvm/src/runtime/graph/debug/graph_runtime_debug.cc:100: Op #1 fused_transpose_reshape_transpose_reshape_reshape_transpose: 3.42651 us/iter
[00:52:03] /home/ubuntu/tvm/src/runtime/graph/debug/graph_runtime_debug.cc:100: Op #2 fused_cast_sum: 2.44671 us/iter
[00:52:03] /home/ubuntu/tvm/src/runtime/graph/debug/graph_runtime_debug.cc:100: Op #3 fused_expand_dims_multiply_expand_dims_layout_transform: 2.08076 us/iter
[00:52:03] /home/ubuntu/tvm/src/runtime/graph/debug/graph_runtime_debug.cc:100: Op #4 fused_layout_transform_1: 2.38924 us/iter
[00:52:03] /home/ubuntu/tvm/src/runtime/graph/debug/graph_runtime_debug.cc:100: Op #5 fused_nn_contrib_conv2d_NCHWc_subtract_add_multiply: 10.911 us/iter
[00:52:03] /home/ubuntu/tvm/src/runtime/graph/debug/graph_runtime_debug.cc:100: Op #6 fused_layout_transform: 9.4944 us/iter
[00:52:03] /home/ubuntu/tvm/src/runtime/graph/debug/graph_runtime_debug.cc:95: Iteration: 0
[00:52:03] /home/ubuntu/tvm/src/runtime/graph/debug/graph_runtime_debug.cc:100: Op #0 fused_cast_add_cast_layout_transform: 2.987 us/iter
[00:52:03] /home/ubuntu/tvm/src/runtime/graph/debug/graph_runtime_debug.cc:100: Op #1 fused_transpose_reshape_transpose_reshape_reshape_transpose: 3.43807 us/iter
[00:52:03] /home/ubuntu/tvm/src/runtime/graph/debug/graph_runtime_debug.cc:100: Op #2 fused_cast_sum: 2.41988 us/iter
[00:52:03] /home/ubuntu/tvm/src/runtime/graph/debug/graph_runtime_debug.cc:100: Op #3 fused_expand_dims_multiply_expand_dims_layout_transform: 2.06995 us/iter
[00:52:03] /home/ubuntu/tvm/src/runtime/graph/debug/graph_runtime_debug.cc:100: Op #4 fused_layout_transform_1: 2.01995 us/iter
[00:52:03] /home/ubuntu/tvm/src/runtime/graph/debug/graph_runtime_debug.cc:100: Op #5 fused_nn_contrib_conv2d_NCHWc_subtract_add_multiply: 10.485 us/iter
[00:52:03] /home/ubuntu/tvm/src/runtime/graph/debug/graph_runtime_debug.cc:100: Op #6 fused_layout_transform: 9.55495 us/iter
[00:52:03] /home/ubuntu/tvm/src/runtime/graph/debug/graph_runtime_debug.cc:95: Iteration: 0
[00:52:03] /home/ubuntu/tvm/src/runtime/graph/debug/graph_runtime_debug.cc:100: Op #0 fused_cast_add_cast_layout_transform: 3.01804 us/iter
[00:52:03] /home/ubuntu/tvm/src/runtime/graph/debug/graph_runtime_debug.cc:100: Op #1 fused_transpose_reshape_transpose_reshape_reshape_transpose: 3.46274 us/iter
[00:52:03] /home/ubuntu/tvm/src/runtime/graph/debug/graph_runtime_debug.cc:100: Op #2 fused_cast_sum: 2.43513 us/iter
[00:52:03] /home/ubuntu/tvm/src/runtime/graph/debug/graph_runtime_debug.cc:100: Op #3 fused_expand_dims_multiply_expand_dims_layout_transform: 2.08715 us/iter
[00:52:03] /home/ubuntu/tvm/src/runtime/graph/debug/graph_runtime_debug.cc:100: Op #4 fused_layout_transform_1: 2.01274 us/iter
[00:52:03] /home/ubuntu/tvm/src/runtime/graph/debug/graph_runtime_debug.cc:100: Op #5 fused_nn_contrib_conv2d_NCHWc_subtract_add_multiply: 10.5551 us/iter
[00:52:03] /home/ubuntu/tvm/src/runtime/graph/debug/graph_runtime_debug.cc:100: Op #6 fused_layout_transform: 9.30276 us/iter
Cannot find config for target=llvm -keys=cpu -mcpu=cascadelake, workload=('conv2d_NCHWc_int8.x86', ('TENSOR', (1, 960, 8, 8), 'uint8'), ('TENSOR', (160, 960, 1, 1), 'int8'), (1, 1), (0, 0, 0, 0), (1, 1), 'NCHW', 'NCHW', 'int32'). A fallback configuration is used, which may bring great performance regression.
[00:52:04] /home/ubuntu/tvm/src/relay/backend/build_module.cc:326: v0.0.4
def @main(%x: Tensor[(1, 960, 8, 8), int8], %w: Tensor[(160, 960, 1, 1), int8], %b: Tensor[(1, 160, 1, 1), int32]) -> Tensor[(1, 160, 8, 8), int32] {
  %0 = cast(%x, dtype="int32") /* ty=Tensor[(1, 960, 8, 8), int32] */;
  %1 = add(%0, 128 /* ty=int32 */) /* ty=Tensor[(1, 960, 8, 8), int32] */;
  %2 = cast(%1, dtype="uint8") /* ty=Tensor[(1, 960, 8, 8), uint8] */;
  %3 = layout_transform(%2, src_layout="NCHW", dst_layout="NCHW16c") /* ty=Tensor[(1, 60, 8, 8, 16), uint8] */;
  %4 = transpose(%w, axes=[1, 2, 3, 0]) /* ty=Tensor[(960, 1, 1, 160), int8] */;
  %5 = reshape(%4, newshape=[960, 1, 1, 10, 16]) /* ty=Tensor[(960, 1, 1, 10, 16), int8] */;
  %6 = transpose(%5, axes=[3, 1, 2, 4, 0]) /* ty=Tensor[(10, 1, 1, 16, 960), int8] */;
  %7 = reshape(%6, newshape=[10, 1, 1, 16, 60, 16]) /* ty=Tensor[(10, 1, 1, 16, 60, 16), int8] */;
  %8 = reshape(%7, newshape=[10, 1, 1, 16, 60, 4, 4]) /* ty=Tensor[(10, 1, 1, 16, 60, 4, 4), int8] */;
  %9 = transpose(%8, axes=[0, 4, 1, 2, 5, 3, 6]) /* ty=Tensor[(10, 60, 1, 1, 4, 16, 4), int8] */;
  %10 = nn.contrib_conv2d_NCHWc(%3, %9, padding=[0, 0, 0, 0], channels=160, kernel_size=[1, 1], data_layout="NCHW16c", out_layout="NCHW16c", out_dtype="int32") /* ty=Tensor[(1, 10, 8, 8, 16), int32] */;
  %11 = cast(%w, dtype="int32") /* ty=Tensor[(160, 960, 1, 1), int32] */;
  %12 = sum(%11, axis=[1, 2, 3]) /* ty=Tensor[(160), int32] */;
  %13 = expand_dims(%12, axis=1, num_newaxis=2) /* ty=Tensor[(160, 1, 1), int32] */;
  %14 = multiply(%13, 128 /* ty=int32 */) /* ty=Tensor[(160, 1, 1), int32] */;
  %15 = expand_dims(%14, axis=0) /* ty=Tensor[(1, 160, 1, 1), int32] */;
  %16 = layout_transform(%15, src_layout="NCHW", dst_layout="NCHW16c") /* ty=Tensor[(1, 10, 1, 1, 16), int32] */;
  %17 = subtract(%10, %16) /* ty=Tensor[(1, 10, 8, 8, 16), int32] */;
  %18 = layout_transform(%b, src_layout="NCHW", dst_layout="NCHW16c") /* ty=Tensor[(1, 10, 1, 1, 16), int32] */;
  %19 = add(%17, %18) /* ty=Tensor[(1, 10, 8, 8, 16), int32] */;
  %20 = multiply(%19, 11 /* ty=int32 */) /* ty=Tensor[(1, 10, 8, 8, 16), int32] */;
  layout_transform(%20, src_layout="NCHW16c", dst_layout="NCHW") /* ty=Tensor[(1, 160, 8, 8), int32] */
}

Cannot find config for target=llvm -keys=cpu -mcpu=cascadelake, workload=('conv2d_NCHWc_int8.x86', ('TENSOR', (1, 60, 8, 8, 16), 'uint8'), ('TENSOR', (10, 60, 1, 1, 4, 16, 4), 'int8'), (1, 1), (0, 0, 0, 0), (1, 1), 'NCHW16c', 'NCHW16c', 'int32'). A fallback configuration is used, which may bring great performance regression.
[00:52:04] /home/ubuntu/tvm/src/runtime/graph/debug/graph_runtime_debug.cc:95: Iteration: 0
[00:52:04] /home/ubuntu/tvm/src/runtime/graph/debug/graph_runtime_debug.cc:100: Op #0 fused_cast_add_cast_layout_transform: 3.02954 us/iter
[00:52:04] /home/ubuntu/tvm/src/runtime/graph/debug/graph_runtime_debug.cc:100: Op #1 fused_transpose_reshape_transpose_reshape_reshape_transpose: 3.37664 us/iter
[00:52:04] /home/ubuntu/tvm/src/runtime/graph/debug/graph_runtime_debug.cc:100: Op #2 fused_cast_sum: 2.48434 us/iter
[00:52:04] /home/ubuntu/tvm/src/runtime/graph/debug/graph_runtime_debug.cc:100: Op #3 fused_expand_dims_multiply_expand_dims_layout_transform: 2.05232 us/iter
[00:52:04] /home/ubuntu/tvm/src/runtime/graph/debug/graph_runtime_debug.cc:100: Op #4 fused_layout_transform_1: 2.05218 us/iter
[00:52:04] /home/ubuntu/tvm/src/runtime/graph/debug/graph_runtime_debug.cc:100: Op #5 fused_nn_contrib_conv2d_NCHWc_subtract_add_multiply: 10.3704 us/iter
[00:52:04] /home/ubuntu/tvm/src/runtime/graph/debug/graph_runtime_debug.cc:100: Op #6 fused_layout_transform: 5.18754 us/iter
[00:52:04] /home/ubuntu/tvm/src/runtime/graph/debug/graph_runtime_debug.cc:95: Iteration: 0
[00:52:04] /home/ubuntu/tvm/src/runtime/graph/debug/graph_runtime_debug.cc:100: Op #0 fused_cast_add_cast_layout_transform: 2.99658 us/iter
[00:52:04] /home/ubuntu/tvm/src/runtime/graph/debug/graph_runtime_debug.cc:100: Op #1 fused_transpose_reshape_transpose_reshape_reshape_transpose: 3.7635 us/iter
[00:52:04] /home/ubuntu/tvm/src/runtime/graph/debug/graph_runtime_debug.cc:100: Op #2 fused_cast_sum: 2.49104 us/iter
[00:52:04] /home/ubuntu/tvm/src/runtime/graph/debug/graph_runtime_debug.cc:100: Op #3 fused_expand_dims_multiply_expand_dims_layout_transform: 2.09698 us/iter
[00:52:04] /home/ubuntu/tvm/src/runtime/graph/debug/graph_runtime_debug.cc:100: Op #4 fused_layout_transform_1: 2.05646 us/iter
[00:52:04] /home/ubuntu/tvm/src/runtime/graph/debug/graph_runtime_debug.cc:100: Op #5 fused_nn_contrib_conv2d_NCHWc_subtract_add_multiply: 10.4212 us/iter
[00:52:04] /home/ubuntu/tvm/src/runtime/graph/debug/graph_runtime_debug.cc:100: Op #6 fused_layout_transform: 5.33206 us/iter
[00:52:04] /home/ubuntu/tvm/src/runtime/graph/debug/graph_runtime_debug.cc:95: Iteration: 0
[00:52:04] /home/ubuntu/tvm/src/runtime/graph/debug/graph_runtime_debug.cc:100: Op #0 fused_cast_add_cast_layout_transform: 3.06983 us/iter
[00:52:04] /home/ubuntu/tvm/src/runtime/graph/debug/graph_runtime_debug.cc:100: Op #1 fused_transpose_reshape_transpose_reshape_reshape_transpose: 3.44473 us/iter
[00:52:04] /home/ubuntu/tvm/src/runtime/graph/debug/graph_runtime_debug.cc:100: Op #2 fused_cast_sum: 2.87431 us/iter
[00:52:04] /home/ubuntu/tvm/src/runtime/graph/debug/graph_runtime_debug.cc:100: Op #3 fused_expand_dims_multiply_expand_dims_layout_transform: 2.22694 us/iter
[00:52:04] /home/ubuntu/tvm/src/runtime/graph/debug/graph_runtime_debug.cc:100: Op #4 fused_layout_transform_1: 2.06542 us/iter
[00:52:04] /home/ubuntu/tvm/src/runtime/graph/debug/graph_runtime_debug.cc:100: Op #5 fused_nn_contrib_conv2d_NCHWc_subtract_add_multiply: 10.69 us/iter
[00:52:04] /home/ubuntu/tvm/src/runtime/graph/debug/graph_runtime_debug.cc:100: Op #6 fused_layout_transform: 6.48069 us/iter
[00:52:04] /home/ubuntu/tvm/src/runtime/graph/debug/graph_runtime_debug.cc:95: Iteration: 0
[00:52:04] /home/ubuntu/tvm/src/runtime/graph/debug/graph_runtime_debug.cc:100: Op #0 fused_cast_add_cast_layout_transform: 3.05459 us/iter
[00:52:04] /home/ubuntu/tvm/src/runtime/graph/debug/graph_runtime_debug.cc:100: Op #1 fused_transpose_reshape_transpose_reshape_reshape_transpose: 3.48194 us/iter
[00:52:04] /home/ubuntu/tvm/src/runtime/graph/debug/graph_runtime_debug.cc:100: Op #2 fused_cast_sum: 2.51055 us/iter
[00:52:04] /home/ubuntu/tvm/src/runtime/graph/debug/graph_runtime_debug.cc:100: Op #3 fused_expand_dims_multiply_expand_dims_layout_transform: 2.0831 us/iter
[00:52:04] /home/ubuntu/tvm/src/runtime/graph/debug/graph_runtime_debug.cc:100: Op #4 fused_layout_transform_1: 2.08722 us/iter
[00:52:04] /home/ubuntu/tvm/src/runtime/graph/debug/graph_runtime_debug.cc:100: Op #5 fused_nn_contrib_conv2d_NCHWc_subtract_add_multiply: 10.8246 us/iter
[00:52:04] /home/ubuntu/tvm/src/runtime/graph/debug/graph_runtime_debug.cc:100: Op #6 fused_layout_transform: 5.88251 us/iter
[00:52:04] /home/ubuntu/tvm/src/runtime/graph/debug/graph_runtime_debug.cc:95: Iteration: 0
[00:52:04] /home/ubuntu/tvm/src/runtime/graph/debug/graph_runtime_debug.cc:100: Op #0 fused_cast_add_cast_layout_transform: 3.05767 us/iter
[00:52:04] /home/ubuntu/tvm/src/runtime/graph/debug/graph_runtime_debug.cc:100: Op #1 fused_transpose_reshape_transpose_reshape_reshape_transpose: 3.42685 us/iter
[00:52:04] /home/ubuntu/tvm/src/runtime/graph/debug/graph_runtime_debug.cc:100: Op #2 fused_cast_sum: 2.5044 us/iter
[00:52:04] /home/ubuntu/tvm/src/runtime/graph/debug/graph_runtime_debug.cc:100: Op #3 fused_expand_dims_multiply_expand_dims_layout_transform: 2.08465 us/iter
[00:52:04] /home/ubuntu/tvm/src/runtime/graph/debug/graph_runtime_debug.cc:100: Op #4 fused_layout_transform_1: 2.07013 us/iter
[00:52:04] /home/ubuntu/tvm/src/runtime/graph/debug/graph_runtime_debug.cc:100: Op #5 fused_nn_contrib_conv2d_NCHWc_subtract_add_multiply: 10.4999 us/iter
[00:52:04] /home/ubuntu/tvm/src/runtime/graph/debug/graph_runtime_debug.cc:100: Op #6 fused_layout_transform: 5.45852 us/iter
Cannot find config for target=llvm -keys=cpu -mcpu=cascadelake, workload=('conv2d_NCHWc_int8.x86', ('TENSOR', (1, 960, 8, 8), 'uint8'), ('TENSOR', (160, 960, 1, 1), 'int8'), (1, 1), (0, 0, 0, 0), (1, 1), 'NCHW', 'NCHW', 'int32'). A fallback configuration is used, which may bring great performance regression.
[00:52:05] /home/ubuntu/tvm/src/relay/backend/build_module.cc:326: v0.0.4
def @main(%x: Tensor[(1, 960, 8, 8), int8], %w: Tensor[(160, 960, 1, 1), int8], %b: Tensor[(1, 160, 1, 1), int32]) -> Tensor[(1, 160, 8, 8), int32] {
  %0 = cast(%x, dtype="int32") /* ty=Tensor[(1, 960, 8, 8), int32] */;
  %1 = add(%0, 128 /* ty=int32 */) /* ty=Tensor[(1, 960, 8, 8), int32] */;
  %2 = cast(%1, dtype="uint8") /* ty=Tensor[(1, 960, 8, 8), uint8] */;
  %3 = layout_transform(%2, src_layout="NCHW", dst_layout="NCHW16c") /* ty=Tensor[(1, 60, 8, 8, 16), uint8] */;
  %4 = transpose(%w, axes=[1, 2, 3, 0]) /* ty=Tensor[(960, 1, 1, 160), int8] */;
  %5 = reshape(%4, newshape=[960, 1, 1, 10, 16]) /* ty=Tensor[(960, 1, 1, 10, 16), int8] */;
  %6 = transpose(%5, axes=[3, 1, 2, 4, 0]) /* ty=Tensor[(10, 1, 1, 16, 960), int8] */;
  %7 = reshape(%6, newshape=[10, 1, 1, 16, 60, 16]) /* ty=Tensor[(10, 1, 1, 16, 60, 16), int8] */;
  %8 = reshape(%7, newshape=[10, 1, 1, 16, 60, 4, 4]) /* ty=Tensor[(10, 1, 1, 16, 60, 4, 4), int8] */;
  %9 = transpose(%8, axes=[0, 4, 1, 2, 5, 3, 6]) /* ty=Tensor[(10, 60, 1, 1, 4, 16, 4), int8] */;
  %10 = nn.contrib_conv2d_NCHWc(%3, %9, padding=[0, 0, 0, 0], channels=160, kernel_size=[1, 1], data_layout="NCHW16c", out_layout="NCHW16c", out_dtype="int32") /* ty=Tensor[(1, 10, 8, 8, 16), int32] */;
  %11 = cast(%w, dtype="int32") /* ty=Tensor[(160, 960, 1, 1), int32] */;
  %12 = sum(%11, axis=[1, 2, 3]) /* ty=Tensor[(160), int32] */;
  %13 = expand_dims(%12, axis=1, num_newaxis=2) /* ty=Tensor[(160, 1, 1), int32] */;
  %14 = multiply(%13, 128 /* ty=int32 */) /* ty=Tensor[(160, 1, 1), int32] */;
  %15 = expand_dims(%14, axis=0) /* ty=Tensor[(1, 160, 1, 1), int32] */;
  %16 = layout_transform(%15, src_layout="NCHW", dst_layout="NCHW16c") /* ty=Tensor[(1, 10, 1, 1, 16), int32] */;
  %17 = subtract(%10, %16) /* ty=Tensor[(1, 10, 8, 8, 16), int32] */;
  %18 = layout_transform(%b, src_layout="NCHW", dst_layout="NCHW16c") /* ty=Tensor[(1, 10, 1, 1, 16), int32] */;
  %19 = add(%17, %18) /* ty=Tensor[(1, 10, 8, 8, 16), int32] */;
  %20 = multiply(%19, 11 /* ty=int32 */) /* ty=Tensor[(1, 10, 8, 8, 16), int32] */;
  layout_transform(%20, src_layout="NCHW16c", dst_layout="NCHW") /* ty=Tensor[(1, 160, 8, 8), int32] */
}

Cannot find config for target=llvm -keys=cpu -mcpu=cascadelake, workload=('conv2d_NCHWc_int8.x86', ('TENSOR', (1, 60, 8, 8, 16), 'uint8'), ('TENSOR', (10, 60, 1, 1, 4, 16, 4), 'int8'), (1, 1), (0, 0, 0, 0), (1, 1), 'NCHW16c', 'NCHW16c', 'int32'). A fallback configuration is used, which may bring great performance regression.
[00:52:05] /home/ubuntu/tvm/src/runtime/graph/debug/graph_runtime_debug.cc:95: Iteration: 0
[00:52:05] /home/ubuntu/tvm/src/runtime/graph/debug/graph_runtime_debug.cc:100: Op #0 fused_cast_add_cast_layout_transform: 2.98919 us/iter
[00:52:05] /home/ubuntu/tvm/src/runtime/graph/debug/graph_runtime_debug.cc:100: Op #1 fused_transpose_reshape_transpose_reshape_reshape_transpose: 3.49114 us/iter
[00:52:05] /home/ubuntu/tvm/src/runtime/graph/debug/graph_runtime_debug.cc:100: Op #2 fused_cast_sum: 2.70148 us/iter
[00:52:05] /home/ubuntu/tvm/src/runtime/graph/debug/graph_runtime_debug.cc:100: Op #3 fused_expand_dims_multiply_expand_dims_layout_transform: 2.24883 us/iter
[00:52:05] /home/ubuntu/tvm/src/runtime/graph/debug/graph_runtime_debug.cc:100: Op #4 fused_layout_transform_1: 1.98498 us/iter
[00:52:05] /home/ubuntu/tvm/src/runtime/graph/debug/graph_runtime_debug.cc:100: Op #5 fused_nn_contrib_conv2d_NCHWc_subtract_add_multiply: 10.2675 us/iter
[00:52:05] /home/ubuntu/tvm/src/runtime/graph/debug/graph_runtime_debug.cc:100: Op #6 fused_layout_transform: 7.09326 us/iter
[00:52:05] /home/ubuntu/tvm/src/runtime/graph/debug/graph_runtime_debug.cc:95: Iteration: 0
[00:52:05] /home/ubuntu/tvm/src/runtime/graph/debug/graph_runtime_debug.cc:100: Op #0 fused_cast_add_cast_layout_transform: 3.24073 us/iter
[00:52:05] /home/ubuntu/tvm/src/runtime/graph/debug/graph_runtime_debug.cc:100: Op #1 fused_transpose_reshape_transpose_reshape_reshape_transpose: 3.66273 us/iter
[00:52:05] /home/ubuntu/tvm/src/runtime/graph/debug/graph_runtime_debug.cc:100: Op #2 fused_cast_sum: 2.57211 us/iter
[00:52:05] /home/ubuntu/tvm/src/runtime/graph/debug/graph_runtime_debug.cc:100: Op #3 fused_expand_dims_multiply_expand_dims_layout_transform: 2.25129 us/iter
[00:52:05] /home/ubuntu/tvm/src/runtime/graph/debug/graph_runtime_debug.cc:100: Op #4 fused_layout_transform_1: 2.01384 us/iter
[00:52:05] /home/ubuntu/tvm/src/runtime/graph/debug/graph_runtime_debug.cc:100: Op #5 fused_nn_contrib_conv2d_NCHWc_subtract_add_multiply: 10.9238 us/iter
[00:52:05] /home/ubuntu/tvm/src/runtime/graph/debug/graph_runtime_debug.cc:100: Op #6 fused_layout_transform: 9.90818 us/iter
[00:52:05] /home/ubuntu/tvm/src/runtime/graph/debug/graph_runtime_debug.cc:95: Iteration: 0
[00:52:05] /home/ubuntu/tvm/src/runtime/graph/debug/graph_runtime_debug.cc:100: Op #0 fused_cast_add_cast_layout_transform: 3.23828 us/iter
[00:52:05] /home/ubuntu/tvm/src/runtime/graph/debug/graph_runtime_debug.cc:100: Op #1 fused_transpose_reshape_transpose_reshape_reshape_transpose: 4.07442 us/iter
[00:52:05] /home/ubuntu/tvm/src/runtime/graph/debug/graph_runtime_debug.cc:100: Op #2 fused_cast_sum: 2.54002 us/iter
[00:52:05] /home/ubuntu/tvm/src/runtime/graph/debug/graph_runtime_debug.cc:100: Op #3 fused_expand_dims_multiply_expand_dims_layout_transform: 2.01407 us/iter
[00:52:05] /home/ubuntu/tvm/src/runtime/graph/debug/graph_runtime_debug.cc:100: Op #4 fused_layout_transform_1: 2.2216 us/iter
[00:52:05] /home/ubuntu/tvm/src/runtime/graph/debug/graph_runtime_debug.cc:100: Op #5 fused_nn_contrib_conv2d_NCHWc_subtract_add_multiply: 10.6703 us/iter
[00:52:05] /home/ubuntu/tvm/src/runtime/graph/debug/graph_runtime_debug.cc:100: Op #6 fused_layout_transform: 9.8563 us/iter
[00:52:05] /home/ubuntu/tvm/src/runtime/graph/debug/graph_runtime_debug.cc:95: Iteration: 0
[00:52:05] /home/ubuntu/tvm/src/runtime/graph/debug/graph_runtime_debug.cc:100: Op #0 fused_cast_add_cast_layout_transform: 3.22489 us/iter
[00:52:05] /home/ubuntu/tvm/src/runtime/graph/debug/graph_runtime_debug.cc:100: Op #1 fused_transpose_reshape_transpose_reshape_reshape_transpose: 3.49427 us/iter
[00:52:05] /home/ubuntu/tvm/src/runtime/graph/debug/graph_runtime_debug.cc:100: Op #2 fused_cast_sum: 2.96444 us/iter
[00:52:05] /home/ubuntu/tvm/src/runtime/graph/debug/graph_runtime_debug.cc:100: Op #3 fused_expand_dims_multiply_expand_dims_layout_transform: 2.12633 us/iter
[00:52:05] /home/ubuntu/tvm/src/runtime/graph/debug/graph_runtime_debug.cc:100: Op #4 fused_layout_transform_1: 2.03916 us/iter
[00:52:05] /home/ubuntu/tvm/src/runtime/graph/debug/graph_runtime_debug.cc:100: Op #5 fused_nn_contrib_conv2d_NCHWc_subtract_add_multiply: 10.9533 us/iter
[00:52:05] /home/ubuntu/tvm/src/runtime/graph/debug/graph_runtime_debug.cc:100: Op #6 fused_layout_transform: 10.0857 us/iter
[00:52:05] /home/ubuntu/tvm/src/runtime/graph/debug/graph_runtime_debug.cc:95: Iteration: 0
[00:52:05] /home/ubuntu/tvm/src/runtime/graph/debug/graph_runtime_debug.cc:100: Op #0 fused_cast_add_cast_layout_transform: 3.69228 us/iter
[00:52:05] /home/ubuntu/tvm/src/runtime/graph/debug/graph_runtime_debug.cc:100: Op #1 fused_transpose_reshape_transpose_reshape_reshape_transpose: 4.05179 us/iter
[00:52:05] /home/ubuntu/tvm/src/runtime/graph/debug/graph_runtime_debug.cc:100: Op #2 fused_cast_sum: 2.572 us/iter
[00:52:05] /home/ubuntu/tvm/src/runtime/graph/debug/graph_runtime_debug.cc:100: Op #3 fused_expand_dims_multiply_expand_dims_layout_transform: 2.07062 us/iter
[00:52:05] /home/ubuntu/tvm/src/runtime/graph/debug/graph_runtime_debug.cc:100: Op #4 fused_layout_transform_1: 2.05583 us/iter
[00:52:05] /home/ubuntu/tvm/src/runtime/graph/debug/graph_runtime_debug.cc:100: Op #5 fused_nn_contrib_conv2d_NCHWc_subtract_add_multiply: 11.2124 us/iter
[00:52:05] /home/ubuntu/tvm/src/runtime/graph/debug/graph_runtime_debug.cc:100: Op #6 fused_layout_transform: 10.0472 us/iter
Cannot find config for target=llvm -keys=cpu -mcpu=cascadelake, workload=('conv2d_NCHWc_int8.x86', ('TENSOR', (1, 960, 8, 8), 'uint8'), ('TENSOR', (160, 960, 1, 1), 'int8'), (1, 1), (0, 0, 0, 0), (1, 1), 'NCHW', 'NCHW', 'int32'). A fallback configuration is used, which may bring great performance regression.
[00:52:06] /home/ubuntu/tvm/src/relay/backend/build_module.cc:326: v0.0.4
…
def @main(%x: Tensor[(1, 128, 65, 65), int8], %w: Tensor[(256, 128, 3, 3), int8], %b: Tensor[(1, 256, 1, 1), int32]) -> Tensor[(1, 256, 32, 32), int32] {
  %0 = cast(%x, dtype="int32") /* ty=Tensor[(1, 128, 65, 65), int32] */;
  %1 = add(%0, 128 /* ty=int32 */) /* ty=Tensor[(1, 128, 65, 65), int32] */;
  %2 = cast(%1, dtype="uint8") /* ty=Tensor[(1, 128, 65, 65), uint8] */;
  %3 = layout_transform(%2, src_layout="NCHW", dst_layout="NCHW16c") /* ty=Tensor[(1, 8, 65, 65, 16), uint8] */;
  %4 = transpose(%w, axes=[1, 2, 3, 0]) /* ty=Tensor[(128, 3, 3, 256), int8] */;
  %5 = reshape(%4, newshape=[128, 3, 3, 16, 16]) /* ty=Tensor[(128, 3, 3, 16, 16), int8] */;
  %6 = transpose(%5, axes=[3, 1, 2, 4, 0]) /* ty=Tensor[(16, 3, 3, 16, 128), int8] */;
  %7 = reshape(%6, newshape=[16, 3, 3, 16, 8, 16]) /* ty=Tensor[(16, 3, 3, 16, 8, 16), int8] */;
  %8 = reshape(%7, newshape=[16, 3, 3, 16, 8, 4, 4]) /* ty=Tensor[(16, 3, 3, 16, 8, 4, 4), int8] */;
  %9 = transpose(%8, axes=[0, 4, 1, 2, 5, 3, 6]) /* ty=Tensor[(16, 8, 3, 3, 4, 16, 4), int8] */;
  %10 = nn.contrib_conv2d_NCHWc(%3, %9, strides=[2, 2], padding=[0, 0, 0, 0], channels=256, kernel_size=[3, 3], data_layout="NCHW16c", out_layout="NCHW16c", out_dtype="int32") /* ty=Tensor[(1, 16, 32, 32, 16), int32] */;
  %11 = cast(%w, dtype="int32") /* ty=Tensor[(256, 128, 3, 3), int32] */;
  %12 = sum(%11, axis=[1, 2, 3]) /* ty=Tensor[(256), int32] */;
  %13 = expand_dims(%12, axis=1, num_newaxis=2) /* ty=Tensor[(256, 1, 1), int32] */;
  %14 = multiply(%13, 128 /* ty=int32 */) /* ty=Tensor[(256, 1, 1), int32] */;
  %15 = expand_dims(%14, axis=0) /* ty=Tensor[(1, 256, 1, 1), int32] */;
  %16 = layout_transform(%15, src_layout="NCHW", dst_layout="NCHW16c") /* ty=Tensor[(1, 16, 1, 1, 16), int32] */;
  %17 = subtract(%10, %16) /* ty=Tensor[(1, 16, 32, 32, 16), int32] */;
  %18 = layout_transform(%b, src_layout="NCHW", dst_layout="NCHW16c") /* ty=Tensor[(1, 16, 1, 1, 16), int32] */;
  %19 = add(%17, %18) /* ty=Tensor[(1, 16, 32, 32, 16), int32] */;
  %20 = multiply(%19, 11 /* ty=int32 */) /* ty=Tensor[(1, 16, 32, 32, 16), int32] */;
  layout_transform(%20, src_layout="NCHW16c", dst_layout="NCHW") /* ty=Tensor[(1, 256, 32, 32), int32] */
}

Cannot find config for target=llvm -keys=cpu -mcpu=cascadelake, workload=('conv2d_NCHWc_int8.x86', ('TENSOR', (1, 8, 65, 65, 16), 'uint8'), ('TENSOR', (16, 8, 3, 3, 4, 16, 4), 'int8'), (2, 2), (0, 0, 0, 0), (1, 1), 'NCHW16c', 'NCHW16c', 'int32'). A fallback configuration is used, which may bring great performance regression.
[00:53:55] /home/ubuntu/tvm/src/runtime/graph/debug/graph_runtime_debug.cc:95: Iteration: 0
[00:53:55] /home/ubuntu/tvm/src/runtime/graph/debug/graph_runtime_debug.cc:100: Op #0 fused_cast_add_cast_layout_transform: 11.1985 us/iter
[00:53:55] /home/ubuntu/tvm/src/runtime/graph/debug/graph_runtime_debug.cc:100: Op #1 fused_transpose_reshape_transpose_reshape_reshape_transpose: 8.0851 us/iter
[00:53:55] /home/ubuntu/tvm/src/runtime/graph/debug/graph_runtime_debug.cc:100: Op #2 fused_cast_sum: 4.6206 us/iter
[00:53:55] /home/ubuntu/tvm/src/runtime/graph/debug/graph_runtime_debug.cc:100: Op #3 fused_expand_dims_multiply_expand_dims_layout_transform: 2.2802 us/iter
[00:53:55] /home/ubuntu/tvm/src/runtime/graph/debug/graph_runtime_debug.cc:100: Op #4 fused_layout_transform_1: 2.1706 us/iter
[00:53:55] /home/ubuntu/tvm/src/runtime/graph/debug/graph_runtime_debug.cc:100: Op #5 fused_nn_contrib_conv2d_NCHWc_subtract_add_multiply: 78.7313 us/iter
[00:53:55] /home/ubuntu/tvm/src/runtime/graph/debug/graph_runtime_debug.cc:100: Op #6 fused_layout_transform: 27.8413 us/iter
[00:53:55] /home/ubuntu/tvm/src/runtime/graph/debug/graph_runtime_debug.cc:95: Iteration: 0
[00:53:55] /home/ubuntu/tvm/src/runtime/graph/debug/graph_runtime_debug.cc:100: Op #0 fused_cast_add_cast_layout_transform: 11.0392 us/iter
[00:53:55] /home/ubuntu/tvm/src/runtime/graph/debug/graph_runtime_debug.cc:100: Op #1 fused_transpose_reshape_transpose_reshape_reshape_transpose: 8.0399 us/iter
[00:53:55] /home/ubuntu/tvm/src/runtime/graph/debug/graph_runtime_debug.cc:100: Op #2 fused_cast_sum: 4.6377 us/iter
[00:53:55] /home/ubuntu/tvm/src/runtime/graph/debug/graph_runtime_debug.cc:100: Op #3 fused_expand_dims_multiply_expand_dims_layout_transform: 2.2417 us/iter
[00:53:55] /home/ubuntu/tvm/src/runtime/graph/debug/graph_runtime_debug.cc:100: Op #4 fused_layout_transform_1: 2.2318 us/iter
[00:53:55] /home/ubuntu/tvm/src/runtime/graph/debug/graph_runtime_debug.cc:100: Op #5 fused_nn_contrib_conv2d_NCHWc_subtract_add_multiply: 77.5672 us/iter
[00:53:55] /home/ubuntu/tvm/src/runtime/graph/debug/graph_runtime_debug.cc:100: Op #6 fused_layout_transform: 27.0767 us/iter
[00:53:55] /home/ubuntu/tvm/src/runtime/graph/debug/graph_runtime_debug.cc:95: Iteration: 0
[00:53:55] /home/ubuntu/tvm/src/runtime/graph/debug/graph_runtime_debug.cc:100: Op #0 fused_cast_add_cast_layout_transform: 11.9942 us/iter
[00:53:55] /home/ubuntu/tvm/src/runtime/graph/debug/graph_runtime_debug.cc:100: Op #1 fused_transpose_reshape_transpose_reshape_reshape_transpose: 9.8292 us/iter
[00:53:55] /home/ubuntu/tvm/src/runtime/graph/debug/graph_runtime_debug.cc:100: Op #2 fused_cast_sum: 4.864 us/iter
[00:53:55] /home/ubuntu/tvm/src/runtime/graph/debug/graph_runtime_debug.cc:100: Op #3 fused_expand_dims_multiply_expand_dims_layout_transform: 2.3039 us/iter
[00:53:55] /home/ubuntu/tvm/src/runtime/graph/debug/graph_runtime_debug.cc:100: Op #4 fused_layout_transform_1: 2.1733 us/iter
[00:53:55] /home/ubuntu/tvm/src/runtime/graph/debug/graph_runtime_debug.cc:100: Op #5 fused_nn_contrib_conv2d_NCHWc_subtract_add_multiply: 77.7939 us/iter
[00:53:55] /home/ubuntu/tvm/src/runtime/graph/debug/graph_runtime_debug.cc:100: Op #6 fused_layout_transform: 26.9334 us/iter
[00:53:55] /home/ubuntu/tvm/src/runtime/graph/debug/graph_runtime_debug.cc:95: Iteration: 0
[00:53:55] /home/ubuntu/tvm/src/runtime/graph/debug/graph_runtime_debug.cc:100: Op #0 fused_cast_add_cast_layout_transform: 11.028 us/iter
[00:53:55] /home/ubuntu/tvm/src/runtime/graph/debug/graph_runtime_debug.cc:100: Op #1 fused_transpose_reshape_transpose_reshape_reshape_transpose: 8.005 us/iter
[00:53:55] /home/ubuntu/tvm/src/runtime/graph/debug/graph_runtime_debug.cc:100: Op #2 fused_cast_sum: 4.6404 us/iter
[00:53:55] /home/ubuntu/tvm/src/runtime/graph/debug/graph_runtime_debug.cc:100: Op #3 fused_expand_dims_multiply_expand_dims_layout_transform: 2.2682 us/iter
[00:53:55] /home/ubuntu/tvm/src/runtime/graph/debug/graph_runtime_debug.cc:100: Op #4 fused_layout_transform_1: 2.2536 us/iter
[00:53:55] /home/ubuntu/tvm/src/runtime/graph/debug/graph_runtime_debug.cc:100: Op #5 fused_nn_contrib_conv2d_NCHWc_subtract_add_multiply: 77.5026 us/iter
[00:53:55] /home/ubuntu/tvm/src/runtime/graph/debug/graph_runtime_debug.cc:100: Op #6 fused_layout_transform: 26.8449 us/iter
[00:53:55] /home/ubuntu/tvm/src/runtime/graph/debug/graph_runtime_debug.cc:95: Iteration: 0
[00:53:55] /home/ubuntu/tvm/src/runtime/graph/debug/graph_runtime_debug.cc:100: Op #0 fused_cast_add_cast_layout_transform: 11.0191 us/iter
[00:53:55] /home/ubuntu/tvm/src/runtime/graph/debug/graph_runtime_debug.cc:100: Op #1 fused_transpose_reshape_transpose_reshape_reshape_transpose: 7.9222 us/iter
[00:53:55] /home/ubuntu/tvm/src/runtime/graph/debug/graph_runtime_debug.cc:100: Op #2 fused_cast_sum: 4.6565 us/iter
[00:53:55] /home/ubuntu/tvm/src/runtime/graph/debug/graph_runtime_debug.cc:100: Op #3 fused_expand_dims_multiply_expand_dims_layout_transform: 2.23 us/iter
[00:53:55] /home/ubuntu/tvm/src/runtime/graph/debug/graph_runtime_debug.cc:100: Op #4 fused_layout_transform_1: 2.2162 us/iter
[00:53:55] /home/ubuntu/tvm/src/runtime/graph/debug/graph_runtime_debug.cc:100: Op #5 fused_nn_contrib_conv2d_NCHWc_subtract_add_multiply: 77.9427 us/iter
[00:53:55] /home/ubuntu/tvm/src/runtime/graph/debug/graph_runtime_debug.cc:100: Op #6 fused_layout_transform: 26.5942 us/iter
Cannot find config for target=llvm -keys=cpu -mcpu=cascadelake, workload=('conv2d_NCHWc_int8.x86', ('TENSOR', (1, 128, 65, 65), 'uint8'), ('TENSOR', (256, 128, 3, 3), 'int8'), (2, 2), (0, 0, 0, 0), (1, 1), 'NCHW', 'NCHW', 'int32'). A fallback configuration is used, which may bring great performance regression.
[00:53:56] /home/ubuntu/tvm/src/relay/backend/build_module.cc:326: v0.0.4
def @main(%x: Tensor[(1, 128, 65, 65), int8], %w: Tensor[(256, 128, 3, 3), int8], %b: Tensor[(1, 256, 1, 1), int32]) -> Tensor[(1, 256, 32, 32), int32] {
  %0 = cast(%x, dtype="int32") /* ty=Tensor[(1, 128, 65, 65), int32] */;
  %1 = add(%0, 128 /* ty=int32 */) /* ty=Tensor[(1, 128, 65, 65), int32] */;
  %2 = cast(%1, dtype="uint8") /* ty=Tensor[(1, 128, 65, 65), uint8] */;
  %3 = layout_transform(%2, src_layout="NCHW", dst_layout="NCHW16c") /* ty=Tensor[(1, 8, 65, 65, 16), uint8] */;
  %4 = transpose(%w, axes=[1, 2, 3, 0]) /* ty=Tensor[(128, 3, 3, 256), int8] */;
  %5 = reshape(%4, newshape=[128, 3, 3, 16, 16]) /* ty=Tensor[(128, 3, 3, 16, 16), int8] */;
  %6 = transpose(%5, axes=[3, 1, 2, 4, 0]) /* ty=Tensor[(16, 3, 3, 16, 128), int8] */;
  %7 = reshape(%6, newshape=[16, 3, 3, 16, 8, 16]) /* ty=Tensor[(16, 3, 3, 16, 8, 16), int8] */;
  %8 = reshape(%7, newshape=[16, 3, 3, 16, 8, 4, 4]) /* ty=Tensor[(16, 3, 3, 16, 8, 4, 4), int8] */;
  %9 = transpose(%8, axes=[0, 4, 1, 2, 5, 3, 6]) /* ty=Tensor[(16, 8, 3, 3, 4, 16, 4), int8] */;
  %10 = nn.contrib_conv2d_NCHWc(%3, %9, strides=[2, 2], padding=[0, 0, 0, 0], channels=256, kernel_size=[3, 3], data_layout="NCHW16c", out_layout="NCHW16c", out_dtype="int32") /* ty=Tensor[(1, 16, 32, 32, 16), int32] */;
  %11 = cast(%w, dtype="int32") /* ty=Tensor[(256, 128, 3, 3), int32] */;
  %12 = sum(%11, axis=[1, 2, 3]) /* ty=Tensor[(256), int32] */;
  %13 = expand_dims(%12, axis=1, num_newaxis=2) /* ty=Tensor[(256, 1, 1), int32] */;
  %14 = multiply(%13, 128 /* ty=int32 */) /* ty=Tensor[(256, 1, 1), int32] */;
  %15 = expand_dims(%14, axis=0) /* ty=Tensor[(1, 256, 1, 1), int32] */;
  %16 = layout_transform(%15, src_layout="NCHW", dst_layout="NCHW16c") /* ty=Tensor[(1, 16, 1, 1, 16), int32] */;
  %17 = subtract(%10, %16) /* ty=Tensor[(1, 16, 32, 32, 16), int32] */;
  %18 = layout_transform(%b, src_layout="NCHW", dst_layout="NCHW16c") /* ty=Tensor[(1, 16, 1, 1, 16), int32] */;
  %19 = add(%17, %18) /* ty=Tensor[(1, 16, 32, 32, 16), int32] */;
  %20 = multiply(%19, 11 /* ty=int32 */) /* ty=Tensor[(1, 16, 32, 32, 16), int32] */;
  layout_transform(%20, src_layout="NCHW16c", dst_layout="NCHW") /* ty=Tensor[(1, 256, 32, 32), int32] */
}

Cannot find config for target=llvm -keys=cpu -mcpu=cascadelake, workload=('conv2d_NCHWc_int8.x86', ('TENSOR', (1, 8, 65, 65, 16), 'uint8'), ('TENSOR', (16, 8, 3, 3, 4, 16, 4), 'int8'), (2, 2), (0, 0, 0, 0), (1, 1), 'NCHW16c', 'NCHW16c', 'int32'). A fallback configuration is used, which may bring great performance regression.
[00:53:56] /home/ubuntu/tvm/src/runtime/graph/debug/graph_runtime_debug.cc:95: Iteration: 0
[00:53:56] /home/ubuntu/tvm/src/runtime/graph/debug/graph_runtime_debug.cc:100: Op #0 fused_cast_add_cast_layout_transform: 11.0303 us/iter
[00:53:56] /home/ubuntu/tvm/src/runtime/graph/debug/graph_runtime_debug.cc:100: Op #1 fused_transpose_reshape_transpose_reshape_reshape_transpose: 8.097 us/iter
[00:53:56] /home/ubuntu/tvm/src/runtime/graph/debug/graph_runtime_debug.cc:100: Op #2 fused_cast_sum: 4.5359 us/iter
[00:53:56] /home/ubuntu/tvm/src/runtime/graph/debug/graph_runtime_debug.cc:100: Op #3 fused_expand_dims_multiply_expand_dims_layout_transform: 2.1454 us/iter
[00:53:56] /home/ubuntu/tvm/src/runtime/graph/debug/graph_runtime_debug.cc:100: Op #4 fused_layout_transform_1: 2.1534 us/iter
[00:53:56] /home/ubuntu/tvm/src/runtime/graph/debug/graph_runtime_debug.cc:100: Op #5 fused_nn_contrib_conv2d_NCHWc_subtract_add_multiply: 77.966 us/iter
[00:53:56] /home/ubuntu/tvm/src/runtime/graph/debug/graph_runtime_debug.cc:100: Op #6 fused_layout_transform: 26.7524 us/iter
[00:53:56] /home/ubuntu/tvm/src/runtime/graph/debug/graph_runtime_debug.cc:95: Iteration: 0
[00:53:56] /home/ubuntu/tvm/src/runtime/graph/debug/graph_runtime_debug.cc:100: Op #0 fused_cast_add_cast_layout_transform: 10.9717 us/iter
[00:53:56] /home/ubuntu/tvm/src/runtime/graph/debug/graph_runtime_debug.cc:100: Op #1 fused_transpose_reshape_transpose_reshape_reshape_transpose: 8.1683 us/iter
[00:53:56] /home/ubuntu/tvm/src/runtime/graph/debug/graph_runtime_debug.cc:100: Op #2 fused_cast_sum: 4.5992 us/iter
[00:53:56] /home/ubuntu/tvm/src/runtime/graph/debug/graph_runtime_debug.cc:100: Op #3 fused_expand_dims_multiply_expand_dims_layout_transform: 2.1567 us/iter
[00:53:56] /home/ubuntu/tvm/src/runtime/graph/debug/graph_runtime_debug.cc:100: Op #4 fused_layout_transform_1: 2.1359 us/iter
[00:53:56] /home/ubuntu/tvm/src/runtime/graph/debug/graph_runtime_debug.cc:100: Op #5 fused_nn_contrib_conv2d_NCHWc_subtract_add_multiply: 78.0812 us/iter
[00:53:56] /home/ubuntu/tvm/src/runtime/graph/debug/graph_runtime_debug.cc:100: Op #6 fused_layout_transform: 26.5031 us/iter
[00:53:56] /home/ubuntu/tvm/src/runtime/graph/debug/graph_runtime_debug.cc:95: Iteration: 0
[00:53:56] /home/ubuntu/tvm/src/runtime/graph/debug/graph_runtime_debug.cc:100: Op #0 fused_cast_add_cast_layout_transform: 11.1079 us/iter
[00:53:56] /home/ubuntu/tvm/src/runtime/graph/debug/graph_runtime_debug.cc:100: Op #1 fused_transpose_reshape_transpose_reshape_reshape_transpose: 8.5489 us/iter
[00:53:56] /home/ubuntu/tvm/src/runtime/graph/debug/graph_runtime_debug.cc:100: Op #2 fused_cast_sum: 4.6534 us/iter
[00:53:56] /home/ubuntu/tvm/src/runtime/graph/debug/graph_runtime_debug.cc:100: Op #3 fused_expand_dims_multiply_expand_dims_layout_transform: 2.1819 us/iter
[00:53:56] /home/ubuntu/tvm/src/runtime/graph/debug/graph_runtime_debug.cc:100: Op #4 fused_layout_transform_1: 2.1288 us/iter
[00:53:56] /home/ubuntu/tvm/src/runtime/graph/debug/graph_runtime_debug.cc:100: Op #5 fused_nn_contrib_conv2d_NCHWc_subtract_add_multiply: 79.6504 us/iter
[00:53:56] /home/ubuntu/tvm/src/runtime/graph/debug/graph_runtime_debug.cc:100: Op #6 fused_layout_transform: 26.8016 us/iter
[00:53:56] /home/ubuntu/tvm/src/runtime/graph/debug/graph_runtime_debug.cc:95: Iteration: 0
[00:53:56] /home/ubuntu/tvm/src/runtime/graph/debug/graph_runtime_debug.cc:100: Op #0 fused_cast_add_cast_layout_transform: 10.9993 us/iter
[00:53:56] /home/ubuntu/tvm/src/runtime/graph/debug/graph_runtime_debug.cc:100: Op #1 fused_transpose_reshape_transpose_reshape_reshape_transpose: 9.1613 us/iter
[00:53:56] /home/ubuntu/tvm/src/runtime/graph/debug/graph_runtime_debug.cc:100: Op #2 fused_cast_sum: 4.6445 us/iter
[00:53:56] /home/ubuntu/tvm/src/runtime/graph/debug/graph_runtime_debug.cc:100: Op #3 fused_expand_dims_multiply_expand_dims_layout_transform: 2.116 us/iter
[00:53:56] /home/ubuntu/tvm/src/runtime/graph/debug/graph_runtime_debug.cc:100: Op #4 fused_layout_transform_1: 2.1337 us/iter
[00:53:56] /home/ubuntu/tvm/src/runtime/graph/debug/graph_runtime_debug.cc:100: Op #5 fused_nn_contrib_conv2d_NCHWc_subtract_add_multiply: 80.3275 us/iter
[00:53:56] /home/ubuntu/tvm/src/runtime/graph/debug/graph_runtime_debug.cc:100: Op #6 fused_layout_transform: 26.5722 us/iter
[00:53:56] /home/ubuntu/tvm/src/runtime/graph/debug/graph_runtime_debug.cc:95: Iteration: 0
[00:53:56] /home/ubuntu/tvm/src/runtime/graph/debug/graph_runtime_debug.cc:100: Op #0 fused_cast_add_cast_layout_transform: 11.0223 us/iter
[00:53:56] /home/ubuntu/tvm/src/runtime/graph/debug/graph_runtime_debug.cc:100: Op #1 fused_transpose_reshape_transpose_reshape_reshape_transpose: 8.6824 us/iter
[00:53:56] /home/ubuntu/tvm/src/runtime/graph/debug/graph_runtime_debug.cc:100: Op #2 fused_cast_sum: 4.6629 us/iter
[00:53:56] /home/ubuntu/tvm/src/runtime/graph/debug/graph_runtime_debug.cc:100: Op #3 fused_expand_dims_multiply_expand_dims_layout_transform: 2.1602 us/iter
[00:53:56] /home/ubuntu/tvm/src/runtime/graph/debug/graph_runtime_debug.cc:100: Op #4 fused_layout_transform_1: 2.1343 us/iter
[00:53:56] /home/ubuntu/tvm/src/runtime/graph/debug/graph_runtime_debug.cc:100: Op #5 fused_nn_contrib_conv2d_NCHWc_subtract_add_multiply: 79.2077 us/iter
[00:53:56] /home/ubuntu/tvm/src/runtime/graph/debug/graph_runtime_debug.cc:100: Op #6 fused_layout_transform: 26.5328 us/iter
Cannot find config for target=llvm -keys=cpu -mcpu=cascadelake, workload=('conv2d_NCHWc_int8.x86', ('TENSOR', (1, 128, 65, 65), 'uint8'), ('TENSOR', (256, 128, 3, 3), 'int8'), (2, 2), (0, 0, 0, 0), (1, 1), 'NCHW', 'NCHW', 'int32'). A fallback configuration is used, which may bring great performance regression.
[00:53:57] /home/ubuntu/tvm/src/relay/backend/build_module.cc:326: v0.0.4
def @main(%x: Tensor[(1, 128, 65, 65), int8], %w: Tensor[(256, 128, 3, 3), int8], %b: Tensor[(1, 256, 1, 1), int32]) -> Tensor[(1, 256, 32, 32), int32] {
  %0 = cast(%x, dtype="int32") /* ty=Tensor[(1, 128, 65, 65), int32] */;
  %1 = add(%0, 128 /* ty=int32 */) /* ty=Tensor[(1, 128, 65, 65), int32] */;
  %2 = cast(%1, dtype="uint8") /* ty=Tensor[(1, 128, 65, 65), uint8] */;
  %3 = layout_transform(%2, src_layout="NCHW", dst_layout="NCHW16c") /* ty=Tensor[(1, 8, 65, 65, 16), uint8] */;
  %4 = transpose(%w, axes=[1, 2, 3, 0]) /* ty=Tensor[(128, 3, 3, 256), int8] */;
  %5 = reshape(%4, newshape=[128, 3, 3, 16, 16]) /* ty=Tensor[(128, 3, 3, 16, 16), int8] */;
  %6 = transpose(%5, axes=[3, 1, 2, 4, 0]) /* ty=Tensor[(16, 3, 3, 16, 128), int8] */;
  %7 = reshape(%6, newshape=[16, 3, 3, 16, 8, 16]) /* ty=Tensor[(16, 3, 3, 16, 8, 16), int8] */;
  %8 = reshape(%7, newshape=[16, 3, 3, 16, 8, 4, 4]) /* ty=Tensor[(16, 3, 3, 16, 8, 4, 4), int8] */;
  %9 = transpose(%8, axes=[0, 4, 1, 2, 5, 3, 6]) /* ty=Tensor[(16, 8, 3, 3, 4, 16, 4), int8] */;
  %10 = nn.contrib_conv2d_NCHWc(%3, %9, strides=[2, 2], padding=[0, 0, 0, 0], channels=256, kernel_size=[3, 3], data_layout="NCHW16c", out_layout="NCHW16c", out_dtype="int32") /* ty=Tensor[(1, 16, 32, 32, 16), int32] */;
  %11 = cast(%w, dtype="int32") /* ty=Tensor[(256, 128, 3, 3), int32] */;
  %12 = sum(%11, axis=[1, 2, 3]) /* ty=Tensor[(256), int32] */;
  %13 = expand_dims(%12, axis=1, num_newaxis=2) /* ty=Tensor[(256, 1, 1), int32] */;
  %14 = multiply(%13, 128 /* ty=int32 */) /* ty=Tensor[(256, 1, 1), int32] */;
  %15 = expand_dims(%14, axis=0) /* ty=Tensor[(1, 256, 1, 1), int32] */;
  %16 = layout_transform(%15, src_layout="NCHW", dst_layout="NCHW16c") /* ty=Tensor[(1, 16, 1, 1, 16), int32] */;
  %17 = subtract(%10, %16) /* ty=Tensor[(1, 16, 32, 32, 16), int32] */;
  %18 = layout_transform(%b, src_layout="NCHW", dst_layout="NCHW16c") /* ty=Tensor[(1, 16, 1, 1, 16), int32] */;
  %19 = add(%17, %18) /* ty=Tensor[(1, 16, 32, 32, 16), int32] */;
  %20 = multiply(%19, 11 /* ty=int32 */) /* ty=Tensor[(1, 16, 32, 32, 16), int32] */;
  layout_transform(%20, src_layout="NCHW16c", dst_layout="NCHW") /* ty=Tensor[(1, 256, 32, 32), int32] */
}

Cannot find config for target=llvm -keys=cpu -mcpu=cascadelake, workload=('conv2d_NCHWc_int8.x86', ('TENSOR', (1, 8, 65, 65, 16), 'uint8'), ('TENSOR', (16, 8, 3, 3, 4, 16, 4), 'int8'), (2, 2), (0, 0, 0, 0), (1, 1), 'NCHW16c', 'NCHW16c', 'int32'). A fallback configuration is used, which may bring great performance regression.
[00:53:57] /home/ubuntu/tvm/src/runtime/graph/debug/graph_runtime_debug.cc:95: Iteration: 0
[00:53:57] /home/ubuntu/tvm/src/runtime/graph/debug/graph_runtime_debug.cc:100: Op #0 fused_cast_add_cast_layout_transform: 11.0446 us/iter
[00:53:57] /home/ubuntu/tvm/src/runtime/graph/debug/graph_runtime_debug.cc:100: Op #1 fused_transpose_reshape_transpose_reshape_reshape_transpose: 8.0641 us/iter
[00:53:57] /home/ubuntu/tvm/src/runtime/graph/debug/graph_runtime_debug.cc:100: Op #2 fused_cast_sum: 4.5122 us/iter
[00:53:57] /home/ubuntu/tvm/src/runtime/graph/debug/graph_runtime_debug.cc:100: Op #3 fused_expand_dims_multiply_expand_dims_layout_transform: 2.1907 us/iter
[00:53:57] /home/ubuntu/tvm/src/runtime/graph/debug/graph_runtime_debug.cc:100: Op #4 fused_layout_transform_1: 2.1814 us/iter
[00:53:57] /home/ubuntu/tvm/src/runtime/graph/debug/graph_runtime_debug.cc:100: Op #5 fused_nn_contrib_conv2d_NCHWc_subtract_add_multiply: 73.1432 us/iter
[00:53:57] /home/ubuntu/tvm/src/runtime/graph/debug/graph_runtime_debug.cc:100: Op #6 fused_layout_transform: 27.0429 us/iter
[00:53:57] /home/ubuntu/tvm/src/runtime/graph/debug/graph_runtime_debug.cc:95: Iteration: 0
[00:53:57] /home/ubuntu/tvm/src/runtime/graph/debug/graph_runtime_debug.cc:100: Op #0 fused_cast_add_cast_layout_transform: 11.0261 us/iter
[00:53:57] /home/ubuntu/tvm/src/runtime/graph/debug/graph_runtime_debug.cc:100: Op #1 fused_transpose_reshape_transpose_reshape_reshape_transpose: 8.0272 us/iter
[00:53:57] /home/ubuntu/tvm/src/runtime/graph/debug/graph_runtime_debug.cc:100: Op #2 fused_cast_sum: 4.586 us/iter
[00:53:57] /home/ubuntu/tvm/src/runtime/graph/debug/graph_runtime_debug.cc:100: Op #3 fused_expand_dims_multiply_expand_dims_layout_transform: 2.2294 us/iter
[00:53:57] /home/ubuntu/tvm/src/runtime/graph/debug/graph_runtime_debug.cc:100: Op #4 fused_layout_transform_1: 2.1723 us/iter
[00:53:57] /home/ubuntu/tvm/src/runtime/graph/debug/graph_runtime_debug.cc:100: Op #5 fused_nn_contrib_conv2d_NCHWc_subtract_add_multiply: 80.5116 us/iter
[00:53:57] /home/ubuntu/tvm/src/runtime/graph/debug/graph_runtime_debug.cc:100: Op #6 fused_layout_transform: 27.0349 us/iter
[00:53:57] /home/ubuntu/tvm/src/runtime/graph/debug/graph_runtime_debug.cc:95: Iteration: 0
[00:53:57] /home/ubuntu/tvm/src/runtime/graph/debug/graph_runtime_debug.cc:100: Op #0 fused_cast_add_cast_layout_transform: 10.9877 us/iter
[00:53:57] /home/ubuntu/tvm/src/runtime/graph/debug/graph_runtime_debug.cc:100: Op #1 fused_transpose_reshape_transpose_reshape_reshape_transpose: 8.0359 us/iter
[00:53:57] /home/ubuntu/tvm/src/runtime/graph/debug/graph_runtime_debug.cc:100: Op #2 fused_cast_sum: 4.5691 us/iter
[00:53:57] /home/ubuntu/tvm/src/runtime/graph/debug/graph_runtime_debug.cc:100: Op #3 fused_expand_dims_multiply_expand_dims_layout_transform: 2.2099 us/iter
[00:53:57] /home/ubuntu/tvm/src/runtime/graph/debug/graph_runtime_debug.cc:100: Op #4 fused_layout_transform_1: 2.1726 us/iter
[00:53:57] /home/ubuntu/tvm/src/runtime/graph/debug/graph_runtime_debug.cc:100: Op #5 fused_nn_contrib_conv2d_NCHWc_subtract_add_multiply: 80.0738 us/iter
[00:53:57] /home/ubuntu/tvm/src/runtime/graph/debug/graph_runtime_debug.cc:100: Op #6 fused_layout_transform: 26.968 us/iter
[00:53:57] /home/ubuntu/tvm/src/runtime/graph/debug/graph_runtime_debug.cc:95: Iteration: 0
[00:53:57] /home/ubuntu/tvm/src/runtime/graph/debug/graph_runtime_debug.cc:100: Op #0 fused_cast_add_cast_layout_transform: 11.0289 us/iter
[00:53:57] /home/ubuntu/tvm/src/runtime/graph/debug/graph_runtime_debug.cc:100: Op #1 fused_transpose_reshape_transpose_reshape_reshape_transpose: 7.9928 us/iter
[00:53:57] /home/ubuntu/tvm/src/runtime/graph/debug/graph_runtime_debug.cc:100: Op #2 fused_cast_sum: 5.9158 us/iter
[00:53:57] /home/ubuntu/tvm/src/runtime/graph/debug/graph_runtime_debug.cc:100: Op #3 fused_expand_dims_multiply_expand_dims_layout_transform: 2.2785 us/iter
[00:53:57] /home/ubuntu/tvm/src/runtime/graph/debug/graph_runtime_debug.cc:100: Op #4 fused_layout_transform_1: 2.196 us/iter
[00:53:57] /home/ubuntu/tvm/src/runtime/graph/debug/graph_runtime_debug.cc:100: Op #5 fused_nn_contrib_conv2d_NCHWc_subtract_add_multiply: 77.8232 us/iter
[00:53:57] /home/ubuntu/tvm/src/runtime/graph/debug/graph_runtime_debug.cc:100: Op #6 fused_layout_transform: 26.7958 us/iter
[00:53:57] /home/ubuntu/tvm/src/runtime/graph/debug/graph_runtime_debug.cc:95: Iteration: 0
[00:53:57] /home/ubuntu/tvm/src/runtime/graph/debug/graph_runtime_debug.cc:100: Op #0 fused_cast_add_cast_layout_transform: 11.0144 us/iter
[00:53:57] /home/ubuntu/tvm/src/runtime/graph/debug/graph_runtime_debug.cc:100: Op #1 fused_transpose_reshape_transpose_reshape_reshape_transpose: 8.0819 us/iter
[00:53:57] /home/ubuntu/tvm/src/runtime/graph/debug/graph_runtime_debug.cc:100: Op #2 fused_cast_sum: 4.5791 us/iter
[00:53:57] /home/ubuntu/tvm/src/runtime/graph/debug/graph_runtime_debug.cc:100: Op #3 fused_expand_dims_multiply_expand_dims_layout_transform: 2.2113 us/iter
[00:53:57] /home/ubuntu/tvm/src/runtime/graph/debug/graph_runtime_debug.cc:100: Op #4 fused_layout_transform_1: 2.1697 us/iter
[00:53:57] /home/ubuntu/tvm/src/runtime/graph/debug/graph_runtime_debug.cc:100: Op #5 fused_nn_contrib_conv2d_NCHWc_subtract_add_multiply: 79.5079 us/iter
[00:53:57] /home/ubuntu/tvm/src/runtime/graph/debug/graph_runtime_debug.cc:100: Op #6 fused_layout_transform: 26.8278 us/iter
Cannot find config for target=llvm -keys=cpu -mcpu=cascadelake, workload=('conv2d_NCHWc_int8.x86', ('TENSOR', (1, 128, 65, 65), 'uint8'), ('TENSOR', (256, 128, 3, 3), 'int8'), (2, 2), (0, 0, 0, 0), (1, 1), 'NCHW', 'NCHW', 'int32'). A fallback configuration is used, which may bring great performance regression.
[00:53:58] /home/ubuntu/tvm/src/relay/backend/build_module.cc:326: v0.0.4
def @main(%x: Tensor[(1, 128, 65, 65), int8], %w: Tensor[(256, 128, 3, 3), int8], %b: Tensor[(1, 256, 1, 1), int32]) -> Tensor[(1, 256, 32, 32), int32] {
  %0 = cast(%x, dtype="int32") /* ty=Tensor[(1, 128, 65, 65), int32] */;
  %1 = add(%0, 128 /* ty=int32 */) /* ty=Tensor[(1, 128, 65, 65), int32] */;
  %2 = cast(%1, dtype="uint8") /* ty=Tensor[(1, 128, 65, 65), uint8] */;
  %3 = layout_transform(%2, src_layout="NCHW", dst_layout="NCHW16c") /* ty=Tensor[(1, 8, 65, 65, 16), uint8] */;
  %4 = transpose(%w, axes=[1, 2, 3, 0]) /* ty=Tensor[(128, 3, 3, 256), int8] */;
  %5 = reshape(%4, newshape=[128, 3, 3, 16, 16]) /* ty=Tensor[(128, 3, 3, 16, 16), int8] */;
  %6 = transpose(%5, axes=[3, 1, 2, 4, 0]) /* ty=Tensor[(16, 3, 3, 16, 128), int8] */;
  %7 = reshape(%6, newshape=[16, 3, 3, 16, 8, 16]) /* ty=Tensor[(16, 3, 3, 16, 8, 16), int8] */;
  %8 = reshape(%7, newshape=[16, 3, 3, 16, 8, 4, 4]) /* ty=Tensor[(16, 3, 3, 16, 8, 4, 4), int8] */;
  %9 = transpose(%8, axes=[0, 4, 1, 2, 5, 3, 6]) /* ty=Tensor[(16, 8, 3, 3, 4, 16, 4), int8] */;
  %10 = nn.contrib_conv2d_NCHWc(%3, %9, strides=[2, 2], padding=[0, 0, 0, 0], channels=256, kernel_size=[3, 3], data_layout="NCHW16c", out_layout="NCHW16c", out_dtype="int32") /* ty=Tensor[(1, 16, 32, 32, 16), int32] */;
  %11 = cast(%w, dtype="int32") /* ty=Tensor[(256, 128, 3, 3), int32] */;
  %12 = sum(%11, axis=[1, 2, 3]) /* ty=Tensor[(256), int32] */;
  %13 = expand_dims(%12, axis=1, num_newaxis=2) /* ty=Tensor[(256, 1, 1), int32] */;
  %14 = multiply(%13, 128 /* ty=int32 */) /* ty=Tensor[(256, 1, 1), int32] */;
  %15 = expand_dims(%14, axis=0) /* ty=Tensor[(1, 256, 1, 1), int32] */;
  %16 = layout_transform(%15, src_layout="NCHW", dst_layout="NCHW16c") /* ty=Tensor[(1, 16, 1, 1, 16), int32] */;
  %17 = subtract(%10, %16) /* ty=Tensor[(1, 16, 32, 32, 16), int32] */;
  %18 = layout_transform(%b, src_layout="NCHW", dst_layout="NCHW16c") /* ty=Tensor[(1, 16, 1, 1, 16), int32] */;
  %19 = add(%17, %18) /* ty=Tensor[(1, 16, 32, 32, 16), int32] */;
  %20 = multiply(%19, 11 /* ty=int32 */) /* ty=Tensor[(1, 16, 32, 32, 16), int32] */;
  layout_transform(%20, src_layout="NCHW16c", dst_layout="NCHW") /* ty=Tensor[(1, 256, 32, 32), int32] */
}

Cannot find config for target=llvm -keys=cpu -mcpu=cascadelake, workload=('conv2d_NCHWc_int8.x86', ('TENSOR', (1, 8, 65, 65, 16), 'uint8'), ('TENSOR', (16, 8, 3, 3, 4, 16, 4), 'int8'), (2, 2), (0, 0, 0, 0), (1, 1), 'NCHW16c', 'NCHW16c', 'int32'). A fallback configuration is used, which may bring great performance regression.
[00:53:58] /home/ubuntu/tvm/src/runtime/graph/debug/graph_runtime_debug.cc:95: Iteration: 0
[00:53:58] /home/ubuntu/tvm/src/runtime/graph/debug/graph_runtime_debug.cc:100: Op #0 fused_cast_add_cast_layout_transform: 13.3747 us/iter
[00:53:58] /home/ubuntu/tvm/src/runtime/graph/debug/graph_runtime_debug.cc:100: Op #1 fused_transpose_reshape_transpose_reshape_reshape_transpose: 8.399 us/iter
[00:53:58] /home/ubuntu/tvm/src/runtime/graph/debug/graph_runtime_debug.cc:100: Op #2 fused_cast_sum: 4.578 us/iter
[00:53:58] /home/ubuntu/tvm/src/runtime/graph/debug/graph_runtime_debug.cc:100: Op #3 fused_expand_dims_multiply_expand_dims_layout_transform: 2.1386 us/iter
[00:53:58] /home/ubuntu/tvm/src/runtime/graph/debug/graph_runtime_debug.cc:100: Op #4 fused_layout_transform_1: 2.1357 us/iter
[00:53:58] /home/ubuntu/tvm/src/runtime/graph/debug/graph_runtime_debug.cc:100: Op #5 fused_nn_contrib_conv2d_NCHWc_subtract_add_multiply: 79.3979 us/iter
[00:53:58] /home/ubuntu/tvm/src/runtime/graph/debug/graph_runtime_debug.cc:100: Op #6 fused_layout_transform: 26.8194 us/iter
[00:53:58] /home/ubuntu/tvm/src/runtime/graph/debug/graph_runtime_debug.cc:95: Iteration: 0
[00:53:58] /home/ubuntu/tvm/src/runtime/graph/debug/graph_runtime_debug.cc:100: Op #0 fused_cast_add_cast_layout_transform: 11.0017 us/iter
[00:53:58] /home/ubuntu/tvm/src/runtime/graph/debug/graph_runtime_debug.cc:100: Op #1 fused_transpose_reshape_transpose_reshape_reshape_transpose: 7.9028 us/iter
[00:53:58] /home/ubuntu/tvm/src/runtime/graph/debug/graph_runtime_debug.cc:100: Op #2 fused_cast_sum: 4.5152 us/iter
[00:53:58] /home/ubuntu/tvm/src/runtime/graph/debug/graph_runtime_debug.cc:100: Op #3 fused_expand_dims_multiply_expand_dims_layout_transform: 2.1343 us/iter
[00:53:58] /home/ubuntu/tvm/src/runtime/graph/debug/graph_runtime_debug.cc:100: Op #4 fused_layout_transform_1: 2.064 us/iter
[00:53:58] /home/ubuntu/tvm/src/runtime/graph/debug/graph_runtime_debug.cc:100: Op #5 fused_nn_contrib_conv2d_NCHWc_subtract_add_multiply: 79.2105 us/iter
[00:53:58] /home/ubuntu/tvm/src/runtime/graph/debug/graph_runtime_debug.cc:100: Op #6 fused_layout_transform: 26.5648 us/iter
[00:53:58] /home/ubuntu/tvm/src/runtime/graph/debug/graph_runtime_debug.cc:95: Iteration: 0
[00:53:58] /home/ubuntu/tvm/src/runtime/graph/debug/graph_runtime_debug.cc:100: Op #0 fused_cast_add_cast_layout_transform: 11.1923 us/iter
[00:53:58] /home/ubuntu/tvm/src/runtime/graph/debug/graph_runtime_debug.cc:100: Op #1 fused_transpose_reshape_transpose_reshape_reshape_transpose: 8.0384 us/iter
[00:53:58] /home/ubuntu/tvm/src/runtime/graph/debug/graph_runtime_debug.cc:100: Op #2 fused_cast_sum: 4.5732 us/iter
[00:53:58] /home/ubuntu/tvm/src/runtime/graph/debug/graph_runtime_debug.cc:100: Op #3 fused_expand_dims_multiply_expand_dims_layout_transform: 2.1017 us/iter
[00:53:58] /home/ubuntu/tvm/src/runtime/graph/debug/graph_runtime_debug.cc:100: Op #4 fused_layout_transform_1: 2.0862 us/iter
[00:53:58] /home/ubuntu/tvm/src/runtime/graph/debug/graph_runtime_debug.cc:100: Op #5 fused_nn_contrib_conv2d_NCHWc_subtract_add_multiply: 78.7604 us/iter
[00:53:58] /home/ubuntu/tvm/src/runtime/graph/debug/graph_runtime_debug.cc:100: Op #6 fused_layout_transform: 28.6672 us/iter
[00:53:58] /home/ubuntu/tvm/src/runtime/graph/debug/graph_runtime_debug.cc:95: Iteration: 0
[00:53:58] /home/ubuntu/tvm/src/runtime/graph/debug/graph_runtime_debug.cc:100: Op #0 fused_cast_add_cast_layout_transform: 11.0154 us/iter
[00:53:58] /home/ubuntu/tvm/src/runtime/graph/debug/graph_runtime_debug.cc:100: Op #1 fused_transpose_reshape_transpose_reshape_reshape_transpose: 7.9318 us/iter
[00:53:58] /home/ubuntu/tvm/src/runtime/graph/debug/graph_runtime_debug.cc:100: Op #2 fused_cast_sum: 4.6385 us/iter
[00:53:58] /home/ubuntu/tvm/src/runtime/graph/debug/graph_runtime_debug.cc:100: Op #3 fused_expand_dims_multiply_expand_dims_layout_transform: 2.1176 us/iter
[00:53:58] /home/ubuntu/tvm/src/runtime/graph/debug/graph_runtime_debug.cc:100: Op #4 fused_layout_transform_1: 2.1424 us/iter
[00:53:58] /home/ubuntu/tvm/src/runtime/graph/debug/graph_runtime_debug.cc:100: Op #5 fused_nn_contrib_conv2d_NCHWc_subtract_add_multiply: 81.266 us/iter
[00:53:58] /home/ubuntu/tvm/src/runtime/graph/debug/graph_runtime_debug.cc:100: Op #6 fused_layout_transform: 26.5913 us/iter
[00:53:58] /home/ubuntu/tvm/src/runtime/graph/debug/graph_runtime_debug.cc:95: Iteration: 0
[00:53:58] /home/ubuntu/tvm/src/runtime/graph/debug/graph_runtime_debug.cc:100: Op #0 fused_cast_add_cast_layout_transform: 11.2507 us/iter
[00:53:58] /home/ubuntu/tvm/src/runtime/graph/debug/graph_runtime_debug.cc:100: Op #1 fused_transpose_reshape_transpose_reshape_reshape_transpose: 10.7453 us/iter
[00:53:58] /home/ubuntu/tvm/src/runtime/graph/debug/graph_runtime_debug.cc:100: Op #2 fused_cast_sum: 4.5529 us/iter
[00:53:58] /home/ubuntu/tvm/src/runtime/graph/debug/graph_runtime_debug.cc:100: Op #3 fused_expand_dims_multiply_expand_dims_layout_transform: 2.1947 us/iter
[00:53:58] /home/ubuntu/tvm/src/runtime/graph/debug/graph_runtime_debug.cc:100: Op #4 fused_layout_transform_1: 2.1106 us/iter
[00:53:58] /home/ubuntu/tvm/src/runtime/graph/debug/graph_runtime_debug.cc:100: Op #5 fused_nn_contrib_conv2d_NCHWc_subtract_add_multiply: 78.7393 us/iter
[00:53:58] /home/ubuntu/tvm/src/runtime/graph/debug/graph_runtime_debug.cc:100: Op #6 fused_layout_transform: 27.9599 us/iter
Cannot find config for target=llvm -keys=cpu -mcpu=cascadelake, workload=('conv2d_NCHWc_int8.x86', ('TENSOR', (1, 128, 65, 65), 'uint8'), ('TENSOR', (256, 128, 3, 3), 'int8'), (2, 2), (0, 0, 0, 0), (1, 1), 'NCHW', 'NCHW', 'int32'). A fallback configuration is used, which may bring great performance regression.
[00:53:59] /home/ubuntu/tvm/src/relay/backend/build_module.cc:326: v0.0.4
def @main(%x: Tensor[(1, 128, 65, 65), int8], %w: Tensor[(256, 128, 3, 3), int8], %b: Tensor[(1, 256, 1, 1), int32]) -> Tensor[(1, 256, 32, 32), int32] {
  %0 = cast(%x, dtype="int32") /* ty=Tensor[(1, 128, 65, 65), int32] */;
  %1 = add(%0, 128 /* ty=int32 */) /* ty=Tensor[(1, 128, 65, 65), int32] */;
  %2 = cast(%1, dtype="uint8") /* ty=Tensor[(1, 128, 65, 65), uint8] */;
  %3 = layout_transform(%2, src_layout="NCHW", dst_layout="NCHW16c") /* ty=Tensor[(1, 8, 65, 65, 16), uint8] */;
  %4 = transpose(%w, axes=[1, 2, 3, 0]) /* ty=Tensor[(128, 3, 3, 256), int8] */;
  %5 = reshape(%4, newshape=[128, 3, 3, 16, 16]) /* ty=Tensor[(128, 3, 3, 16, 16), int8] */;
  %6 = transpose(%5, axes=[3, 1, 2, 4, 0]) /* ty=Tensor[(16, 3, 3, 16, 128), int8] */;
  %7 = reshape(%6, newshape=[16, 3, 3, 16, 8, 16]) /* ty=Tensor[(16, 3, 3, 16, 8, 16), int8] */;
  %8 = reshape(%7, newshape=[16, 3, 3, 16, 8, 4, 4]) /* ty=Tensor[(16, 3, 3, 16, 8, 4, 4), int8] */;
  %9 = transpose(%8, axes=[0, 4, 1, 2, 5, 3, 6]) /* ty=Tensor[(16, 8, 3, 3, 4, 16, 4), int8] */;
  %10 = nn.contrib_conv2d_NCHWc(%3, %9, strides=[2, 2], padding=[0, 0, 0, 0], channels=256, kernel_size=[3, 3], data_layout="NCHW16c", out_layout="NCHW16c", out_dtype="int32") /* ty=Tensor[(1, 16, 32, 32, 16), int32] */;
  %11 = cast(%w, dtype="int32") /* ty=Tensor[(256, 128, 3, 3), int32] */;
  %12 = sum(%11, axis=[1, 2, 3]) /* ty=Tensor[(256), int32] */;
  %13 = expand_dims(%12, axis=1, num_newaxis=2) /* ty=Tensor[(256, 1, 1), int32] */;
  %14 = multiply(%13, 128 /* ty=int32 */) /* ty=Tensor[(256, 1, 1), int32] */;
  %15 = expand_dims(%14, axis=0) /* ty=Tensor[(1, 256, 1, 1), int32] */;
  %16 = layout_transform(%15, src_layout="NCHW", dst_layout="NCHW16c") /* ty=Tensor[(1, 16, 1, 1, 16), int32] */;
  %17 = subtract(%10, %16) /* ty=Tensor[(1, 16, 32, 32, 16), int32] */;
  %18 = layout_transform(%b, src_layout="NCHW", dst_layout="NCHW16c") /* ty=Tensor[(1, 16, 1, 1, 16), int32] */;
  %19 = add(%17, %18) /* ty=Tensor[(1, 16, 32, 32, 16), int32] */;
  %20 = multiply(%19, 11 /* ty=int32 */) /* ty=Tensor[(1, 16, 32, 32, 16), int32] */;
  layout_transform(%20, src_layout="NCHW16c", dst_layout="NCHW") /* ty=Tensor[(1, 256, 32, 32), int32] */
}

Cannot find config for target=llvm -keys=cpu -mcpu=cascadelake, workload=('conv2d_NCHWc_int8.x86', ('TENSOR', (1, 8, 65, 65, 16), 'uint8'), ('TENSOR', (16, 8, 3, 3, 4, 16, 4), 'int8'), (2, 2), (0, 0, 0, 0), (1, 1), 'NCHW16c', 'NCHW16c', 'int32'). A fallback configuration is used, which may bring great performance regression.
[00:53:59] /home/ubuntu/tvm/src/runtime/graph/debug/graph_runtime_debug.cc:95: Iteration: 0
[00:53:59] /home/ubuntu/tvm/src/runtime/graph/debug/graph_runtime_debug.cc:100: Op #0 fused_cast_add_cast_layout_transform: 11.2122 us/iter
[00:53:59] /home/ubuntu/tvm/src/runtime/graph/debug/graph_runtime_debug.cc:100: Op #1 fused_transpose_reshape_transpose_reshape_reshape_transpose: 8.451 us/iter
[00:53:59] /home/ubuntu/tvm/src/runtime/graph/debug/graph_runtime_debug.cc:100: Op #2 fused_cast_sum: 4.8602 us/iter
[00:53:59] /home/ubuntu/tvm/src/runtime/graph/debug/graph_runtime_debug.cc:100: Op #3 fused_expand_dims_multiply_expand_dims_layout_transform: 2.3358 us/iter
[00:53:59] /home/ubuntu/tvm/src/runtime/graph/debug/graph_runtime_debug.cc:100: Op #4 fused_layout_transform_1: 2.2527 us/iter
[00:53:59] /home/ubuntu/tvm/src/runtime/graph/debug/graph_runtime_debug.cc:100: Op #5 fused_nn_contrib_conv2d_NCHWc_subtract_add_multiply: 80.5626 us/iter
[00:53:59] /home/ubuntu/tvm/src/runtime/graph/debug/graph_runtime_debug.cc:100: Op #6 fused_layout_transform: 26.8397 us/iter
[00:53:59] /home/ubuntu/tvm/src/runtime/graph/debug/graph_runtime_debug.cc:95: Iteration: 0
[00:53:59] /home/ubuntu/tvm/src/runtime/graph/debug/graph_runtime_debug.cc:100: Op #0 fused_cast_add_cast_layout_transform: 11.1077 us/iter
[00:53:59] /home/ubuntu/tvm/src/runtime/graph/debug/graph_runtime_debug.cc:100: Op #1 fused_transpose_reshape_transpose_reshape_reshape_transpose: 7.9583 us/iter
[00:53:59] /home/ubuntu/tvm/src/runtime/graph/debug/graph_runtime_debug.cc:100: Op #2 fused_cast_sum: 4.614 us/iter
[00:53:59] /home/ubuntu/tvm/src/runtime/graph/debug/graph_runtime_debug.cc:100: Op #3 fused_expand_dims_multiply_expand_dims_layout_transform: 2.2332 us/iter
[00:53:59] /home/ubuntu/tvm/src/runtime/graph/debug/graph_runtime_debug.cc:100: Op #4 fused_layout_transform_1: 2.2535 us/iter
[00:53:59] /home/ubuntu/tvm/src/runtime/graph/debug/graph_runtime_debug.cc:100: Op #5 fused_nn_contrib_conv2d_NCHWc_subtract_add_multiply: 80.6866 us/iter
[00:53:59] /home/ubuntu/tvm/src/runtime/graph/debug/graph_runtime_debug.cc:100: Op #6 fused_layout_transform: 26.9749 us/iter
[00:53:59] /home/ubuntu/tvm/src/runtime/graph/debug/graph_runtime_debug.cc:95: Iteration: 0
[00:53:59] /home/ubuntu/tvm/src/runtime/graph/debug/graph_runtime_debug.cc:100: Op #0 fused_cast_add_cast_layout_transform: 11.0658 us/iter
[00:53:59] /home/ubuntu/tvm/src/runtime/graph/debug/graph_runtime_debug.cc:100: Op #1 fused_transpose_reshape_transpose_reshape_reshape_transpose: 8.0765 us/iter
[00:53:59] /home/ubuntu/tvm/src/runtime/graph/debug/graph_runtime_debug.cc:100: Op #2 fused_cast_sum: 4.6048 us/iter
[00:53:59] /home/ubuntu/tvm/src/runtime/graph/debug/graph_runtime_debug.cc:100: Op #3 fused_expand_dims_multiply_expand_dims_layout_transform: 2.2762 us/iter
[00:53:59] /home/ubuntu/tvm/src/runtime/graph/debug/graph_runtime_debug.cc:100: Op #4 fused_layout_transform_1: 2.2062 us/iter
[00:53:59] /home/ubuntu/tvm/src/runtime/graph/debug/graph_runtime_debug.cc:100: Op #5 fused_nn_contrib_conv2d_NCHWc_subtract_add_multiply: 79.8206 us/iter
[00:53:59] /home/ubuntu/tvm/src/runtime/graph/debug/graph_runtime_debug.cc:100: Op #6 fused_layout_transform: 26.7598 us/iter
[00:53:59] /home/ubuntu/tvm/src/runtime/graph/debug/graph_runtime_debug.cc:95: Iteration: 0
[00:53:59] /home/ubuntu/tvm/src/runtime/graph/debug/graph_runtime_debug.cc:100: Op #0 fused_cast_add_cast_layout_transform: 11.1002 us/iter
[00:53:59] /home/ubuntu/tvm/src/runtime/graph/debug/graph_runtime_debug.cc:100: Op #1 fused_transpose_reshape_transpose_reshape_reshape_transpose: 7.9538 us/iter
[00:53:59] /home/ubuntu/tvm/src/runtime/graph/debug/graph_runtime_debug.cc:100: Op #2 fused_cast_sum: 4.6518 us/iter
[00:53:59] /home/ubuntu/tvm/src/runtime/graph/debug/graph_runtime_debug.cc:100: Op #3 fused_expand_dims_multiply_expand_dims_layout_transform: 2.2898 us/iter
[00:53:59] /home/ubuntu/tvm/src/runtime/graph/debug/graph_runtime_debug.cc:100: Op #4 fused_layout_transform_1: 2.2052 us/iter
[00:53:59] /home/ubuntu/tvm/src/runtime/graph/debug/graph_runtime_debug.cc:100: Op #5 fused_nn_contrib_conv2d_NCHWc_subtract_add_multiply: 79.0193 us/iter
[00:53:59] /home/ubuntu/tvm/src/runtime/graph/debug/graph_runtime_debug.cc:100: Op #6 fused_layout_transform: 27.3166 us/iter
[00:53:59] /home/ubuntu/tvm/src/runtime/graph/debug/graph_runtime_debug.cc:95: Iteration: 0
[00:53:59] /home/ubuntu/tvm/src/runtime/graph/debug/graph_runtime_debug.cc:100: Op #0 fused_cast_add_cast_layout_transform: 11.0146 us/iter
[00:53:59] /home/ubuntu/tvm/src/runtime/graph/debug/graph_runtime_debug.cc:100: Op #1 fused_transpose_reshape_transpose_reshape_reshape_transpose: 7.9702 us/iter
[00:53:59] /home/ubuntu/tvm/src/runtime/graph/debug/graph_runtime_debug.cc:100: Op #2 fused_cast_sum: 4.5487 us/iter
[00:53:59] /home/ubuntu/tvm/src/runtime/graph/debug/graph_runtime_debug.cc:100: Op #3 fused_expand_dims_multiply_expand_dims_layout_transform: 2.1988 us/iter
[00:53:59] /home/ubuntu/tvm/src/runtime/graph/debug/graph_runtime_debug.cc:100: Op #4 fused_layout_transform_1: 2.1708 us/iter
[00:53:59] /home/ubuntu/tvm/src/runtime/graph/debug/graph_runtime_debug.cc:100: Op #5 fused_nn_contrib_conv2d_NCHWc_subtract_add_multiply: 78.865 us/iter
[00:53:59] /home/ubuntu/tvm/src/runtime/graph/debug/graph_runtime_debug.cc:100: Op #6 fused_layout_transform: 27.1881 us/iter
Cannot find config for target=llvm -keys=cpu -mcpu=cascadelake, workload=('conv2d_NCHWc_int8.x86', ('TENSOR', (1, 128, 65, 65), 'uint8'), ('TENSOR', (256, 128, 3, 3), 'int8'), (2, 2), (0, 0, 0, 0), (1, 1), 'NCHW', 'NCHW', 'int32'). A fallback configuration is used, which may bring great performance regression.
[00:53:59] /home/ubuntu/tvm/src/relay/backend/build_module.cc:326: v0.0.4
def @main(%x: Tensor[(1, 128, 65, 65), int8], %w: Tensor[(256, 128, 3, 3), int8], %b: Tensor[(1, 256, 1, 1), int32]) -> Tensor[(1, 256, 32, 32), int32] {
  %0 = cast(%x, dtype="int32") /* ty=Tensor[(1, 128, 65, 65), int32] */;
  %1 = add(%0, 128 /* ty=int32 */) /* ty=Tensor[(1, 128, 65, 65), int32] */;
  %2 = cast(%1, dtype="uint8") /* ty=Tensor[(1, 128, 65, 65), uint8] */;
  %3 = layout_transform(%2, src_layout="NCHW", dst_layout="NCHW16c") /* ty=Tensor[(1, 8, 65, 65, 16), uint8] */;
  %4 = transpose(%w, axes=[1, 2, 3, 0]) /* ty=Tensor[(128, 3, 3, 256), int8] */;
  %5 = reshape(%4, newshape=[128, 3, 3, 16, 16]) /* ty=Tensor[(128, 3, 3, 16, 16), int8] */;
  %6 = transpose(%5, axes=[3, 1, 2, 4, 0]) /* ty=Tensor[(16, 3, 3, 16, 128), int8] */;
  %7 = reshape(%6, newshape=[16, 3, 3, 16, 8, 16]) /* ty=Tensor[(16, 3, 3, 16, 8, 16), int8] */;
  %8 = reshape(%7, newshape=[16, 3, 3, 16, 8, 4, 4]) /* ty=Tensor[(16, 3, 3, 16, 8, 4, 4), int8] */;
  %9 = transpose(%8, axes=[0, 4, 1, 2, 5, 3, 6]) /* ty=Tensor[(16, 8, 3, 3, 4, 16, 4), int8] */;
  %10 = nn.contrib_conv2d_NCHWc(%3, %9, strides=[2, 2], padding=[0, 0, 0, 0], channels=256, kernel_size=[3, 3], data_layout="NCHW16c", out_layout="NCHW16c", out_dtype="int32") /* ty=Tensor[(1, 16, 32, 32, 16), int32] */;
  %11 = cast(%w, dtype="int32") /* ty=Tensor[(256, 128, 3, 3), int32] */;
  %12 = sum(%11, axis=[1, 2, 3]) /* ty=Tensor[(256), int32] */;
  %13 = expand_dims(%12, axis=1, num_newaxis=2) /* ty=Tensor[(256, 1, 1), int32] */;
  %14 = multiply(%13, 128 /* ty=int32 */) /* ty=Tensor[(256, 1, 1), int32] */;
  %15 = expand_dims(%14, axis=0) /* ty=Tensor[(1, 256, 1, 1), int32] */;
  %16 = layout_transform(%15, src_layout="NCHW", dst_layout="NCHW16c") /* ty=Tensor[(1, 16, 1, 1, 16), int32] */;
  %17 = subtract(%10, %16) /* ty=Tensor[(1, 16, 32, 32, 16), int32] */;
  %18 = layout_transform(%b, src_layout="NCHW", dst_layout="NCHW16c") /* ty=Tensor[(1, 16, 1, 1, 16), int32] */;
  %19 = add(%17, %18) /* ty=Tensor[(1, 16, 32, 32, 16), int32] */;
  %20 = multiply(%19, 11 /* ty=int32 */) /* ty=Tensor[(1, 16, 32, 32, 16), int32] */;
  layout_transform(%20, src_layout="NCHW16c", dst_layout="NCHW") /* ty=Tensor[(1, 256, 32, 32), int32] */
}

Cannot find config for target=llvm -keys=cpu -mcpu=cascadelake, workload=('conv2d_NCHWc_int8.x86', ('TENSOR', (1, 8, 65, 65, 16), 'uint8'), ('TENSOR', (16, 8, 3, 3, 4, 16, 4), 'int8'), (2, 2), (0, 0, 0, 0), (1, 1), 'NCHW16c', 'NCHW16c', 'int32'). A fallback configuration is used, which may bring great performance regression.
[00:54:00] /home/ubuntu/tvm/src/runtime/graph/debug/graph_runtime_debug.cc:95: Iteration: 0
[00:54:00] /home/ubuntu/tvm/src/runtime/graph/debug/graph_runtime_debug.cc:100: Op #0 fused_cast_add_cast_layout_transform: 10.9187 us/iter
[00:54:00] /home/ubuntu/tvm/src/runtime/graph/debug/graph_runtime_debug.cc:100: Op #1 fused_transpose_reshape_transpose_reshape_reshape_transpose: 8.0422 us/iter
[00:54:00] /home/ubuntu/tvm/src/runtime/graph/debug/graph_runtime_debug.cc:100: Op #2 fused_cast_sum: 4.5712 us/iter
[00:54:00] /home/ubuntu/tvm/src/runtime/graph/debug/graph_runtime_debug.cc:100: Op #3 fused_expand_dims_multiply_expand_dims_layout_transform: 2.1955 us/iter
[00:54:00] /home/ubuntu/tvm/src/runtime/graph/debug/graph_runtime_debug.cc:100: Op #4 fused_layout_transform_1: 2.1804 us/iter
[00:54:00] /home/ubuntu/tvm/src/runtime/graph/debug/graph_runtime_debug.cc:100: Op #5 fused_nn_contrib_conv2d_NCHWc_subtract_add_multiply: 76.958 us/iter
[00:54:00] /home/ubuntu/tvm/src/runtime/graph/debug/graph_runtime_debug.cc:100: Op #6 fused_layout_transform: 26.4108 us/iter
[00:54:00] /home/ubuntu/tvm/src/runtime/graph/debug/graph_runtime_debug.cc:95: Iteration: 0
[00:54:00] /home/ubuntu/tvm/src/runtime/graph/debug/graph_runtime_debug.cc:100: Op #0 fused_cast_add_cast_layout_transform: 10.9555 us/iter
[00:54:00] /home/ubuntu/tvm/src/runtime/graph/debug/graph_runtime_debug.cc:100: Op #1 fused_transpose_reshape_transpose_reshape_reshape_transpose: 8.0647 us/iter
[00:54:00] /home/ubuntu/tvm/src/runtime/graph/debug/graph_runtime_debug.cc:100: Op #2 fused_cast_sum: 4.5594 us/iter
[00:54:00] /home/ubuntu/tvm/src/runtime/graph/debug/graph_runtime_debug.cc:100: Op #3 fused_expand_dims_multiply_expand_dims_layout_transform: 2.2918 us/iter
[00:54:00] /home/ubuntu/tvm/src/runtime/graph/debug/graph_runtime_debug.cc:100: Op #4 fused_layout_transform_1: 2.0804 us/iter
[00:54:00] /home/ubuntu/tvm/src/runtime/graph/debug/graph_runtime_debug.cc:100: Op #5 fused_nn_contrib_conv2d_NCHWc_subtract_add_multiply: 78.7918 us/iter
[00:54:00] /home/ubuntu/tvm/src/runtime/graph/debug/graph_runtime_debug.cc:100: Op #6 fused_layout_transform: 26.5031 us/iter
[00:54:00] /home/ubuntu/tvm/src/runtime/graph/debug/graph_runtime_debug.cc:95: Iteration: 0
[00:54:00] /home/ubuntu/tvm/src/runtime/graph/debug/graph_runtime_debug.cc:100: Op #0 fused_cast_add_cast_layout_transform: 10.996 us/iter
[00:54:00] /home/ubuntu/tvm/src/runtime/graph/debug/graph_runtime_debug.cc:100: Op #1 fused_transpose_reshape_transpose_reshape_reshape_transpose: 8.0538 us/iter
[00:54:00] /home/ubuntu/tvm/src/runtime/graph/debug/graph_runtime_debug.cc:100: Op #2 fused_cast_sum: 4.5755 us/iter
[00:54:00] /home/ubuntu/tvm/src/runtime/graph/debug/graph_runtime_debug.cc:100: Op #3 fused_expand_dims_multiply_expand_dims_layout_transform: 2.2466 us/iter
[00:54:00] /home/ubuntu/tvm/src/runtime/graph/debug/graph_runtime_debug.cc:100: Op #4 fused_layout_transform_1: 2.2077 us/iter
[00:54:00] /home/ubuntu/tvm/src/runtime/graph/debug/graph_runtime_debug.cc:100: Op #5 fused_nn_contrib_conv2d_NCHWc_subtract_add_multiply: 78.5185 us/iter
[00:54:00] /home/ubuntu/tvm/src/runtime/graph/debug/graph_runtime_debug.cc:100: Op #6 fused_layout_transform: 26.67 us/iter
[00:54:00] /home/ubuntu/tvm/src/runtime/graph/debug/graph_runtime_debug.cc:95: Iteration: 0
[00:54:00] /home/ubuntu/tvm/src/runtime/graph/debug/graph_runtime_debug.cc:100: Op #0 fused_cast_add_cast_layout_transform: 10.9466 us/iter
[00:54:00] /home/ubuntu/tvm/src/runtime/graph/debug/graph_runtime_debug.cc:100: Op #1 fused_transpose_reshape_transpose_reshape_reshape_transpose: 8.0528 us/iter
[00:54:00] /home/ubuntu/tvm/src/runtime/graph/debug/graph_runtime_debug.cc:100: Op #2 fused_cast_sum: 4.5937 us/iter
[00:54:00] /home/ubuntu/tvm/src/runtime/graph/debug/graph_runtime_debug.cc:100: Op #3 fused_expand_dims_multiply_expand_dims_layout_transform: 2.2509 us/iter
[00:54:00] /home/ubuntu/tvm/src/runtime/graph/debug/graph_runtime_debug.cc:100: Op #4 fused_layout_transform_1: 2.126 us/iter
[00:54:00] /home/ubuntu/tvm/src/runtime/graph/debug/graph_runtime_debug.cc:100: Op #5 fused_nn_contrib_conv2d_NCHWc_subtract_add_multiply: 78.9198 us/iter
[00:54:00] /home/ubuntu/tvm/src/runtime/graph/debug/graph_runtime_debug.cc:100: Op #6 fused_layout_transform: 26.3686 us/iter
[00:54:00] /home/ubuntu/tvm/src/runtime/graph/debug/graph_runtime_debug.cc:95: Iteration: 0
[00:54:00] /home/ubuntu/tvm/src/runtime/graph/debug/graph_runtime_debug.cc:100: Op #0 fused_cast_add_cast_layout_transform: 10.9782 us/iter
[00:54:00] /home/ubuntu/tvm/src/runtime/graph/debug/graph_runtime_debug.cc:100: Op #1 fused_transpose_reshape_transpose_reshape_reshape_transpose: 9.3161 us/iter
[00:54:00] /home/ubuntu/tvm/src/runtime/graph/debug/graph_runtime_debug.cc:100: Op #2 fused_cast_sum: 4.6085 us/iter
[00:54:00] /home/ubuntu/tvm/src/runtime/graph/debug/graph_runtime_debug.cc:100: Op #3 fused_expand_dims_multiply_expand_dims_layout_transform: 2.2142 us/iter
[00:54:00] /home/ubuntu/tvm/src/runtime/graph/debug/graph_runtime_debug.cc:100: Op #4 fused_layout_transform_1: 2.1818 us/iter
[00:54:00] /home/ubuntu/tvm/src/runtime/graph/debug/graph_runtime_debug.cc:100: Op #5 fused_nn_contrib_conv2d_NCHWc_subtract_add_multiply: 78.8997 us/iter
[00:54:00] /home/ubuntu/tvm/src/runtime/graph/debug/graph_runtime_debug.cc:100: Op #6 fused_layout_transform: 26.6956 us/iter
!!! (1024, 16, 16, 2048, 1024, 1, 1, 1, 1) 178.59739999999996
!!! (960, 8, 8, 160, 960, 1, 1, 1, 1) 10.4121
!!! (256, 56, 56, 512, 256, 1, 1, 1, 1) 111.23030000000001
!!! (64, 56, 56, 128, 64, 1, 1, 1, 1) 38.61
!!! (512, 10, 10, 512, 512, 3, 3, 1, 1) 41.0131
!!! (192, 16, 16, 160, 192, 3, 3, 1, 1) 24.963999999999995
!!! (64, 65, 65, 128, 64, 3, 3, 1, 1) 132.1628
!!! (320, 65, 65, 384, 320, 3, 3, 1, 1) 1002.1809000000001
!!! (384, 8, 8, 384, 384, 1, 3, 1, 1) 14.962099999999998
!!! (192, 23, 23, 192, 192, 7, 1, 1, 1) 40.687799999999996
!!! (3, 224, 224, 64, 3, 7, 7, 2, 2) 188.7333
!!! (1024, 15, 15, 2048, 1024, 1, 1, 2, 2) 46.48039999999999
!!! (128, 65, 65, 256, 128, 3, 3, 2, 2) 77.6599
